ckpt/class_on_detect.pth (torch, 550130 bytes, 26 tensors)

class_embedding.weight f4 [8, 16]
0	0xbdaf04a3	-0.08545806
1	0x3e455bb7	0.19273268
2	0x3d8420d6	0.064515755
3	0x3dc6c5e9	0.09705717
4	0xbdf1550b	-0.11783799
5	0x3e4153d1	0.1887963
6	0xbdc15051	-0.09439147
7	0xbd66f63b	-0.056387167
8	0x3d99f789	0.07517917
9	0xbcfa111e	-0.03052574
10	0xbd0380ae	-0.03210514
11	0x3e40a5e3	0.18813281
12	0xbd6b23a8	-0.05740705
13	0x3e046e5b	0.12932722
14	0xbd62086b	-0.05518381
15	0x3b9e6837	0.0048342007
16	0xbc5be770	-0.013421878
17	0x3ca0a9ec	0.019612275
18	0x39230da8	0.00015549979
19	0x3cddaeda	0.027060915
20	0xbceabe0a	-0.02865507
21	0x3c706fa3	0.014675054
22	0xbc86a539	-0.016436206
23	0xbcf62ba4	-0.030050106
24	0x3c327445	0.010891979
25	0xbce2c718	-0.027682826
26	0xbc656191	-0.014000312
27	0xbc623879	-0.013807409
28	0xbc96c5b4	-0.01840482
29	0x3c03b23f	0.008038103
30	0xbceac663	-0.028659051
31	0x3c21d09b	0.009876396
32	0x3e3fc385	0.18726929
33	0xbe3f967e	-0.18709752
34	0xbd991e00	-0.07476425
35	0xbe08fcb0	-0.13377643
36	0x3e8e6f88	0.27819467
37	0xbe1596ee	-0.14608356
38	0x3e53b86d	0.20675822
39	0x3e24058a	0.16017738
40	0xbda2e00e	-0.07952891
41	0x3e08b14f	0.13348888
42	0x3e43ab9e	0.19108436
43	0xbe69b582	-0.22823146
44	0x3e294184	0.16528898
45	0xbe1eb3a7	-0.1549822
46	0x3e104fdc	0.14092964
47	0xbca28d9a	-0.019842912
48	0x3c601223	0.013676199
49	0x3d332762	0.04373873
50	0x3c40d6b3	0.011769938
51	0x3d5746ce	0.05255776
52	0xbd7f4459	-0.06232104
53	0x3d7639f1	0.06011385
54	0xbcc30a84	-0.023808725
55	0xbd437e93	-0.047728132
56	0x3d73991d	0.059472192
57	0xbd4a263a	-0.049352862
58	0xbdce9292	-0.1008655
59	0x3cae6542	0.021288518
60	0xbd577907	-0.052605655
61	0x3d65c291	0.056093756
62	0xbd8a6a3f	-0.06758546
63	0x3b0b0db5	0.0021217887
64	0x3e1b3dfa	0.15160361
65	0xbdd39d17	-0.10332697
66	0x3c29252e	0.010323806
67	0xbd2f2380	-0.042758465
68	0x3e350da5	0.17680986
69	0xbe2b391b	-0.16721003
70	0x3da3afd8	0.07992524
71	0x3d1bdc18	0.038051695
72	0x3c546b74	0.012965072
73	0xbc808faf	-0.015693514
74	0x3da5171c	0.080610484
75	0xbe677d1b	-0.22606318
76	0x3d3ef4a6	0.046620034
77	0xbd7d0c2d	-0.06177919
78	0x3d1fab55	0.038981754
79	0x3e41a605	0.18910988
80	0x3d284f94	0.041091517
81	0x3d8c6147	0.06854492
82	0x3dd5e479	0.10443968
83	0x3d95a2df	0.07306456
84	0x3cc8a101	0.024490835
85	0x3dd94199	0.10608215
86	0xbd13fac7	-0.03612783
87	0xbd14919f	-0.036271688
88	0x3d3e2d36	0.046429835
89	0xbcd14bc1	-0.025548818
90	0xbcf09307	-0.029366983
91	0x3da3ee21	0.08004404
92	0xbce9a812	-0.028522525
93	0x3d066fe5	0.032821555
94	0x3c16b24d	0.009197784
95	0x3d72e568	0.05930081
96	0x3ce74fc4	0.028236277
97	0x3ca3de87	0.02000357
98	0x3c7cb980	0.015425086
99	0x3af68823	0.0018808882
100	0x39954057	0.00028467432
101	0x3c937dbf	0.018004296
102	0x3dd8532b	0.10562738
103	0x3e263b00	0.16233444
104	0x3a10d43f	0.0005524791
105	0x3d9a0e6c	0.07522282
106	0x3d9182b5	0.071050085
107	0x3d001c2c	0.031276867
108	0x3d78ee46	0.06077411
109	0x3d2c30cd	0.042038728
110	0x3d5237ad	0.051322628
111	0x3c7469d6	0.014917811
112	0xbc380c94	-0.011233468
113	0x3bf76363	0.0075496896
114	0x3c4bfabd	0.012449917
115	0x3c304000	0.010757446
116	0xbc838fed	-0.01605984
117	0xba63d87c	-0.00086916215
118	0x3b10aae4	0.0022074515
119	0x3b8ad9ff	0.004237413
120	0x3c483bad	0.012221259
121	0x39ce4bdd	0.00039347904
122	0x39d315fc	0.00040261436
123	0x3bb2462b	0.0054404936
124	0x3a8a937b	0.0010572517
125	0x3bb04bd0	0.0053801313
126	0xbbcea818	-0.0063066594
127	0xbc1b7ae7	-0.009489751

class_counts_projection.weight f4 [8, 5]
0	0xbebe83d1	-0.37209943
1	0xbdf4ec93	-0.119591855
2	0xbefbd113	-0.49182948
3	0x3bbf196b	0.0058318875
4	0xbeb3c5e9	-0.3511193
5	0x3f0931c2	0.5359155
6	0xbd3b0b0f	-0.045664843
7	0x3f11db9b	0.56975716
8	0xbf2b85ad	-0.6700085
9	0x3f0cfa5d	0.55069524
10	0x3e137823	0.14401297
11	0xbf18e5f3	-0.59725875
12	0x3d790575	0.06079622
13	0x3ea6a8f2	0.3255077
14	0x3f484bf1	0.7824088
15	0x3e3869c8	0.18009102
16	0xbd9d6275	-0.07684795
17	0xbf094e6d	-0.53635293
18	0xbdcff312	-0.10153784
19	0x3f18aba0	0.5963688
20	0x3e586aae	0.21134445
21	0x3f2c4e4b	0.67306966
22	0x3e8261f3	0.25465354
23	0x3e0eb549	0.13936342
24	0xbe3b1ad2	-0.1827195
25	0x3f095f6f	0.53661245
26	0x3dcd8b68	0.10036355
27	0xbea8c65d	-0.3296384
28	0xbf161077	-0.58618873
29	0xbf192d12	-0.59834397
30	0xbf0db18b	-0.55349034
31	0x3e3c163c	0.18367857
32	0x3f30ab57	0.69011444
33	0xbe0ac03a	-0.13549891
34	0xbea4c183	-0.32178888
35	0x3ed23daf	0.41062686
36	0x3e973c7d	0.29538336
37	0xbee9f0ed	-0.45691624
38	0xbee7d699	-0.45280913
39	0x3f092b06	0.53581274

class_counts_projection.bias f4 [8]
0	0x3d2c0f95	0.042007048
1	0xbdec0064	-0.11523512
2	0x3c1aedc0	0.009456098
3	0x3da161b3	0.07879963
4	0xbe071219	-0.13190497
5	0x3bcf338b	0.006323283
6	0xbd0e1f52	-0.034697838
7	0x3d14bda4	0.036313668

layer_norm.weight f4 [29]
0	0x3f74de39	0.95651585
1	0x3f8167a5	1.0109755
2	0x3f689d80	0.90865326
3	0x3f7e219f	0.9927005
4	0x3f8b114a	1.0864651
5	0x3f838fc8	1.0278254
6	0x3f85b947	1.0447167
7	0x3f8c3853	1.0954689
8	0x3f734232	0.9502288
9	0x3f84aeb4	1.0365815
10	0x3f7501d0	0.9570589
11	0x3f960080	1.1718903
12	0x3f7bcd8b	0.9836051
13	0x3f78074f	0.9688615
14	0x3f790f3c	0.9728887
15	0x3f6f1414	0.9339001
16	0x3f810638	1.0080023
17	0x3f871cce	1.0555665
18	0x3f7fcd5c	0.9992273
19	0x3f7b65c2	0.98202145
20	0x3f7c22bd	0.98490506
21	0x3f383a27	0.71963733
22	0x3f71a096	0.9438566
23	0x3f826795	1.0187861
24	0x3f79d58a	0.9759146
25	0x3f69ac9f	0.91279024
26	0x3f94c0cd	1.1621338
27	0x3f8b1b9d	1.0867802
28	0x3f86037a	1.0469811

layer_norm.bias f4 [29]
0	0x3d26e4bb	0.040745478
1	0x3d352c9d	0.044232
2	0x3ca1240a	0.019670505
3	0x3cb89364	0.022531219
4	0x3d7ec8ab	0.06220309
5	0x3cfdba4c	0.030972622
6	0x3d09f066	0.033676527
7	0x3be39d75	0.0069462606
8	0x3d4697d5	0.048484642
9	0x3d2aa7ba	0.041663863
10	0x3d38c57b	0.045110207
11	0x3d268c31	0.04066104
12	0x3cbe31b8	0.023217067
13	0x3d79757f	0.06090307
14	0x3d392bc7	0.045207765
15	0x3da25e03	0.079280876
16	0xbd8a13bb	-0.067420445
17	0xbd72b95d	-0.059258807
18	0xbd0b59c4	-0.034021154
19	0xbb4f694f	-0.0031648462
20	0xbd9a6104	-0.075380355
21	0x3e5e4443	0.21705727
22	0xbd8bc205	-0.06824116
23	0x3be4cfa4	0.0069827605
24	0x3c9a2e00	0.018820763
25	0xbca5592e	-0.020184126
26	0xbbdb1e51	-0.0066869636
27	0x3c246f39	0.010036283
28	0x3be5fba7	0.0070185247

gru.weight_ih_l0 f4 [192, 29]
0	0x3d44dfbd	0.048064936
1	0x3d2a02e4	0.041506663
2	0xbc38392a	-0.011244098
3	0xbe251f73	-0.16125278
4	0xbd8b058c	-0.06788167
5	0xbcfceb51	-0.030873926
6	0xbe0176e3	-0.12643008
7	0x3e1dc134	0.15405732
8	0xbe016042	-0.12634376
9	0xbd6f21b9	-0.05838177
10	0x3c9a004e	0.018798973
11	0xbe729ba5	-0.23692186
12	0xbd8019ba	-0.06254907
13	0xbd3368f5	-0.043801267
14	0xbcccf746	-0.025020253
15	0x3d8aca0e	0.0677682
16	0x3cbca874	0.023029543
17	0x3e1df05c	0.15423721
18	0x3c618e3d	0.013766822
19	0x3e51d503	0.20491414
20	0x3d86fb14	0.06590858
21	0x3dc3e605	0.09565357
22	0x3de6bb1b	0.11266156
23	0xbd915d2c	-0.07097849
24	0xbe034f5e	-0.12823245
25	0x3dcd12d6	0.10013358
26	0xbeaf46ba	-0.34233648
27	0x3c1f6c3a	0.009730393
28	0xbe5f9e53	-0.2183774
29	0xbd0caa55	-0.03434213
30	0x3e10cf58	0.14141595
31	0x3dd1d5f8	0.102458894
32	0x3d5ddbf1	0.05416483
33	0x3df19cc2	0.11797477
34	0x3e0b7c2a	0.13621584
35	0xbd25325e	-0.040331237
36	0xbd62ee5c	-0.0554031
37	0x3e6f5980	0.23373985
38	0x3d6a29e4	0.057168856
39	0x3dc7fc0e	0.097648725
40	0xbd15910e	-0.036515288
41	0x3dc843b9	0.09778542
42	0xbcbd55a9	-0.023112135
43	0x3e2714b5	0.16316493
44	0xbd863d1d	-0.06554625
45	0xbdd5de56	-0.10442798
46	0xbe23d572	-0.15999392
47	0x3d2da643	0.042394888
48	0x3d6ea77e	0.0582652
49	0xbe5617d8	-0.20907533
50	0x3e106b9e	0.14103553
51	0x3aa05c33	0.0012234509
52	0xba7e7146	-0.000970621
53	0xbd832775	-0.0640401
54	0x3d61a248	0.055086404
55	0xbe066ad8	-0.13126695
56	0xbb8972a1	-0.004194573
57	0xbd88d437	-0.06681102
58	0x3b9c4fe0	0.004770264
59	0x3ae0ff8b	0.0017166001
60	0xbde487ed	-0.11158738
61	0x3dd3d69a	0.103436664
62	0x3e3927dc	0.18081611
63	0xbdb822ba	-0.089909986
64	0x3d798730	0.06091994
65	0x3e4483ad	0.19190855
66	0xbe5150bf	-0.20440958
67	0xbcd128fd	-0.02553224
68	0x3d42a317	0.047518816
69	0xbdeb45c4	-0.11487916
70	0xbddc1f6e	-0.10748182
71	0x3c0c06be	0.008546529
72	0x3dcd4d56	0.10024516
73	0x3cc0e0d7	0.023544712
74	0x3c3dc750	0.011583164
75	0x3d8a8d08	0.06765181
76	0x3c647aa6	0.013945257
77	0xbcba518b	-0.02274396
78	0xbd680ea5	-0.05665459
79	0xbe22a291	-0.15882327
80	0xbda91543	-0.082560085
81	0xbd81402d	-0.06311069
82	0xbc1d7838	-0.009611182
83	0x3d7b6f5b	0.061385494
84	0xbe5e06fb	-0.2168235
85	0x3dae420a	0.0850869
86	0xbd6ad9b7	-0.057336535
87	0x3d2fc9c8	0.042917043
88	0xbd274dd5	-0.04084571
89	0xba545772	-0.00081001886
90	0x3de8b5b5	0.11362783
91	0x3e13e785	0.14443786
92	0x3dd9c7c9	0.10633809
93	0xbe00f1ee	-0.12592289
94	0xbd2be5f9	-0.041967366
95	0x3cb22c08	0.021749511
96	0xbd45f507	-0.04832938
97	0xbd9382c8	-0.07202679
98	0xbe402e57	-0.18767677
99	0x3d9322f9	0.07184405
100	0xbbc9d15c	-0.006158991
101	0xbc4944e4	-0.012284491
102	0x3d7e3a6c	0.062067434
103	0xbe0e5f3e	-0.1390352
104	0xbceda334	-0.029008485
105	0xbdf1d11d	-0.11807463
106	0xbd7dcea3	-0.061964642
107	0x3de45ff3	0.11151113
108	0x3da80d1b	0.08205625
109	0x3e09eb14	0.13468581
110	0xbd325679	-0.043539498
111	0x3d47bcca	0.048764028
112	0x3dcfa2fe	0.1013851
113	0x3d034ae3	0.03205384
114	0x3e0835fb	0.13301842
115	0x3d2c6ab5	0.04209395
116	0xbc86c96f	-0.016453473
117	0xbdaeb5f9	-0.08530802
118	0x3dbb46f0	0.0914439
119	0xbe444b20	-0.19169283
120	0x3d85c19c	0.06531069
121	0xbd4252a7	-0.047442105
122	0xbe24653b	-0.16054241
123	0xbcbf7688	-0.02337195
124	0x3dafe7d9	0.08589143
125	0xbe0d56ff	-0.13802718
126	0xbe19a4a3	-0.1500421
127	0xbe6a9791	-0.2290938
128	0x3cf09fda	0.029373098
129	0xbdf059e0	-0.11735892
130	0xbdf2b7d0	-0.11851466
131	0xbd720e2e	-0.059095554
132	0x3e02e488	0.1278249
133	0xbcc7fc73	-0.02441237
134	0xbd8db8a4	-0.06919983
135	0x3e03d28f	0.1287329
136	0x3e3b4613	0.1828845
137	0xbe309795	-0.17245324
138	0x3e1c0d78	0.15239513
139	0xbd0ceead	-0.034407306
140	0xbcd529d9	-0.026020931
141	0xbde3c1f8	-0.11120981
142	0xbe68f5b8	-0.22749984
143	0xbd1366e0	-0.03598678
144	0xbe263f7d	-0.16235156
145	0xbcd3b3f3	-0.025842642
146	0xbd7d040b	-0.061771434
147	0x3dd34c42	0.103172794
148	0xbde2a54d	-0.11066685
149	0x3e1b1ec7	0.1514846
150	0x3d3441f0	0.044008195
151	0x3d38accb	0.045086663
152	0x3e32b2da	0.17451039
153	0xbda608f3	-0.08107176
154	0xbdd6ea07	-0.10493856
155	0x3d07faaf	0.033198055
156	0xbe040b40	-0.12894917
157	0xbd3eedbf	-0.04661345
158	0x3d439ae0	0.047755122
159	0xbddec169	-0.10876734
160	0xbc04ace2	-0.008097859
161	0xbe162b66	-0.14664993
162	0x3b238925	0.002495357
163	0xbdaa18de	-0.08305524
164	0xbd9edc56	-0.077568695
165	0x3d5ffa4d	0.054682065
166	0xbcbb475a	-0.022861172
167	0xbc5e26a3	-0.013559016
168	0x3d0f71b1	0.035020534
169	0x3c77ffcb	0.015136669
170	0xbe4c7bd6	-0.19969115
171	0xbe949c04	-0.2902528
172	0x3e3d04af	0.18458818
173	0xbdfba132	-0.12286605
174	0xbe85e6fe	-0.26152796
175	0x3d967d29	0.07348091
176	0x3de63b70	0.112418056
177	0xbd1898d7	-0.037255134
178	0xbe893b7b	-0.26803192
179	0x3d574069	0.05255166
180	0xbe0a79cc	-0.13523024
181	0xbde482b7	-0.111577444
182	0x3b531770	0.0032210015
183	0xbdc2b148	-0.0950647
184	0x3c2f7077	0.010707966
185	0x3da307ab	0.07960447
186	0xbdde0d73	-0.10842409
187	0xbdaa6597	-0.08320158
188	0xbe19c952	-0.15018204
189	0x3e634e75	0.22197898
190	0x3e1da253	0.15393953
191	0x3e7df7ce	0.24801561
192	0x3ddaaae6	0.106771275
193	0x3e1b1480	0.15144539
194	0x3da40634	0.08008996
195	0x3dca3edb	0.0987527
196	0xbd064d8f	-0.03278881
197	0x3cab9c0c	0.020948432
198	0x3e5fdcf8	0.21861637
199	0x3e033927	0.1281477
200	0x3c926f83	0.017875439
201	0x3c5955b5	0.013265063
202	0xbdd09e6a	-0.10186465
203	0x3d0b8e81	0.03407145
204	0x3c9685ee	0.01837441
205	0x3d0c6780	0.034278393
206	0x3d85ed8d	0.0653945
207	0xbdfa2fae	-0.122161254
208	0xbdeaf767	-0.114729695
209	0x3d8dc5c7	0.06922489
210	0x3cd94849	0.026523726
211	0x3decc433	0.115608595
212	0xbe0f7c41	-0.14012243
213	0xbc5247b4	-0.012834478
214	0xbe082838	-0.13296592
215	0x3d00b00f	0.031417903
216	0xbe3a7018	-0.18206823
217	0x3e05b595	0.1305755
218	0xbcce7766	-0.025203418
219	0x3e0952f1	0.13410546
220	0x3e2a64c1	0.16639997
221	0xbdc2ca0e	-0.09511195
222	0xbd38bc04	-0.04510118
223	0x3cc22a17	0.02370171
224	0xbd838391	-0.06421579
225	0xbccc5dde	-0.024947103
226	0x3b78d8ed	0.0037971095
227	0xbd97989a	-0.07402153
228	0xbd4ce915	-0.05002697
229	0xbe8893db	-0.26675305
230	0xbde93105	-0.11386303
231	0xbe71b6bb	-0.23604862
232	0x3c2b1980	0.010443091
233	0xbe8db37d	-0.27676
234	0xbb87c5eb	-0.0041434667
235	0xbdb93e3e	-0.09045075
236	0x3dbaf602	0.091289535
237	0xbe76a2d4	-0.24085552
238	0x3dce2f73	0.10067644
239	0xbd9a68bd	-0.075395085
240	0xbe4907a9	-0.19631828
241	0x3e03731c	0.1283688
242	0xbdd499c7	-0.10380893
243	0xbdb91382	-0.09036924
244	0x3e126a4e	0.14298365
245	0xbd55d6ea	-0.05220691
246	0x3bd8ef1e	0.006620302
247	0xbdd45831	-0.10368384
248	0x3e433ecf	0.19066928
249	0x3e88ec8e	0.26742977
250	0xbdd9819b	-0.106204234
251	0x3dadfe60	0.08495784
252	0x3e4fa49b	0.20277636
253	0x3c81be00	0.01583767
254	0x3dafb465	0.085793294
255	0x3d503b9d	0.0508381

gru.weight_hh_l0 f4 [192, 64]
0	0xbdb4bcec	-0.088250965
1	0x3db2a736	0.08723299
2	0x3dcf7df0	0.101314425
3	0xbd7dcb60	-0.06196153
4	0x3c6d7c8d	0.014495027
5	0xbda05ce7	-0.0783022
6	0xbd990dcc	-0.07473335
7	0x3e018020	0.12646532
8	0x3d915d41	0.07097865
9	0xbcc20892	-0.023685727
10	0xbd2844b3	-0.04108114
11	0xbd9f776f	-0.07786452
12	0x3e80615d	0.25074282
13	0x3c9c9ef2	0.01911876
14	0xbd7c5b1a	-0.06161032
15	0xbcdcb189	-0.026940124
16	0x3cac8b72	0.021062586
17	0x3d32e543	0.043675672
18	0x3cea92ef	0.028634517
19	0x3c9f3463	0.01943416
20	0x3d3e3fc0	0.046447515
21	0x3c66d91f	0.014089852
22	0x3dcad5c1	0.099040516
23	0xbe238421	-0.15968372
24	0xbd66f52f	-0.05638617
25	0x3c332963	0.01093516
26	0x3decb41a	0.11557789
27	0xbd9c3010	-0.07626355
28	0x3deccdd5	0.11562697
29	0x3d05e234	0.032686427
30	0x3d5674a7	0.052357342
31	0x3de6ba0a	0.11265953
32	0xbce2d064	-0.027687259
33	0xbdd982c8	-0.10620648
34	0x3dc733ac	0.097266525
35	0xbd465157	-0.048417415
36	0xbdda58f4	-0.10661498
37	0x3ded7d2a	0.11596139
38	0x3deede4c	0.116634935
39	0x3e04be51	0.12963225
40	0xbdd2285d	-0.10261605
41	0x3b448740	0.0029987842
42	0x3e3aa04d	0.18225212
43	0x3d88fbfb	0.066886865
44	0xbd378eb1	-0.044813816
45	0x3c9fa725	0.01948888
46	0x3d892885	0.066971816
47	0xbc9f9871	-0.01948187
48	0x3db9dff1	0.090759166
49	0x3d0ddef3	0.03463645
50	0xbdd7188d	-0.105027296
51	0x3d3a0ffb	0.045425396
52	0xbd92a85a	-0.07161017
53	0xbb6212dd	-0.0034496107
54	0xbdf8a1c8	-0.12140232
55	0xbbfd9e68	-0.0077398308
56	0xbd02fa25	-0.031976838
57	0xbd9f3fb1	-0.0777582
58	0x3e6df310	0.23237252
59	0x3e093dcc	0.1340248
60	0x3d16424b	0.036684316
61	0xbd6fb6d8	-0.058523983
62	0x3e8c0f56	0.2735545
63	0x3ca93061	0.020652952
64	0x3d904e99	0.07046241
65	0xbdc1cf77	-0.09463399
66	0x3e461ca2	0.1934686
67	0xbcaffa22	-0.021481577
68	0xbcfefbcc	-0.031125925
69	0x3e20125a	0.15632
70	0x3df4864c	0.119396776
71	0xbd8825fc	-0.0664787
72	0xbd9fa71a	-0.07795544
73	0x3d2a2866	0.041542433
74	0x3dfba514	0.122873455
75	0x3da64a35	0.081196226
76	0x3da65751	0.08122123
77	0xbe35baf3	-0.17747097
78	0x3d81823c	0.06323668
79	0xbb8eccdc	-0.0043579172
80	0xbdb2950c	-0.08719835
81	0x3d9cba5d	0.076527335
82	0xbca462df	-0.020066677
83	0xbdf6b366	-0.12045936
84	0x3c359631	0.011083172
85	0xbe290403	-0.16505437
86	0x3cdba285	0.026810894
87	0xbd0bfa4b	-0.034174245
88	0xbdcee6e9	-0.10102636
89	0xbe0f02b8	-0.13965881
90	0x3e0580c8	0.13037407
91	0x3dc09736	0.09403841
92	0xbdbc42ed	-0.091924526
93	0xbd69ee21	-0.057111863
94	0xbcfdea14	-0.030995406
95	0xbe106729	-0.14101852
96	0xbd39d033	-0.04536457
97	0x3c22702e	0.009914441
98	0x3d04af7d	0.03239392
99	0xbd131e48	-0.03591755
100	0x3ddfeb59	0.10933561
101	0xbdd5ff28	-0.10449058
102	0xbdd09eda	-0.101865485
103	0x3dea086a	0.11427386
104	0x3d8ee6e2	0.06977631
105	0x3e1aee55	0.15129979
106	0xbd691036	-0.056900226
107	0x3dbdab83	0.09261229
108	0x3bd4a72b	0.0064896545
109	0x3a2f2918	0.00066818437
110	0xbc6c7f06	-0.014434582
111	0x3dd339f1	0.10313786
112	0xbd8c0b16	-0.06838052
113	0x3cd0ace5	0.025473068
114	0x3df1bd78	0.118037164
115	0xbd1e2b3e	-0.038615458
116	0x3a9d503f	0.0012002065
117	0xbccc1b3c	-0.02491533
118	0xbc534a8f	-0.012896194
119	0x3d1ac5cb	0.037786286
120	0xbe5cf18b	-0.21576516
121	0x3e0ea2dc	0.13929313
122	0xbc5c5a85	-0.013449316
123	0xbe1288c0	-0.14309978
124	0xbceef724	-0.02917058
125	0x3d10d648	0.035360605
126	0xbcf2541c	-0.029581122
127	0x3c5915cf	0.0132498285
128	0xbdc2560e	-0.0948907
129	0x3e0cbb4e	0.13743326
130	0xbcae1f98	-0.0212553
131	0x3cecbfd5	0.028900066
132	0xbda5577d	-0.08073328
133	0xbde6c6f3	-0.11268415
134	0xbe549f23	-0.20763831
135	0x3d340dfe	0.043958656
136	0x3d1318e2	0.035912402
137	0xbd8f13f3	-0.06986227
138	0x3df54e14	0.11977783
139	0xbe1a9b38	-0.15098274
140	0x3e15364b	0.14571492
141	0x3cd4b28a	0.02596404
142	0xbd8803c3	-0.066413425
143	0xbddc2188	-0.10748583
144	0xbdb60258	-0.08887166
145	0x3e62bbb2	0.22141913
146	0x3cbb48a6	0.02286179
147	0x3e8c90e3	0.2745429
148	0xbe0c2fe6	-0.13690147
149	0x3e0393af	0.12849306
150	0xbdc63a70	-0.09679115
151	0xbd86fd63	-0.065912984
152	0x3de1b01c	0.11019918
153	0x3dd2a538	0.10285419
154	0xbe2ffc87	-0.17186175
155	0xbe273101	-0.16327287
156	0x3db04ea3	0.08608749
157	0xbd615f92	-0.055022784
158	0xbce48879	-0.027897106
159	0x3e150836	0.14553913
160	0xbdb96d49	-0.090540476
161	0xbd73ae2d	-0.05949228
162	0xbdb66717	-0.089063816
163	0xbdd028a0	-0.101639986
164	0x3baf9e03	0.0053594126
165	0xbc0d0c76	-0.008608928
166	0x3da95f91	0.08270181
167	0xbc201064	-0.009769533
168	0xbdad69e1	-0.084674604
169	0xbde1f8c2	-0.11033775
170	0x3d9a6c8d	0.07540236
171	0x3e0d2382	0.13783076
172	0xbdc66cc8	-0.09688717
173	0x3d848aaa	0.064717606
174	0xbd2e380c	-0.04253392
175	0x3d098e01	0.03358269
176	0x3d31ace0	0.043377757
177	0xbd50cd1e	-0.050976865
178	0xbd16c4de	-0.03680884
179	0x3db4ee42	0.088345066
180	0xbe368ec7	-0.17827903
181	0xbc257a6b	-0.0100999875
182	0xbe0c69b5	-0.13712199
183	0x3dd51903	0.10405161
184	0x3e706c25	0.23478754
185	0xbe09761a	-0.13423958
186	0x3dc9174e	0.09818898
187	0x3dec7c92	0.115471974
188	0xbb992749	-0.0046738726
189	0xbdd90548	-0.105967104
190	0x3e39880c	0.18118304
191	0xbe309c8d	-0.1724722
192	0xbe293c70	-0.16526961
193	0x3c8ff73a	0.017573941
194	0x3ddd5668	0.10807496
195	0xbdd8080a	-0.10548408
196	0xbb30826c	-0.0026933206
197	0xbe37b161	-0.17938758
198	0xbc233cc7	-0.009963221
199	0x3c66b811	0.014081971
200	0x3b27ba10	0.002559308
201	0x3d1b811e	0.037964933
202	0x3e76b6bb	0.24093144
203	0xbd0ef90a	-0.03490547
204	0x3de5147f	0.1118555
205	0xbc192b64	-0.009348724
206	0x3c3e888e	0.011629237
207	0xbd71bb73	-0.059016656
208	0xbcaa6011	-0.020797761
209	0x3e3b0afb	0.18265907
210	0x3d2d098f	0.042245444
211	0x3d393247	0.045213964
212	0xbca09302	-0.019601349
213	0x3db3b10c	0.087740034
214	0x3dd8ff96	0.10595624
215	0xbd9ee692	-0.077588215
216	0xbe7f0100	-0.24902725
217	0x3dda7c13	0.106681965
218	0xbe41aee1	-0.18914367
219	0x3dd233ad	0.102637626
220	0x3c9f5437	0.019449336
221	0xbdf0ca9e	-0.11757396
222	0x3d660ab3	0.056162547
223	0xbb1ebcad	-0.0024221346
224	0xbd4d4426	-0.05011382
225	0xbe83eb43	-0.25765428
226	0x3e199ace	0.1500046
227	0xbe0353bd	-0.12824912
228	0x3c867837	0.016414745
229	0x3e19d818	0.1502384
230	0x3d05304c	0.032516763
231	0x3d48e7c0	0.04904914
232	0xbe03896b	-0.1284539
233	0xbc4632af	-0.012097045
234	0x3d0d4b38	0.034495562
235	0xbe33a012	-0.1754153
236	0x3dc6b1b7	0.09701865
237	0x3db8c77b	0.09022423
238	0xbdeb1b80	-0.114798546
239	0x3da91d10	0.08257496
240	0x3d2df3e8	0.042468935
241	0x3d0fc8ba	0.035103537
242	0xbdf077cd	-0.117416
243	0x3ccab634	0.024745084
244	0xbe06f683	-0.13179974
245	0xbdcc49a2	-0.09974982
246	0x3cf73192	0.030175004
247	0xbdbc6133	-0.09198227
248	0x3c393aae	0.011305494
249	0x3d8d948e	0.069131
250	0x3e30bdaa	0.17259851
251	0xbcc52bf3	-0.024068808
252	0xbdad6dd1	-0.084682114
253	0x3dd7d3ae	0.105384216
254	0x3e1625cd	0.14662857
255	0xbd6f5cfa	-0.05843828

gru.bias_ih_l0 f4 [192]
0	0x3cfb2ffb	0.030662527
1	0xbd849d99	-0.06475372
2	0x3d362dc1	0.044477228
3	0xbc3e4712	-0.011613624
4	0x3dab8f1e	0.08376907
5	0x3c669b12	0.014075058
6	0xbc959469	-0.018259244
7	0x3bbaff22	0.0057066837
8	0x3d70499e	0.058663957
9	0x3c38ada7	0.011271871
10	0xbd07d51e	-0.03316223
11	0xbd3c5110	-0.045975745
12	0xbbe97244	-0.007124217
13	0xbdac20d5	-0.084047
14	0xbc283832	-0.010267304
15	0x3b5e1c8b	0.0033891525
16	0x3bf26a2f	0.007397912
17	0xbcdb6855	-0.026783148
18	0xbc743e5c	-0.014907446
19	0x3ca5466e	0.020175185
20	0xbdb586f7	-0.08863633
21	0xbca95b52	-0.020673428
22	0xbced76c3	-0.028987294
23	0x3d022c40	0.03178048
24	0xbca3f9ce	-0.020016577
25	0xbd18429e	-0.037172906
26	0x3cacd250	0.021096379
27	0xba8224d4	-0.0009929189
28	0xbe6d315c	-0.2316336
29	0x3d620c7c	0.055187687
30	0x3d289bda	0.041164257
31	0x3c8184d7	0.015810413
32	0xbd6c08f5	-0.05762573
33	0x3c9f1ff8	0.019424424
34	0xbc8615c3	-0.016367799
35	0x3cd9ef53	0.026603376
36	0xbc9f57f0	-0.019451112
37	0x3d0385cb	0.032110017
38	0xbd8f0daf	-0.06985032
39	0xbd399f55	-0.045317966
40	0xbc57cb9f	-0.013171106
41	0xbc8758cd	-0.016521836
42	0x37ad75ba	2.0678028e-05
43	0xbcfa2fcc	-0.03054037
44	0xbcc6fe6c	-0.02429124
45	0xbd69ccaf	-0.057079967
46	0x3c4a2d42	0.012339892
47	0xbd45f52c	-0.048329517
48	0xbc71f86a	-0.014768699
49	0x3d7658dc	0.060143337
50	0x3d1de785	0.038550872
51	0x3daea3e2	0.08527352
52	0xbc908da4	-0.017645665
53	0xbcf7664f	-0.030200152
54	0x3b9c7d7c	0.004775701
55	0xbda1657b	-0.07880684
56	0x3bad0d5c	0.0052811336
57	0x3ba508f9	0.00503647
58	0x3c27d7cf	0.010244324
59	0xbe0f4a66	-0.13993225
60	0xbd2a2181	-0.041535858
61	0xbbceeddc	-0.006314976
62	0x3d55f03b	0.052231055
63	0xbd87549f	-0.06607937
64	0xbded0b52	-0.11574425
65	0x3e1248e1	0.14285614
66	0x3d207717	0.039176073
67	0xbd9ca854	-0.076492935
68	0x3da8b446	0.082375094
69	0x3dcfd78f	0.101485364
70	0x3d4e501a	0.05036936
71	0xbc1f2c85	-0.009715204
72	0x3d179944	0.0370114
73	0xba6a2f93	-0.0008933481
74	0x3dbff7f2	0.09373464
75	0xbc862641	-0.016375663
76	0x3d93d277	0.07217877
77	0x3d2674b3	0.040638637
78	0x3d8b221a	0.06793614
79	0x3d655b65	0.055995364
80	0x3d064f30	0.032790363
81	0xbccb7ce3	-0.024839824
82	0x3c03c381	0.008042217
83	0x3d9a9a67	0.07548981
84	0x3d751bde	0.05984103
85	0xbc88b2e9	-0.016686874
86	0x3d1ed92e	0.038781337
87	0xbd1a4a6b	-0.037668627
88	0x3d72ce7f	0.05927896
89	0x3c7028f9	0.014658206
90	0x3e08cea6	0.1336008
91	0xbc92eaeb	-0.017934283
92	0xbd9c5d61	-0.07634998
93	0xbd14bd85	-0.036313552
94	0x3d57a225	0.052644867
95	0x3dd19b2b	0.10234674
96	0x3dc2c977	0.095110826
97	0x3c76444e	0.015030934
98	0x3c933649	0.017970221
99	0x3dbc8c89	0.092064925
100	0x3de80be4	0.11330393
101	0xbbfc4335	-0.0076984414
102	0x3c17466f	0.009233101
103	0xbbe6910a	-0.007036333
104	0x3d8c35f5	0.06846229
105	0x3d807be6	0.06273632
106	0x3d2d85a5	0.04236378
107	0x3d19207e	0.037384503
108	0x3e2afd04	0.1669808
109	0xbd819a0e	-0.06328212
110	0xbdc9f93e	-0.09861992
111	0x3e123316	0.142773
112	0x3d8ea9b5	0.06965963
113	0x3dfd1b9e	0.12358783
114	0xbd3e7cec	-0.046505854
115	0x3d7f6dc2	0.062360533
116	0x3c80b60f	0.015711812
117	0x3d22da54	0.039758995
118	0x3c853395	0.016259948
119	0xbd44f875	-0.04808851
120	0x3d53ae93	0.05168016
121	0x3ca45361	0.02005929
122	0x3ce04780	0.027377844
123	0x3e11a027	0.1422125
124	0x3caab496	0.020838063
125	0x3d74242d	0.059604812
126	0x3ddee140	0.10882807
127	0x3d2596fd	0.040427197
128	0xbb0dfdc1	-0.0021666142
129	0xbc8e1dbf	-0.017348168
130	0xbd0d2724	-0.034461156
131	0xbb4df634	-0.0031427266
132	0xbc15312d	-0.009105963
133	0xbae59a81	-0.0017517359
134	0x3c9f4a00	0.019444466
135	0xbbe567c1	-0.007000894
136	0x3b41763a	0.0029519931
137	0x3b62d9de	0.0034614722
138	0xbbdc1608	-0.0067164935
139	0xbc2fa805	-0.010721211
140	0x3ccef173	0.025261616
141	0x3c4f024c	0.012634825
142	0xbd154023	-0.03643812
143	0xbc7885c1	-0.015168608
144	0xbc0d438c	-0.008622061
145	0xbb74eb38	-0.0037371647
146	0x3bebca75	0.0071957656
147	0x3d021243	0.031755697
148	0xbbaa3fd6	-0.005195598
149	0x3946b333	0.00018949508
150	0xba3e1dea	-0.00072523823
151	0xbc8aaf1b	-0.0169292
152	0xbb02260a	-0.0019859099
153	0xbbfe5e3e	-0.0077626994
154	0xbc54a3c5	-0.012978499
155	0x3c1c06b8	0.009523086
156	0x3cd3368e	0.02578285
157	0xbc25b725	-0.010114466
158	0x3d0e347f	0.034718033
159	0x3cd9711c	0.026543193
160	0xbd119fe6	-0.03555288
161	0x3a849d47	0.0010117673
162	0x3b698575	0.0035632525
163	0xbc97f241	-0.018548133
164	0xbc381ecb	-0.01123781
165	0xbae1cfe2	-0.0017228092
166	0x3c774124	0.015091214
167	0x3c937836	0.018001657
168	0xbc3550e2	-0.011066647
169	0xbcec6295	-0.028855601
170	0x3b0fb39e	0.0021927129
171	0x3c4e9cbe	0.012610612
172	0x3839a19b	4.4257944e-05
173	0xbc9df545	-0.019281993
174	0x3a48401c	0.00076389476
175	0x3c5e8785	0.013582115
176	0x3cab2166	0.020889949
177	0xbd351647	-0.0442107
178	0x3bedc8fb	0.0072566248
179	0x3d342f4e	0.043990426
180	0xb80b2163	-3.3171276e-05
181	0xba8eb5ad	-0.0010887884
182	0xba4fe5ef	-0.0007930686
183	0xbb40e771	-0.0029434825
184	0x3cfe7689	0.031062381
185	0x3c09679e	0.008386521
186	0x3c509111	0.012729899
187	0x3ccba7bb	0.024860254
188	0xbd0523a5	-0.032504696
189	0x3c644e76	0.013934722
190	0xba8e2a7b	-0.00108464
191	0xbcb96084	-0.02262903

gru.bias_hh_l0 f4 [192]
0	0x3cfb2ffb	0.030662527
1	0xbd849d99	-0.06475372
2	0x3d362dc1	0.044477228
3	0xbc3e4712	-0.011613624
4	0x3dab8f1e	0.08376907
5	0x3c669b12	0.014075058
6	0xbc959469	-0.018259244
7	0x3bbaff22	0.0057066837
8	0x3d70499e	0.058663957
9	0x3c38ada7	0.011271871
10	0xbd07d51e	-0.03316223
11	0xbd3c5110	-0.045975745
12	0xbbe97244	-0.007124217
13	0xbdac20d5	-0.084047
14	0xbc283832	-0.010267304
15	0x3b5e1c8b	0.0033891525
16	0x3bf26a2f	0.007397912
17	0xbcdb6855	-0.026783148
18	0xbc743e5c	-0.014907446
19	0x3ca5466e	0.020175185
20	0xbdb586f7	-0.08863633
21	0xbca95b52	-0.020673428
22	0xbced76c3	-0.028987294
23	0x3d022c40	0.03178048
24	0xbca3f9ce	-0.020016577
25	0xbd18429e	-0.037172906
26	0x3cacd250	0.021096379
27	0xba8224d4	-0.0009929189
28	0xbe6d315c	-0.2316336
29	0x3d620c7c	0.055187687
30	0x3d289bda	0.041164257
31	0x3c8184d7	0.015810413
32	0xbd6c08f5	-0.05762573
33	0x3c9f1ff8	0.019424424
34	0xbc8615c3	-0.016367799
35	0x3cd9ef53	0.026603376
36	0xbc9f57f0	-0.019451112
37	0x3d0385cb	0.032110017
38	0xbd8f0daf	-0.06985032
39	0xbd399f55	-0.045317966
40	0xbc57cb9f	-0.013171106
41	0xbc8758cd	-0.016521836
42	0x37ad75ba	2.0678028e-05
43	0xbcfa2fcc	-0.03054037
44	0xbcc6fe6c	-0.02429124
45	0xbd69ccaf	-0.057079967
46	0x3c4a2d42	0.012339892
47	0xbd45f52c	-0.048329517
48	0xbc71f86a	-0.014768699
49	0x3d7658dc	0.060143337
50	0x3d1de785	0.038550872
51	0x3daea3e2	0.08527352
52	0xbc908da4	-0.017645665
53	0xbcf7664f	-0.030200152
54	0x3b9c7d7c	0.004775701
55	0xbda1657b	-0.07880684
56	0x3bad0d5c	0.0052811336
57	0x3ba508f9	0.00503647
58	0x3c27d7cf	0.010244324
59	0xbe0f4a66	-0.13993225
60	0xbd2a2181	-0.041535858
61	0xbbceeddc	-0.006314976
62	0x3d55f03b	0.052231055
63	0xbd87549f	-0.06607937
64	0xbded0b52	-0.11574425
65	0x3e1248e1	0.14285614
66	0x3d207717	0.039176073
67	0xbd9ca854	-0.076492935
68	0x3da8b446	0.082375094
69	0x3dcfd78f	0.101485364
70	0x3d4e501a	0.05036936
71	0xbc1f2c85	-0.009715204
72	0x3d179944	0.0370114
73	0xba6a2f93	-0.0008933481
74	0x3dbff7f2	0.09373464
75	0xbc862641	-0.016375663
76	0x3d93d277	0.07217877
77	0x3d2674b3	0.040638637
78	0x3d8b221a	0.06793614
79	0x3d655b65	0.055995364
80	0x3d064f30	0.032790363
81	0xbccb7ce3	-0.024839824
82	0x3c03c381	0.008042217
83	0x3d9a9a67	0.07548981
84	0x3d751bde	0.05984103
85	0xbc88b2e9	-0.016686874
86	0x3d1ed92e	0.038781337
87	0xbd1a4a6b	-0.037668627
88	0x3d72ce7f	0.05927896
89	0x3c7028f9	0.014658206
90	0x3e08cea6	0.1336008
91	0xbc92eaeb	-0.017934283
92	0xbd9c5d61	-0.07634998
93	0xbd14bd85	-0.036313552
94	0x3d57a225	0.052644867
95	0x3dd19b2b	0.10234674
96	0x3dc2c977	0.095110826
97	0x3c76444e	0.015030934
98	0x3c933649	0.017970221
99	0x3dbc8c89	0.092064925
100	0x3de80be4	0.11330393
101	0xbbfc4335	-0.0076984414
102	0x3c17466f	0.009233101
103	0xbbe6910a	-0.007036333
104	0x3d8c35f5	0.06846229
105	0x3d807be6	0.06273632
106	0x3d2d85a5	0.04236378
107	0x3d19207e	0.037384503
108	0x3e2afd04	0.1669808
109	0xbd819a0e	-0.06328212
110	0xbdc9f93e	-0.09861992
111	0x3e123316	0.142773
112	0x3d8ea9b5	0.06965963
113	0x3dfd1b9e	0.12358783
114	0xbd3e7cec	-0.046505854
115	0x3d7f6dc2	0.062360533
116	0x3c80b60f	0.015711812
117	0x3d22da54	0.039758995
118	0x3c853395	0.016259948
119	0xbd44f875	-0.04808851
120	0x3d53ae93	0.05168016
121	0x3ca45361	0.02005929
122	0x3ce04780	0.027377844
123	0x3e11a027	0.1422125
124	0x3caab496	0.020838063
125	0x3d74242d	0.059604812
126	0x3ddee140	0.10882807
127	0x3d2596fd	0.040427197
128	0xbba278e2	-0.004958258
129	0xbbe826fa	-0.0070847245
130	0xbd3016ac	-0.04299037
131	0x3c673295	0.014111181
132	0xbc31732b	-0.010830681
133	0xbbbd89b6	-0.0057842387
134	0x3ce85761	0.028361978
135	0xbb64caa8	-0.0034910832
136	0x3bd8868a	0.006607835
137	0xbc5fe930	-0.013666436
138	0xb9a819b7	-0.00032062616
139	0x3c1bdcaf	0.009513064
140	0x3d0606cf	0.032721337
141	0xbc35e0a5	-0.011100923
142	0xbcbadd80	-0.022810698
143	0xbc926161	-0.0178687
144	0x3a6d33fd	0.00090485794
145	0xbc9dfff3	-0.019287085
146	0x3c9ce7e1	0.019153537
147	0x3d03441f	0.032047387
148	0x3bdafdfa	0.0066831084
149	0xbc81aa25	-0.015828202
150	0x3c036533	0.008019733
151	0xbc99bea3	-0.01876766
152	0xbaed2540	-0.0018092766
153	0xb9c0ff26	-0.00036811194
154	0x3c6b6e1f	0.014369517
155	0x3cd262ac	0.025681816
156	0xbbc207b8	-0.0059213303
157	0xbbedc070	-0.0072556064
158	0x3cff14c1	0.031137826
159	0x3cc9a8ae	0.024616566
160	0xbd2506fd	-0.040289868
161	0xbbcf5b00	-0.0063279867
162	0x3c65d7d3	0.014028507
163	0xbc8e00f9	-0.017334448
164	0xbc4215f7	-0.011846057
165	0xbc80c78e	-0.015720155
166	0x3bb10728	0.0054024644
167	0x3cdc6deb	0.026907882
168	0xbc4eec21	-0.01262954
169	0xbd399b28	-0.045313984
170	0x3b4ee14b	0.003156739
171	0x3c3fbf34	0.011703301
172	0xbbca8353	-0.006180206
173	0xbcabceb2	-0.020972583
174	0x3caf48df	0.021397052
175	0x3c8816b7	0.016612394
176	0x3c32ce4a	0.010913441
177	0xbd0e1082	-0.03468371
178	0x3c03e27d	0.0080496045
179	0x3d21d4fe	0.039509766
180	0x3c1db8b7	0.009626559
181	0xbca3d536	-0.019999128
182	0xbc4cbd44	-0.012496296
183	0x3ca876e5	0.020564506
184	0x3c922071	0.017837735
185	0x3c2d8b17	0.010592244
186	0x3c04286b	0.008066277
187	0x3be7b907	0.0070716175
188	0xbcca9bb4	-0.024732448
189	0x3ca7e181	0.02049327
190	0x3a5e8ab5	0.0008489297
191	0xbc984872	-0.018589232

gru.weight_ih_l0_reverse f4 [192, 29]
0	0x3d68ea3c	0.05686401
1	0xbdb3ee44	-0.0878568
2	0x3d19e854	0.03757508
3	0xbc05372c	-0.00813083
4	0x3ba0ed36	0.0049110902
5	0x3e3d0178	0.18457592
6	0x3dc0df27	0.09417563
7	0x3e104f00	0.14092636
8	0xbd4842a6	-0.048891686
9	0xbd91569d	-0.07096598
10	0xbc096789	-0.008386501
11	0x3e28c63a	0.16481867
12	0x3dbf83e8	0.09351331
13	0x3df3db1e	0.11907028
14	0xbcc1d4f0	-0.023661107
15	0x3e0a669b	0.13515703
16	0x3d295975	0.04134508
17	0xbe7c2259	-0.24622478
18	0xbdc5bc5e	-0.09655069
19	0xbe41c45a	-0.18922558
20	0xbdd8648b	-0.10566052
21	0xbdaaf4a8	-0.08347446
22	0xbe4646b7	-0.19362913
23	0x3be88fa8	0.0070972033
24	0x3e373abf	0.17893504
25	0x3d8b4cf7	0.06801789
26	0xbac095e4	-0.0014693108
27	0x3d942c25	0.072349824
28	0x3e2aeee9	0.166927
29	0x3d09a9cd	0.0336092
30	0x3bf34399	0.0074238298
31	0x3de1e844	0.11030629
32	0x3d7c2246	0.061556123
33	0x3d33aea3	0.04386772
34	0x3d812d46	0.06307463
35	0xbe5193c6	-0.20466527
36	0xbe30c1b3	-0.1726139
37	0x3e2f9a99	0.17148818
38	0xbe1392ba	-0.1441144
39	0xbdffa852	-0.124832764
40	0xbd4082a2	-0.04699958
41	0xbe91db6f	-0.28487727
42	0x3e0c63ee	0.13709995
43	0xbd5b9cc8	-0.053616315
44	0xbd31b586	-0.043386005
45	0xbd62c320	-0.055361867
46	0x3c55da60	0.013052553
47	0x3e39e9ae	0.18155548
48	0xbd81f298	-0.06345099
49	0x3e60b6e7	0.21944772
50	0xbdfbcc96	-0.12294881
51	0xbd4ad239	-0.04951689
52	0x3d904527	0.0704444
53	0xbdd62fbf	-0.104583256
54	0xbce255de	-0.027628835
55	0xbe8cc32e	-0.2749266
56	0xbe1d6d28	-0.15373671
57	0xbe549ba3	-0.20762496
58	0xbe25f374	-0.16206151
59	0x3ea42bac	0.3206457
60	0xbdc900ba	-0.09814592
61	0x3d8efbb1	0.069816
62	0xbd8bd0a8	-0.068269074
63	0x3d8de399	0.069281764
64	0x3c15bb87	0.009138948
65	0x3ddbf3f4	0.1073989
66	0x3d9dcb34	0.077047735
67	0xbdd1a4fc	-0.102365464
68	0xbdd03103	-0.10165598
69	0x3e9a8072	0.3017612
70	0xbd787709	-0.060660396
71	0x3dd88f3f	0.10574197
72	0x3d8de593	0.069285534
73	0xbe26d7fe	-0.16293332
74	0xbd99ddbc	-0.075129956
75	0xbd651e00	-0.055936813
76	0xbe6055de	-0.21907756
77	0x3d11f161	0.035630587
78	0x3d1f9a64	0.038965598
79	0x3d7a7200	0.061143875
80	0x3da863b1	0.082221396
81	0xbc1b55c4	-0.009480897
82	0x3d715b6f	0.05892509
83	0xbd889607	-0.066692404
84	0x3e17e92b	0.1483504
85	0xbd39bce7	-0.045346167
86	0x3df26ea1	0.11837507
87	0x3dbf9b8f	0.09355842
88	0xbcea3322	-0.028588835
89	0xbd3e4625	-0.046453614
90	0xbb88b2d2	-0.0041717077
91	0x3d21f825	0.03954329
92	0x3dd477ad	0.10374389
93	0xbc3b4fac	-0.0114325695
94	0x3c7914d8	0.015202723
95	0xbd826570	-0.06367004
96	0x3da6c453	0.081429146
97	0x3e37eb5d	0.17960878
98	0x3d1cb1d0	0.038255513
99	0x3e0cedc8	0.13762581
100	0xbd8b1845	-0.067917384
101	0x3e1993e9	0.1499783
102	0x3dd554c7	0.104165606
103	0x3c9d0d75	0.019171456
104	0xbdacdf90	-0.08441079
105	0xbd501f27	-0.05081096
106	0x3dd751e7	0.105136685
107	0x3c15a4fb	0.009133573
108	0x3e55390b	0.20822541
109	0x3d9e3183	0.07724287
110	0x3e2f03b8	0.17091262
111	0x3d63086b	0.05542795
112	0x3d5f1508	0.054463416
113	0xbe4a6754	-0.19765979
114	0xbd5eac66	-0.05436363
115	0x3dbd8570	0.09253967
116	0xbc90d713	-0.01768068
117	0xbd7fe8ae	-0.06247776
118	0xbe44cb8a	-0.19218269
119	0xbca92f6d	-0.020652497
120	0xbde502ed	-0.11182199
121	0x3e522e2a	0.20525423
122	0x3e0eadbf	0.13933466
123	0xbd3c0d7c	-0.045911297
124	0xbe19d226	-0.15021572
125	0x3d8cfccd	0.068841554
126	0x3d596dc7	0.053083207
127	0x3e83b963	0.25727376
128	0xbe1f88ca	-0.15579525
129	0x3dfa0de3	0.1220968
130	0xbd2d9e12	-0.042387076
131	0x3da43440	0.080177784
132	0xbd557784	-0.052115932
133	0xbe3ab7b4	-0.1823414
134	0xbdb754b8	-0.08951706
135	0xbd0eeffc	-0.034896836
136	0x3e0d68ac	0.1380946
137	0xbe241cd7	-0.16026627
138	0x3c7966e3	0.015222284
139	0xbe1e0a58	-0.15433633
140	0xbe0aafe8	-0.13543665
141	0xbd871f9d	-0.06597827
142	0x3d8a2bbf	0.06746625
143	0xbe16b51d	-0.14717527
144	0x3d174e73	0.03694005
145	0xbe809af3	-0.25118217
146	0x3e0a56fb	0.13509743
147	0x3e201362	0.15632394
148	0x3e14c1c2	0.14527038
149	0xbe4a1471	-0.1973436
150	0x3e8f0b00	0.2793808
151	0xbe5b888b	-0.21438806
152	0x3cb9e2ae	0.022691097
153	0x3d5801eb	0.052736204
154	0x3dfe7bfd	0.12425993
155	0xbcfcfb90	-0.030881673
156	0x3e94062b	0.28910956
157	0xbe0bebec	-0.13664216
158	0x3e861086	0.2618448
159	0xbcee013d	-0.029053325
160	0xbe6b6508	-0.22987759
161	0x3dc50ccc	0.096215814
162	0xbdafc479	-0.08582396
163	0x3d9adcf6	0.07561676
164	0x3c4c234e	0.012459589
165	0x3e13c711	0.14431407
166	0x3d325301	0.04353619
167	0xbe24290a	-0.1603128
168	0xbe390e08	-0.18071759
169	0xbdc4fb71	-0.09618271
170	0xbd48c9cf	-0.049020585
171	0xbc4fa1d4	-0.01267286
172	0xbe3f05a3	-0.18654494
173	0x3e26d594	0.16292411
174	0x3d8a476d	0.06751905
175	0x3e6482b3	0.22315483
176	0xbd8532a7	-0.06503802
177	0xbe2f2be4	-0.17106587
178	0x3d47b70d	0.048758555
179	0xbca816c4	-0.020518668
180	0xbe11173a	-0.14169016
181	0x3e22326d	0.15839548
182	0xbc91cdcf	-0.017798332
183	0x3d9ddf6b	0.07708629
184	0x3e178798	0.14797819
185	0x3e5b36c2	0.21407607
186	0x3d4a4b1d	0.04938804
187	0x3dc48780	0.09596157
188	0xbd6a225b	-0.05716167
189	0x3d1a6224	0.03769125
190	0x3dde1878	0.10844511
191	0xbdc4192b	-0.09575113
192	0x3e29a180	0.16565514
193	0x3d71df25	0.059050698
194	0xbc5a5f45	-0.013328378
195	0x3e4482b2	0.19190481
196	0x3d88daf8	0.0668239
197	0x3dcc9936	0.0999016
198	0xbdadde5f	-0.084896795
199	0x3dbd90a8	0.092561066
200	0xbdda4915	-0.106584705
201	0x3d793a9b	0.060846906
202	0x3ddf68d9	0.1090867
203	0xbe4ef744	-0.20211512
204	0x3e13fc39	0.14451684
205	0x3e4bf97a	0.19919387
206	0x3dd1dec1	0.10247565
207	0xbd99402a	-0.074829414
208	0x3e064ef3	0.13116054
209	0xbd486b08	-0.048930198
210	0xbe826dc7	-0.25474378
211	0xbd402730	-0.046912372
212	0xbe175a62	-0.14780572
213	0xbcaccc7d	-0.021093601
214	0x3d3ed1c4	0.046586767
215	0x3bece569	0.0072294963
216	0xb86336ee	-5.4172175e-05
217	0xbb8f1e19	-0.0043676016
218	0x3e860d05	0.26181808
219	0xbd142301	-0.036166195
220	0xbc6060b6	-0.013694933
221	0x3dd4cc9f	0.10390591
222	0x3dd0eae8	0.10201055
223	0xbcdb546a	-0.02677365
224	0x3cda6172	0.026657794
225	0x3dfe0ded	0.12405
226	0xbd53619c	-0.05160676
227	0x3c0d2e0d	0.008616936
228	0xbdcd0249	-0.100102015
229	0x3e09fa4f	0.13474391
230	0x3d6515de	0.055929057
231	0xbd3b366a	-0.04570619
232	0xbe86aaa1	-0.26302055
233	0x3e9ae9ad	0.30256405
234	0xbe19553f	-0.14973925
235	0x3e34b0c8	0.17645562
236	0xbea4f0fa	-0.322151
237	0x3ec104f9	0.37699106
238	0xbe9caf87	-0.30602667
239	0xbe0c529d	-0.1370339
240	0x3c6852db	0.0141799105
241	0xbd8dc130	-0.06921613
242	0xbd3cadfb	-0.04606436
243	0x3ecb6947	0.39728758
244	0xbe10e7dc	-0.14150947
245	0x3ddc3399	0.10752029
246	0xbe6b5099	-0.22979964
247	0xbd977d1c	-0.073969096
248	0xbb517e9a	-0.003196633
249	0x3d3abf1e	0.04559242
250	0xbde4e0d5	-0.11175696
251	0x3dd43f68	0.10363656
252	0x3dfc798c	0.12327871
253	0xbe5fcbd1	-0.21855094
254	0x3e4e8014	0.20166045
255	0xbdfecc67	-0.124413304

gru.weight_hh_l0_reverse f4 [192, 64]
0	0x3e1ae35e	0.15125796
1	0x3dd6eff4	0.10494986
2	0x3d002b92	0.031291552
3	0x3da4d55e	0.08048509
4	0xbde0f667	-0.109844975
5	0x3ccbc120	0.024872363
6	0x3e39b2a2	0.1813455
7	0xbe03ff8b	-0.1289045
8	0xbe11633c	-0.14198011
9	0x3da26f23	0.07931354
10	0xbe4f1384	-0.20222288
11	0xbdc08336	-0.094000265
12	0xbe084b75	-0.13310035
13	0xbd7ce279	-0.06173942
14	0xbcf4447b	-0.02981781
15	0xbddf816d	-0.10913358
16	0xbd0ca41a	-0.034336187
17	0x3e7729da	0.24137059
18	0xbe1a90e2	-0.15094331
19	0xbdb22019	-0.086975284
20	0xbe4b65f3	-0.1986311
21	0xbdd9bd44	-0.10631803
22	0xbdc1a9d4	-0.0945622
23	0x3e7e615a	0.24841824
24	0xbde75e03	-0.11297228
25	0x3de805d3	0.11329236
26	0xbc7fae89	-0.015605577
27	0x3dec1d13	0.11528983
28	0x3e5f3793	0.21798544
29	0x3e002055	0.12512334
30	0x3dad059e	0.08448337
31	0x3d96ee86	0.073697135
32	0x3d747577	0.059682336
33	0xbcfc8f89	-0.030830162
34	0xbe81bbaf	-0.25338504
35	0x3daaeb64	0.083456784
36	0xbd64a776	-0.055823766
37	0xbd9247b0	-0.071425796
38	0x3c4522ca	0.01203222
39	0xbda515d2	-0.080608025
40	0xbe2f37a4	-0.17111069
41	0x3dec3279	0.115330644
42	0xbe77b34a	-0.24189487
43	0x3d5d1e37	0.053983893
44	0xbdb9538e	-0.0904914
45	0xbde63256	-0.112400696
46	0x3e44a610	0.19203973
47	0x3e40302f	0.1876838
48	0x3dc8df03	0.09808161
49	0x3d9e86b7	0.077405386
50	0xbe93cbd7	-0.28866455
51	0x3defb35c	0.11704132
52	0xbddaa359	-0.10675687
53	0xbd2c20d9	-0.042023513
54	0x3e098ec9	0.13433374
55	0x3c6356e2	0.013875695
56	0xbd9e34b5	-0.07724897
57	0xbb92a25a	-0.00447492
58	0x3d5771cc	0.05259876
59	0xbde92c62	-0.113854185
60	0xbe1e205d	-0.15442033
61	0xbd507630	-0.050893962
62	0xbe3ac7ea	-0.18240324
63	0xbdcaae2a	-0.098965004
64	0xbc8fadba	-0.017538894
65	0xbe95396a	-0.29145366
66	0xbe997740	-0.29973793
67	0xbb692440	-0.0035574585
68	0x3e47c228	0.19507658
69	0x3dfcc119	0.12341518
70	0xbe2d769a	-0.16939774
71	0xbde0c18f	-0.10974418
72	0xbcda1c1b	-0.02662473
73	0xbd1df627	-0.038564827
74	0x3d8996e6	0.06718235
75	0xbce97eea	-0.0285029
76	0x3d40b8fb	0.04705141
77	0xbe6bb0bc	-0.23016638
78	0xbb7f8171	-0.0038987065
79	0x3dc0268c	0.09382352
80	0x3d8dca4a	0.06923349
81	0xbe918e47	-0.28428861
82	0x3d1e908a	0.038712062
83	0x3e089673	0.13338642
84	0x3da9a281	0.08282948
85	0xbd4ae22b	-0.049532097
86	0x3d4452f1	0.04793066
87	0xbdbf1f3c	-0.09332129
88	0x3e75db70	0.2400949
89	0xbd0ab263	-0.03386153
90	0xbd621f3b	-0.055205565
91	0x3cd2a84d	0.025715018
92	0xbe1d58f3	-0.15365963
93	0xbdd24b44	-0.10268262
94	0x3d3895f5	0.045064885
95	0xbdf42d4d	-0.11922703
96	0x3e25366e	0.16134045
97	0x3da89441	0.08231402
98	0x3e8d5f36	0.27611703
99	0x3e252f3f	0.16131304
100	0x3e2e4aa4	0.1702066
101	0xbd58249c	-0.05276929
102	0xbe0678b3	-0.1313198
103	0xbd06601a	-0.032806493
104	0x3dc92f48	0.09823471
105	0xbd584463	-0.052799594
106	0xbd337bd9	-0.043819282
107	0xbd77b3f9	-0.06047437
108	0x3c154a65	0.009111975
109	0x3e375680	0.17904091
110	0xbe477e00	-0.19481659
111	0xbe4a6154	-0.1976369
112	0x3ca9c73c	0.020724885
113	0xbe0d9e00	-0.13829803
114	0x3d97bf48	0.07409531
115	0xbe53c9c0	-0.2068243
116	0xbe2edde7	-0.17076837
117	0xbe0a23af	-0.13490175
118	0xbd6da510	-0.058018744
119	0x3e48013b	0.1953172
120	0x3e6031a7	0.21893941
121	0xbd89eb25	-0.067343034
122	0xbe253d5f	-0.16136692
123	0x3e85ea8f	0.26155517
124	0x3d670c6c	0.05640833
125	0x3e62cdf9	0.22148885
126	0x3bdbcde5	0.006707894
127	0x3df3f0d9	0.119111724
128	0xbe1a33ac	-0.15058774
129	0x3c22c653	0.0099349795
130	0x3b0d3cfc	0.0021551242
131	0x3db8e4b1	0.090279944
132	0x3db84661	0.08997799
133	0xbdaa79e5	-0.08324031
134	0xbd8953c9	-0.06705434
135	0x3dc43a1f	0.09581398
136	0xbd8f782b	-0.07005342
137	0xbde96c99	-0.113976665
138	0xbd690278	-0.05688712
139	0xbd515de8	-0.051114947
140	0x3e29806c	0.16552895
141	0x3d2fe972	0.04294724
142	0xbcb784b0	-0.022402138
143	0xbdc39150	-0.095492005
144	0x3d77b762	0.06047762
145	0xbc36ad52	-0.011149721
146	0x3de2dec7	0.11077648
147	0x3dd798de	0.10527204
148	0x3d226551	0.039647404
149	0xbd934e19	-0.0719263
150	0xbd589528	-0.05287662
151	0x3e11ade5	0.14226492
152	0x3ca2ca1f	0.01987177
153	0xbc15d80e	-0.00914575
154	0xbd361900	-0.044457436
155	0xb9fd1abd	-0.00048275842
156	0x3df5790d	0.11985979
157	0x3c8a202b	0.016861042
158	0x3da21d79	0.07915778
159	0xbd143275	-0.036180932
160	0xbd6a934d	-0.057269383
161	0x3e1d5f78	0.1536845
162	0x3d981f56	0.07427852
163	0xbb2b1815	-0.0026106883
164	0x3d8aa089	0.06768901
165	0x3db7a86b	0.0896767
166	0xbcd96432	-0.026537035
167	0xbddc6431	-0.107612975
168	0xbd377260	-0.04478681
169	0x3e04264c	0.12905234
170	0xbe005c35	-0.12535174
171	0x3ddb03b5	0.106940664
172	0xbe1a35b6	-0.15059552
173	0x3d30d66c	0.04317324
174	0x3cc274ec	0.023737393
175	0xbdaf3b3c	-0.0855622
176	0xbd40fbdb	-0.047115188
177	0x3cb307f9	0.021854388
178	0xbd84b329	-0.064794846
179	0xbdc1c613	-0.09461608
180	0xbe3eb8a5	-0.18625124
181	0xbe388bf1	-0.18022133
182	0xbe22acf2	-0.15886286
183	0x3d46d57b	0.048543435
184	0x3d81484a	0.06312616
185	0xbd9d96c8	-0.07694775
186	0xbe0ef8c0	-0.13962078
187	0xbcb1d0cb	-0.021706006
188	0xbc54c268	-0.012985803
189	0x3d8454c7	0.064614825
190	0xbda3f163	-0.08005025
191	0xbd0da97f	-0.034585472
192	0x3cf359e1	0.029705944
193	0x3dd683b0	0.10474336
194	0xbd8fa8de	-0.07014631
195	0x3e124e3a	0.14287654
196	0x3e1e6c9d	0.1547112
197	0x3e07f998	0.13278806
198	0x3de4fe14	0.11181274
199	0x3ceb66c4	0.028735526
200	0xbd442fc0	-0.0478971
201	0xbe166650	-0.14687467
202	0xbe032e60	-0.1281066
203	0x3e0e5e8d	0.13903256
204	0xbd4be3fb	-0.049777966
205	0xbc9d917b	-0.01923441
206	0x3db69533	0.08915176
207	0xbd0bddbd	-0.034147013
208	0x3e6d5bc1	0.23179533
209	0x3da5dfc2	0.08099319
210	0x3de99491	0.1140529
211	0xbe8d2458	-0.2756679
212	0xbe355a99	-0.17710342
213	0x3d272a26	0.04081168
214	0xbdbfba52	-0.0936171
215	0x3dd58cba	0.10427232
216	0x3dca9823	0.09892299
217	0xbc8f7f71	-0.017516823
218	0xbe020ac7	-0.12699424
219	0x3e32b535	0.17451937
220	0x3e4a0255	0.19727452
221	0x3e538baa	0.20658746
222	0x3bbdf5a5	0.0057971054
223	0xbe650d54	-0.22368366
224	0x3e516ab5	0.20450862
225	0x3e1537c4	0.14572054
226	0xbd0c6636	-0.034277163
227	0xbe274f5a	-0.16338864
228	0x3d2abfc3	0.041686784
229	0x3d3dcbcc	0.046336934
230	0xbe1302e5	-0.14356573
231	0xbe750cce	-0.23930666
232	0xbd8b88bd	-0.0681319
233	0x3bca9b74	0.0061830822
234	0xbdd5bacf	-0.104360215
235	0x3bf6f926	0.007537025
236	0xbe4f3ca0	-0.2023797
237	0xbe7e4170	-0.2482965
238	0x3c8b639d	0.017015273
239	0xbe21e42a	-0.15809694
240	0xbe344229	-0.17603363
241	0xbeb96c89	-0.36215618
242	0xbe449216	-0.19196352
243	0x3c217fbb	0.0098571135
244	0xbe94a098	-0.29028773
245	0xbeae46d7	-0.34038422
246	0xbd8f62ff	-0.07001304
247	0xbe08f48b	-0.13374536
248	0x3d3dadad	0.04630821
249	0x3c0f785d	0.008756724
250	0xbe79585f	-0.24350117
251	0xbc813d35	-0.015776256
252	0xbda9eaa9	-0.08296711
253	0x3e1040f9	0.14087285
254	0xbe08c898	-0.1335777
255	0xbe65a0d3	-0.22424631

gru.bias_ih_l0_reverse f4 [192]
0	0xbd2640fa	-0.04058931
1	0x3d2fc779	0.04291484
2	0xbda5c24c	-0.080937
3	0xbc3e53a5	-0.011616622
4	0x3d998c68	0.074974835
5	0xbc2189af	-0.0098594865
6	0x3c9846d4	0.018588461
7	0xbd68198e	-0.056664996
8	0x3d68bd4e	0.05682116
9	0xbc21441f	-0.0098429015
10	0x3d561d5b	0.05227409
11	0x3d0c7c53	0.034298252
12	0xbd384a1d	-0.044992555
13	0x3e07f97b	0.13278763
14	0xbd04c53a	-0.032414652
15	0xbdf4eddc	-0.119594306
16	0x3e30dcc1	0.17271711
17	0xbb9a5f88	-0.0047110952
18	0x3d53e1cc	0.05172901
19	0x3dd2f5bd	0.10300777
20	0x3deaa57a	0.114573434
21	0x3d5db078	0.05412337
22	0x3dd80c09	0.105491705
23	0xbd3962a1	-0.045260075
24	0xb7766a79	-1.4687533e-05
25	0x3e0a8cc7	0.13530265
26	0x3df03243	0.11728337
27	0x3d7162af	0.058932003
28	0x3e011fa9	0.12609734
29	0x3db8d6d8	0.09025353
30	0x3c540c1e	0.012942342
31	0x39b3a14e	0.00034261722
32	0xbdb780fb	-0.08960148
33	0x3d02f428	0.031971127
34	0xbe2c53bb	-0.16828816
35	0x3dc0223f	0.09381532
36	0x3cedeada	0.02904265
37	0xbb958f27	-0.004564184
38	0x3cf91082	0.03040338
39	0x3d428d58	0.047498077
40	0xbacc39bf	-0.0015581175
41	0x3db1bcd3	0.086785935
42	0x3db56af6	0.08858292
43	0x3de0d9fd	0.10979078
44	0x3d6a8fcd	0.057266045
45	0x3ddfb387	0.10922914
46	0x3d9ab0b7	0.07553237
47	0x3e076ff8	0.13226306
48	0xbdb8cc38	-0.09023327
49	0x3ca97fab	0.02069076
50	0x3d3b4bcc	0.045726582
51	0x3e007ca3	0.12547545
52	0xbcb10d7b	-0.021612873
53	0x3cca832f	0.024720756
54	0x3dd86baf	0.10567414
55	0x3cfc98ff	0.030834673
56	0x3b8ab6a2	0.0042331973
57	0x3dad8044	0.0847173
58	0x3d03b0ea	0.03215114
59	0x3d61ab2c	0.055094883
60	0x3c16490a	0.009172687
61	0x3d62276e	0.055213384
62	0xbd043ecc	-0.03228645
63	0xbdc25a67	-0.09489899
64	0x3cfff477	0.0312445
65	0x3d6c0a83	0.057627212
66	0xbd9cd0b9	-0.07656998
67	0x3de0f884	0.109849006
68	0x3d8e13d3	0.06937375
69	0xbdc12364	-0.09430578
70	0xbcafd2c7	-0.021462811
71	0x3d292e8a	0.04130415
72	0xbc8c5820	-0.017131865
73	0xbd11ea26	-0.035623692
74	0x3c7e36a4	0.015515957
75	0x3dc03b11	0.09386266
76	0x3bce290b	0.006291514
77	0x37360f32	1.0851583e-05
78	0xbd0dd328	-0.034625202
79	0x3d6d7bae	0.05797928
80	0xbd6cb33c	-0.05778812
81	0x3ddbc7d2	0.10731472
82	0xbcd1e967	-0.02562399
83	0x3cec9e60	0.028884113
84	0xbd0da09a	-0.03457699
85	0x3d428999	0.047494505
86	0xbd0940ce	-0.03350907
87	0x3dc3aa23	0.095539354
88	0xbd866e5a	-0.06564017
89	0x3d4fc0b9	0.050720904
90	0x3c6dd8c3	0.014517012
91	0x3c8ea9ba	0.017414916
92	0x3cafe3d5	0.021470943
93	0x3cb34ae5	0.021886298
94	0xbcdf4672	-0.02725527
95	0x3d411bf7	0.04714581
96	0x3b513118	0.0031920131
97	0x3d9e1bb2	0.07720126
98	0xbb435225	-0.00298036
99	0x3dbacc08	0.09120947
100	0x3a26ff37	0.00063704274
101	0x3d8025f7	0.06257241
102	0xbd94b935	-0.07261888
103	0xbd828e6f	-0.06374823
104	0xbd3ee729	-0.04660717
105	0x3d0eb29b	0.0348383
106	0xbc82424d	-0.015900755
107	0x3bcfe434	0.0063443426
108	0x3de35ab3	0.11101284
109	0x3d3058a6	0.04305329
110	0x3dca1db6	0.09868948
111	0xbdeb9321	-0.11502672
112	0xbcae4f51	-0.021278055
113	0xbdc1d445	-0.09464315
114	0xbd97adf1	-0.074062236
115	0xbd1536bd	-0.036429156
116	0xbdaea1e0	-0.08526969
117	0xbd3dca99	-0.04633579
118	0x3da7aa70	0.08186805
119	0xbcffc2ed	-0.031220878
120	0xbd9faaad	-0.07796226
121	0xbd296a64	-0.041361228
122	0xbd643cf2	-0.055722184
123	0xbdc14942	-0.09437801
124	0xbd2237bb	-0.03960393
125	0xbdd3c1ea	-0.103397205
126	0x3ca57bcc	0.020200633
127	0x3da6d264	0.081455976
128	0xbc41d72a	-0.011831084
129	0xbd13d85e	-0.036095016
130	0x3b9f03d3	0.004852751
131	0x3cd99b4c	0.02656331
132	0xbbda9db5	-0.006671632
133	0xbca81342	-0.020516995
134	0x3ba2b52f	0.0049654464
135	0xbd266ff3	-0.040634107
136	0xbb7fe20b	-0.0039044644
137	0xbcc5fc42	-0.024168137
138	0xbca67761	-0.020320596
139	0x3ccf99be	0.025341865
140	0x3acd2610	0.0015651602
141	0xbd1b0255	-0.03784402
142	0xbccea37e	-0.025224444
143	0xbd058a25	-0.032602448
144	0xbbf8a5e1	-0.0075881337
145	0xbad4b5d3	-0.0016228504
146	0xbc1269b5	-0.008936335
147	0xbca39156	-0.019966763
148	0x3c2819ae	0.010260029
149	0x3c2d7e23	0.010589155
150	0x3d0905ec	0.033452913
151	0x393cf720	0.00018021138
152	0xbcfab30e	-0.030602958
153	0x3c432e6b	0.011912922
154	0xbcc1741f	-0.023614941
155	0x3cf7cb1a	0.030248214
156	0xbb8a4544	-0.004219683
157	0x3c213aeb	0.009840707
158	0x3cd4b4d6	0.025965136
159	0xbcab0c49	-0.020879881
160	0xbc209237	-0.009800485
161	0xbbb755e6	-0.0055949567
162	0x3b76bc0b	0.0037648703
163	0xbaf6f461	-0.0018841141
164	0x3c689414	0.014195461
165	0x3d5c4583	0.05377723
166	0x3c0508ca	0.008119771
167	0x3b8dafe5	0.004323947
168	0x3a49a521	0.00076921476
169	0xbbdd0da6	-0.006746012
170	0xbc933335	-0.017968753
171	0xb9cd6983	-0.0003917926
172	0xbd35fc24	-0.044429913
173	0xbd0040e7	-0.031311896
174	0xbb96e716	-0.0046051843
175	0x3c9a0bf8	0.018804535
176	0x3c0a45a6	0.008439457
177	0x3c743f8a	0.014907727
178	0xbadd71a9	-0.0016894835
179	0xbce19709	-0.02753784
180	0x3b9238ca	0.004462336
181	0x36b464ff	5.3761755e-06
182	0xbd56c320	-0.05243218
183	0xbc118af9	-0.008883231
184	0xbc5083c3	-0.012726727
185	0xbb00785c	-0.001960299
186	0x3bf95555	0.0076090493
187	0x3a2183b1	0.0006161286
188	0xbd25b64c	-0.040457055
189	0xbae687c7	-0.0017588072
190	0xbc4953bb	-0.012288029
191	0xbc9e77a0	-0.019344151
