ckpt/model_lr_0.001_emb_8_hid_64_layers_2.pth (torch, 537986 bytes, 26 tensors)

class_embedding.weight f4 [8, 8]
0	0x3cd02f68	0.02541323
1	0xbce34d09	-0.027746694
2	0xbc8632b6	-0.016381603
3	0x3cac05ad	0.0209988
4	0xbc95ff7a	-0.018310297
5	0x3cd69ddc	0.02619832
6	0x3c4b1549	0.0123952115
7	0x3c8efe0a	0.01745512
8	0x3d102ed5	0.035200913
9	0xbca5986a	-0.020214278
10	0xbd4f449a	-0.050602533
11	0x3cc4d97f	0.024029491
12	0xbcd0647e	-0.025438543
13	0x3c23b318	0.00999143
14	0x3c694c24	0.014239345
15	0x3cac0bba	0.021001685
16	0xbc9367b8	-0.017993793
17	0x3ab1f16b	0.0013575976
18	0x3c294be7	0.010333038
19	0x3bc82cea	0.00610887
20	0xbbb0c8a6	-0.005395013
21	0x3b7e634c	0.003881651
22	0x3c54c6ea	0.012986878
23	0xbc44f13a	-0.0120204035
24	0xbc8e7062	-0.017387573
25	0x3d2b309e	0.04179441
26	0x3d956e47	0.07296424
27	0xbd6b75a2	-0.05748523
28	0x3d8bf641	0.068340786
29	0xbcfbf9c2	-0.030758742
30	0xbcdd626e	-0.027024474
31	0xbd857695	-0.06516758
32	0xbc7f1f8d	-0.015571487
33	0xbb77cbee	-0.003781076
34	0xbc5fc386	-0.013657456
35	0x3be2d41d	0.0069222585
36	0xbc7807c8	-0.015138574
37	0xbb86585a	-0.004099888
38	0x3b7f8735	0.0038990502
39	0xbb8942e1	-0.004188881
40	0x3c3580e6	0.011078095
41	0xbcfc4fb3	-0.030799722
42	0xbcfbebd7	-0.030752106
43	0x3bb53982	0.005530537
44	0x3cb27a24	0.021786757
45	0x3cd4331f	0.025903283
46	0x3cf1c80d	0.029514337
47	0xbcfa19cc	-0.030529879
48	0xbbc3afd0	-0.005971886
49	0x3cb718bc	0.022350661
50	0x3d06c91b	0.032906633
51	0xbd16e2fc	-0.036837563
52	0x3b1316a8	0.0022443924
53	0xbcc235fa	-0.023707379
54	0xbd2b0393	-0.041751456
55	0xbd033099	-0.03202877
56	0xbbdc8acc	-0.006730413
57	0x3c3d8e4d	0.011569572
58	0xbab57f01	-0.0013847054
59	0x3c0933f6	0.008374205
60	0xbb527765	-0.0032114622
61	0xbd0900be	-0.033447973
62	0x3b58208a	0.003297838
63	0xbb9911fe	-0.0046713343

class_counts_projection.weight f4 [8, 5]
0	0xbe6701bc	-0.22559255
1	0x3f081c73	0.5316841
2	0x3f323681	0.69614416
3	0x3f1b2bf1	0.60613924
4	0xbf2cb023	-0.67456263
5	0xbe4f84ee	-0.20265552
6	0x3f1fcada	0.624189
7	0xbedfd5c7	-0.43717787
8	0x3cf4e764	0.029895492
9	0x3de7c0ef	0.11316096
10	0xbe48376e	-0.19552395
11	0xbe0115cd	-0.12605973
12	0xbe601115	-0.21881516
13	0x3eb11626	0.3458721
14	0xbee376a0	-0.4442644
15	0x3d1589f4	0.036508515
16	0xbe1ce016	-0.15319857
17	0xbede3ad2	-0.4340425
18	0xbe79b334	-0.24384767
19	0x3ed43b76	0.41451615
20	0xbd80c610	-0.062877774
21	0xbeec0503	-0.46097574
22	0x3e1f86ee	0.15578815
23	0x3ea9ee72	0.33189732
24	0xbe6c2d3d	-0.23064132
25	0xbd37a2b4	-0.0448329
26	0x3cec10d8	0.028816625
27	0xbe11fc4e	-0.14256403
28	0x3e85f8e2	0.26166445
29	0xbf024c05	-0.50897247
30	0xbd9d6a33	-0.076862715
31	0xbe8419a1	-0.25800803
32	0x3ebd328d	0.3695263
33	0xbe576b43	-0.21037011
34	0x3ef41eb7	0.47679684
35	0xbe82ba5a	-0.255328
36	0xbde2d586	-0.110758826
37	0x3eabb70d	0.33538094
38	0x3d9da4c2	0.07697441
39	0xbed096d8	-0.40740085

class_counts_projection.bias f4 [8]
0	0xbd809b18	-0.06279582
1	0x3d1f6436	0.038913928
2	0x3d00cc57	0.031444874
3	0x3cf57efc	0.029967777
4	0xbd70590f	-0.058678683
5	0xbb4b9fdc	-0.0031070625
6	0xbc484288	-0.012222894
7	0x3cd33b77	0.025785191

layer_norm.weight f4 [21]
0	0x3f7f1566	0.99642026
1	0x3f83950e	1.0279863
2	0x3f87ec7c	1.0619044
3	0x3f82fdaa	1.0233662
4	0x3f81be0c	1.0136123
5	0x3f82ec9f	1.0228461
6	0x3f82e5a3	1.022633
7	0x3f83547d	1.0260159
8	0x3f832f47	1.0248803
9	0x3f85a327	1.0440415
10	0x3f81c1d7	1.013728
11	0x3f8132fe	1.0093687
12	0x3f7ba1ea	0.98293936
13	0x3f85a971	1.0442334
14	0x3f820b11	1.0159627
15	0x3f810ce0	1.0082054
16	0x3f8301d0	1.0234928
17	0x3f84f352	1.0386755
18	0x3f82f08e	1.0229661
19	0x3f8bd1db	1.0923418
20	0x3f82fd15	1.0233485

layer_norm.bias f4 [21]
0	0x3cd651ef	0.026162116
1	0xbc652be6	-0.013987517
2	0x3c13529c	0.008991864
3	0x3bc53b58	0.006019037
4	0x3b89b01c	0.004201902
5	0x3b442a74	0.002993253
6	0xb872c973	-5.788491e-05
7	0xbb85e306	-0.004085901
8	0xbc26b0c9	-0.010173985
9	0xbd1622e4	-0.036654368
10	0xba46fee5	-0.0007591083
11	0x39f6cf4e	0.0004707523
12	0xbd14bbad	-0.036311794
13	0xbc0810d1	-0.008304791
14	0xbae87770	-0.001773579
15	0x3d080563	0.033208262
16	0xba043328	-0.0005043023
17	0xbbed2b55	-0.0072378316
18	0xba6b811e	-0.00089837785
19	0xb992649f	-0.0002792226
20	0xbb81a152	-0.0039559985

gru.weight_ih_l0 f4 [192, 21]
0	0x3dbb5202	0.09146501
1	0x3cb96161	0.022629442
2	0x3dc76d29	0.097376175
3	0xbd447e86	-0.047972225
4	0xba2a6a4c	-0.0006500825
5	0xbdfbb97c	-0.12291238
6	0x3d876d38	0.06612629
7	0x3deb4cf6	0.114892885
8	0xbdb3fd74	-0.08788577
9	0x3e6c337e	0.23066518
10	0x3d5d31c5	0.054002542
11	0xbc8a84db	-0.016909054
12	0xbda6119b	-0.08108827
13	0xbde24b9f	-0.1104958
14	0xbe47da90	-0.19516969
15	0xbde1a87e	-0.110184655
16	0x3d5d4a2d	0.054025818
17	0xbc5eeb33	-0.013605881
18	0x3d82074c	0.06349048
19	0xbd6ed8fd	-0.058312405
20	0xbe0d3d10	-0.13792825
21	0xbdc9d009	-0.09854133
22	0xbd0ada0b	-0.03389935
23	0xbe282dfa	-0.16423789
24	0xbe1da498	-0.15394819
25	0xbcff59f9	-0.031170832
26	0x3dcff79d	0.1015465
27	0xbe27c6c7	-0.16384421
28	0xbd5e963f	-0.054342505
29	0x3dba0fdd	0.09085057
30	0xbdbe25a1	-0.09284521
31	0xbe0d0ae2	-0.13773683
32	0x3e030f86	0.1279889
33	0x3da391a1	0.07986761
34	0x3d82cde5	0.063869275
35	0xbd982773	-0.07429399
36	0xbe1b1fd8	-0.15148866
37	0x3df82125	0.12115697
38	0x3e170731	0.14748837
39	0xbda682be	-0.08130406
40	0xbdd41ad3	-0.10356679
41	0x3e1c42b7	0.15259825
42	0xbe0c87df	-0.13723706
43	0x3de375da	0.11106463
44	0xbe47a81e	-0.19497725
45	0xbd818a28	-0.06325179
46	0x3dca0b66	0.09865455
47	0xbd636df0	-0.055524766
48	0x3d98a864	0.07453993
49	0x3c15eae3	0.00915024
50	0x3ddca126	0.10772924
51	0xbd962904	-0.07332042
52	0xbcca5a3f	-0.024701236
53	0x3cf6d9d9	0.030133175
54	0x3e2cf1a5	0.16889055
55	0xbde4d584	-0.111735374
56	0x3cff9d0b	0.031202814
57	0x3d1aad6f	0.037763055
58	0xbe5a2537	-0.21303259
59	0xbdaa6b8d	-0.08321295
60	0xbce1a855	-0.027546087
61	0x3d65891b	0.056038957
62	0xbe0a7571	-0.13521363
63	0xbd923361	-0.07138706
64	0x3e0dc9f9	0.13846578
65	0xba3ec538	-0.00072773127
66	0x3d428549	0.047490392
67	0xbe27dfb5	-0.16393931
68	0x3d709341	0.058734182
69	0xbb240100	-0.002502501
70	0xbe5c9365	-0.21540602
71	0xbd97fd09	-0.074213095
72	0xbce9dd8b	-0.028548023
73	0xbd828424	-0.0637286
74	0x3d50a576	0.050939046
75	0xbd9b1849	-0.075729914
76	0x3e236990	0.15958238
77	0x3d4da4dd	0.050206054
78	0xbe1f1ae8	-0.15537608
79	0xbddd3381	-0.10800839
80	0x3d5a90c7	0.053360727
81	0xbe259587	-0.16170321
82	0x3b6ce538	0.0036147367
83	0x3e1c916d	0.1528985
84	0x3e0e204a	0.13879505
85	0x3c920d21	0.017828526
86	0xbe06b6a8	-0.13155615
87	0xbdbcf5d7	-0.09226578
88	0xbdee48d5	-0.11634985
89	0xbe09374d	-0.13400002
90	0x3d842545	0.06452421
91	0xbc5f1055	-0.013614734
92	0x3db64c9c	0.08901331
93	0xbcfcc8ad	-0.030857408
94	0xbdaa01e1	-0.083011396
95	0xbe2e34a4	-0.17012268
96	0x3b1ae609	0.0023635647
97	0x3d358426	0.04431548
98	0xbdfa79b7	-0.122302465
99	0x3e12ee1c	0.14348644
100	0x3d9d6ace	0.07686387
101	0x3dc65f81	0.09686185
102	0x3d302fee	0.04301446
103	0xbb14e2ef	-0.002271827
104	0xbce3b0de	-0.027794298
105	0x3dc6dcef	0.097101085
106	0xbe214a3e	-0.15750977
107	0x3daa89cf	0.08327066
108	0xbe08222d	-0.13294287
109	0x3d670bc4	0.056407705
110	0x3db9cd84	0.09072402
111	0xbd0de6a6	-0.03464379
112	0x3d7b8edb	0.061415534
113	0xbdd5f414	-0.10446945
114	0xbd637ae6	-0.055537127
115	0x3c4e0b6f	0.012575968
116	0xbd88e0fc	-0.06683537
117	0x3d4b8a7d	0.04969262
118	0xbc77b7aa	-0.0151194725
119	0xbcd9c6b6	-0.02658401
120	0x3c6eb75e	0.014570085
121	0xbe04fabe	-0.12986276
122	0xbd3793fa	-0.044818856
123	0xbe27e0c9	-0.16394342
124	0x3e2fd108	0.17169583
125	0x3e3195e0	0.17342329
126	0xbd58eb7a	-0.052958943
127	0x3d8bfc25	0.06835202
128	0x3d871099	0.065949626
129	0xbe06278e	-0.13101026
130	0x3dfc0f4e	0.12307607
131	0xbdd46e86	-0.10372643
132	0xbd83e1e6	-0.06439571
133	0x3ddc3ad9	0.10753412
134	0x3c038918	0.008028291
135	0x3e461031	0.19342114
136	0xb9a8cf63	-0.00032197972
137	0xbe0ee74f	-0.13955425
138	0xbd9f6def	-0.0778464
139	0xbd288208	-0.041139632
140	0x3e2dbb59	0.16965999
141	0x3dddb1ac	0.10824904
142	0x3c9d2338	0.019181833
143	0xbd1bfa8d	-0.03808074
144	0x3c6c075e	0.014406053
145	0xbd6f486b	-0.058418673
146	0x3e0ac1e8	0.13550532
147	0x3d7bd4d5	0.06148227
148	0x3d322d9c	0.043500528
149	0xbe262de2	-0.1622844
150	0x3c7488f4	0.01492523
151	0x3c1a9ec9	0.009437271
152	0x3e00a264	0.12561947
153	0x3e2a2f86	0.16619691
154	0xbd4a57ee	-0.049400263
155	0xbcd7ba9c	-0.0263341
156	0x3e17ef36	0.14837345
157	0xbde7c668	-0.1131714
158	0x3e3936b7	0.18087278
159	0xbdc47b80	-0.09593868
160	0xbe3a100d	-0.18170185
161	0xbe08e02e	-0.13366768
162	0xbd141155	-0.03614934
163	0xba9031d3	-0.0011001177
164	0x3c494ec5	0.0122868465
165	0x3c89c22d	0.016816223
166	0xbd9168f9	-0.071001
167	0x3b160b4a	0.0022894912
168	0x3d48da00	0.049036026
169	0x3d7601f9	0.060060475
170	0xbd9a3819	-0.07530231
171	0x3dc5a31b	0.096502505
172	0xbcb99ba4	-0.022657223
173	0xbe26b3cc	-0.16279525
174	0x3c74583f	0.014913618
175	0xbe43d834	-0.19125444
176	0x3c9415e0	0.018076837
177	0xbbfdbf7a	-0.007743773
178	0xbddc338d	-0.1075202
179	0x3d89395a	0.06700392
180	0xbba559c0	-0.0050460994
181	0x3e1d6a27	0.15372525
182	0x3e0e1848	0.1387645
183	0xbd6cd519	-0.057820413
184	0xbd5632fe	-0.052294724
185	0x3dc205c4	0.09473756
186	0x3bae398c	0.0053169187
187	0x3e51f049	0.20501818
188	0xbd756c50	-0.059917748
189	0x3d74c93e	0.059762232
190	0x3e026402	0.12733462
191	0xbd8dcd30	-0.06923902
192	0x3da113ee	0.078651294
193	0x3af83b29	0.001893853
194	0xbe13122f	-0.14362405
195	0xbd90398e	-0.07042228
196	0xbe044717	-0.12917744
197	0xbdaadc7f	-0.083428375
198	0x3ddea2cd	0.108708955
199	0xbe19bb27	-0.15012799
200	0x3d1c2f5a	0.038131095
201	0x3c7d8ed6	0.015475949
202	0x3e036e00	0.1283493
203	0xbd0109f9	-0.03150365
204	0x3dd0ab8f	0.10188972
205	0xbe127ed4	-0.14306194
206	0x3df97792	0.12181009
207	0xbdc13d0c	-0.09435472
208	0x3e316e08	0.1732713
209	0x3e310896	0.17288432
210	0xbe3b319c	-0.18280643
211	0x3de7956b	0.11307796
212	0xbce086af	-0.027407972
213	0x3e0dc292	0.13843754
214	0x3ddf8e6c	0.10915837
215	0x3b912fd3	0.00443075
216	0xbdd58271	-0.1042527
217	0xbe03ad19	-0.12859
218	0x3e16d0dc	0.14728111
219	0x3caeb92f	0.021328537
220	0x3c94e5fd	0.018176073
221	0x3daa9797	0.08329695
222	0x3e24187d	0.16024967
223	0xbe0718d6	-0.13193068
224	0xbd80eeb2	-0.062955275
225	0x3c6815cc	0.014165353
226	0xbda2fb62	-0.07958104
227	0xbe200bbc	-0.15629476
228	0x3d3795a0	0.044820428
229	0x3d197ac4	0.037470594
230	0xbdfeb4ee	-0.12436853
231	0xbdd96097	-0.10614126
232	0xbcd77c07	-0.026304258
233	0x3da68099	0.08129997
234	0x3d1c679f	0.03818476
235	0xbd8434eb	-0.06455406
236	0xbe25ddaa	-0.1619784
237	0x3d4b4e24	0.049635068
238	0xbdcc27c0	-0.09968519
239	0xbd3a5223	-0.045488488
240	0x3d76e188	0.060273677
241	0x3db610bf	0.08889913
242	0xbd9eafe8	-0.07748395
243	0xbdf49243	-0.1194196
244	0xbccc35e6	-0.024928045
245	0xbdee61a9	-0.11639721
246	0xbcbdf0c7	-0.0231861
247	0x3aba0936	0.0014193419
248	0xbe0c8ab6	-0.13724789
249	0xbcf5deb3	-0.030013418
250	0xbd47d63a	-0.048788287
251	0xbd6e4c68	-0.058178335
252	0x3d1d0026	0.03833022
253	0x3d89cf85	0.06729034
254	0xbcc19b77	-0.023633702
255	0xbe18ac37	-0.14909445

gru.weight_hh_l0 f4 [192, 64]
0	0xbaa6a51a	-0.0012713999
1	0xbdcfa2af	-0.10138451
2	0xbd6d74d8	-0.05797276
3	0xbe0e1ca0	-0.13878107
4	0xbbb85542	-0.005625398
5	0xbd2ae053	-0.04171784
6	0x3e130688	0.1435796
7	0xbda1a96e	-0.07893644
8	0x3def7e51	0.11694015
9	0xbd02a804	-0.031898513
10	0xbdc9a094	-0.09845081
11	0x3ae94f40	0.0017800108
12	0xbe11a0ed	-0.14221545
13	0x3dbef1ea	0.09323485
14	0x3d08cd1b	0.03339873
15	0x3d50e9f5	0.05100437
16	0xbd474b1a	-0.048655607
17	0xbad31aeb	-0.0016106045
18	0x3c8162f1	0.01579425
19	0x3d0a3ea9	0.033751164
20	0xba27a8a0	-0.00063956715
21	0x3ddb63e0	0.10712409
22	0x3def4200	0.116825104
23	0x3d2762e7	0.040865805
24	0xbdb6d3d8	-0.08927125
25	0xbd4565c7	-0.048192766
26	0x3c9fd26d	0.019509519
27	0xbc9647b6	-0.018344741
28	0xbd85142e	-0.064979896
29	0x3de9a260	0.11407924
30	0x3d8b0e33	0.06789818
31	0xbdcf827c	-0.1013231
32	0xbc7582b7	-0.014984778
33	0x3d96a65c	0.07355949
34	0x3c4cb9ca	0.012495467
35	0xbde98eb8	-0.114041746
36	0x3e0607ef	0.13088964
37	0xbd782ba7	-0.060588505
38	0xbe0264b8	-0.12733734
39	0x3e1488fe	0.14505383
40	0xbb52e2af	-0.003217857
41	0xbc116cca	-0.008876035
42	0xbd67f8b7	-0.056633677
43	0xbcc605ac	-0.024172626
44	0xbdcec0aa	-0.100953415
45	0xbd6a2478	-0.057163686
46	0x3b91a611	0.0044448455
47	0x3d9f02bf	0.07764196
48	0x3cc36443	0.02385152
49	0xbcc5b61c	-0.024134688
50	0x3c3cf318	0.011532567
51	0x3ccf1aff	0.025281427
52	0x3da48c13	0.080345295
53	0xbcaa5771	-0.020793648
54	0xbd6041af	-0.05475014
55	0xbe2ef438	-0.1708535
56	0xbd690cca	-0.056896962
57	0x3cd3a27e	0.025834318
58	0xbdc8e7f8	-0.098098695
59	0xbcaf4049	-0.021392958
60	0xbabf0ca2	-0.0014575908
61	0xbd4f69c8	-0.05063799
62	0xbdfd12ab	-0.12357076
63	0xbd97c30d	-0.0741025
64	0x3d515509	0.051106486
65	0xbdc7ab8a	-0.09749515
66	0xbc47857b	-0.01217782
67	0x3ce134ef	0.027491061
68	0x3dcd0104	0.10009959
69	0xbd176772	-0.036963888
70	0x3cf640ed	0.030060256
71	0xbddcdab6	-0.10783903
72	0x3cd5052a	0.026003439
73	0xbcb634bc	-0.022241943
74	0xbde40c09	-0.11135108
75	0xbdb3d588	-0.08780962
76	0xbcfcd7e9	-0.030864673
77	0x3b81246c	0.0039411094
78	0xbe0fafe2	-0.14031938
79	0x3d01ae5a	0.031660415
80	0x3dcb4c75	0.099266924
81	0xbdc8d711	-0.09806646
82	0x3d1e13f8	0.038593262
83	0xbd38d4e1	-0.045124892
84	0x3d2fe2dc	0.04294096
85	0xbdf31d99	-0.1187088
86	0x3dade129	0.084902115
87	0x3d4bf820	0.049797177
88	0xbc84f0fc	-0.016228192
89	0x3dd583c9	0.10425527
90	0xbda96fbc	-0.08273265
91	0x3d046fbd	0.032333124
92	0x3dd65604	0.10465625
93	0xbc9d41da	-0.01919644
94	0x3e757941	0.23972036
95	0x3dac152d	0.084024765
96	0xbcd728db	-0.026264599
97	0x3cd67565	0.026179025
98	0x3d578e7c	0.052626118
99	0x3d1e0a6a	0.03858415
100	0xbd3ee2c0	-0.046602964
101	0x3d1d1140	0.03834653
102	0xbc54590f	-0.012960686
103	0xbcc611bc	-0.024178378
104	0x3e49c764	0.19704968
105	0x3d8549c4	0.0650821
106	0x3de31559	0.11088056
107	0x3d08958e	0.03334575
108	0xbcd6dff5	-0.026229838
109	0x3d601337	0.054705825
110	0xbc954792	-0.018222604
111	0xbd6c12a2	-0.057634957
112	0x3d900655	0.07032458
113	0xbb5067ed	-0.0031800226
114	0x3d3a2ea4	0.045454636
115	0x3d2568be	0.040383093
116	0x3d8d354a	0.0689493
117	0x3c23cb87	0.009997255
118	0x3e52c8a0	0.20584345
119	0xbe01074c	-0.1260044
120	0x3c81e2e0	0.015855253
121	0x3e25956b	0.1617028
122	0xbd543a63	-0.051813494
123	0x3cda1663	0.026622003
124	0xbd0f5488	-0.034992725
125	0xbcac2717	-0.021014733
126	0xbd8213dd	-0.06351445
127	0xbdd982b7	-0.10620635
128	0xbd473c14	-0.04864128
129	0x3c89ddf1	0.016829463
130	0xbd77e460	-0.06052053
131	0x3d51ef17	0.051253404
132	0x3d1183f5	0.035526235
133	0xb9a3e622	-0.00031261245
134	0xbc4402cb	-0.0119635565
135	0x3e61904d	0.22027703
136	0x3d3ea049	0.04653958
137	0xbd2f9606	-0.042867683
138	0xbd13ab7a	-0.036052205
139	0xbc7f9c38	-0.01560121
140	0xbd0c022a	-0.03418175
141	0xbd5857b6	-0.052818023
142	0x3d8fae27	0.07015639
143	0x3dcf5989	0.10124499
144	0xbdb1bbd3	-0.08678403
145	0x3d1a8bd1	0.037730996
146	0xbe0ce291	-0.13758303
147	0xbe24c5bb	-0.16091053
148	0x3d819239	0.06326718
149	0xbcc99f93	-0.024612224
150	0x3b198281	0.0023423734
151	0xbdd9a2e7	-0.10626774
152	0x3d4ecfd8	0.050491184
153	0xbd682003	-0.056671154
154	0xbc86867a	-0.016421545
155	0x3db15203	0.086582206
156	0xbd79583c	-0.060875162
157	0xbd55a164	-0.052155867
158	0x3ccee84f	0.025257258
159	0xbd08520a	-0.033281364
160	0xbc3d60e0	-0.011558741
161	0x3a2b5fa7	0.00065373856
162	0xbcbe9ea8	-0.023269013
163	0x3c384f23	0.011249336
164	0x3c82e7a0	0.015979588
165	0x3d720256	0.05908426
166	0xbd0764f8	-0.033055276
167	0x3dec877f	0.11549281
168	0x3da0bc04	0.07848361
169	0x3d75deaa	0.060026802
170	0x3da38921	0.0798514
171	0xbd02d4d3	-0.031941246
172	0x3e083b42	0.13303855
173	0xbd7e7626	-0.062124394
174	0x3d5d9e08	0.05410579
175	0x3d10a72b	0.035315674
176	0x3dcf0aa8	0.101094544
177	0x3dc26f43	0.09493878
178	0xbba889ec	-0.0051433947
179	0x3d8887ac	0.06666502
180	0x3d286daf	0.041120227
181	0xbd810d61	-0.0630138
182	0x3ce48e1a	0.02789979
183	0x3d1f755e	0.03893029
184	0xbbea4efd	-0.0071505294
185	0xbd1546fb	-0.036444645
186	0xbc204e58	-0.009784304
187	0xbd3fafa7	-0.046798375
188	0xbc9b05d2	-0.018923674
189	0xbc7f8d47	-0.015597648
190	0xbda31e1e	-0.07964729
191	0xbd413d69	-0.047177706
192	0xbd7a3467	-0.06108513
193	0x3ce0e2f1	0.027451964
194	0xbe0a15de	-0.13484904
195	0xbdf236da	-0.11826868
196	0xbdf8973c	-0.12138221
197	0x3d82b446	0.06382041
198	0xbc8d3868	-0.01723881
199	0xbdf39610	-0.118938565
200	0x3d5fcb0e	0.054637007
201	0xbe2ad433	-0.1668251
202	0x3d8ba772	0.06819047
203	0x3d974461	0.07386089
204	0x3db397e8	0.08769208
205	0x3d14b20a	0.036302604
206	0x3d85c257	0.06531208
207	0xbb438b3f	-0.0029837636
208	0xbd529576	-0.05141207
209	0x3c83af93	0.016074931
210	0x3dc61f51	0.09673942
211	0x3d1a1393	0.037616324
212	0xbb3a2ac0	-0.0028406829
213	0x3c7f8597	0.015595815
214	0xbc7d9c06	-0.015479093
215	0xbe4a80b0	-0.19775653
216	0x3dcbbe3d	0.099483944
217	0x3da4d932	0.08049239
218	0xbab678cf	-0.0013921502
219	0x3d180f58	0.037124008
220	0x3df465ff	0.11933517
221	0x3d4f1153	0.05055363
222	0xbd079b7a	-0.03310726
223	0x3c00a6c3	0.007852259
224	0xbd166f87	-0.036727455
225	0x3dbf4592	0.09339441
226	0xbce80cce	-0.028326418
227	0xbd94509a	-0.07241936
228	0x3cc35a8a	0.023846883
229	0xbca35f53	-0.019942915
230	0xbc111d30	-0.0088570565
231	0xbd32964d	-0.04360037
232	0x3d2b5648	0.04183033
233	0xbe05d661	-0.1307006
234	0x3cb0be3a	0.021575082
235	0x3cdb2c13	0.026754415
236	0x3db3a21c	0.08771154
237	0xbded11f8	-0.11575693
238	0x3d9a8bc9	0.07546193
239	0x3dc4d77a	0.096114114
240	0xbdb2662f	-0.08710896
241	0x3cea2ccb	0.028585812
242	0x3dd9b1ff	0.10629653
243	0xbc848e97	-0.016181273
244	0x3d039288	0.032122165
245	0xbdbf5441	-0.09342242
246	0xbce6a9a2	-0.02815706
247	0xbcce0fb7	-0.025153978
248	0xbe01a4f9	-0.12660588
249	0x3bdeb9a9	0.0067970348
250	0x3bed4b10	0.007241614
251	0x3d59c07e	0.05316209
252	0xbccc25da	-0.024920393
253	0x3d9b13b4	0.075721174
254	0xbd0d536c	-0.034503385
255	0xbe166d32	-0.14690092

gru.bias_ih_l0 f4 [192]
0	0x3cee0fa5	0.029060194
1	0x3be32b1b	0.006932629
2	0x3d0cea70	0.034403265
3	0x3b95bb58	0.0045694523
4	0x3c5d1f0c	0.013496172
5	0x3c71c9f2	0.01475762
6	0x3b372668	0.0027946476
7	0x3d32499b	0.043527227
8	0x3cc71230	0.024300665
9	0x3bce378b	0.0062932423
10	0x3cd9550d	0.026529813
11	0x3c957d23	0.018248146
12	0x3ca87179	0.02056192
13	0x3c47ea4e	0.012201859
14	0x3ab9523e	0.001413889
15	0x3c6b9901	0.014379741
16	0xbd48f146	-0.04905822
17	0x3c912b29	0.017720776
18	0xbcdfdcb3	-0.027326917
19	0x3cbef479	0.023309933
20	0xbd697765	-0.05699863
21	0x3c8ee79d	0.017444426
22	0x3d0ffcd8	0.03515324
23	0xbc53b549	-0.01292164
24	0x3cf60176	0.030029994
25	0xbc9d0dd1	-0.019171627
26	0xbc9b17fc	-0.018932335
27	0x3d34d85f	0.04415166
28	0x3cc9dad5	0.02464048
29	0xbc322530	-0.010873124
30	0x3cd45d50	0.025923401
31	0xbc02a468	-0.007973768
32	0x3d81e2de	0.063420996
33	0x3d098275	0.03357168
34	0x3c95d02b	0.018287739
35	0xbcca7951	-0.024716051
36	0x3c583e04	0.013198379
37	0xbb139ba9	-0.00225232
38	0xbcda51e4	-0.026650377
39	0x3b8240c8	0.0039750077
40	0xbd3907d7	-0.045173492
41	0x3cdce3e6	0.02696414
42	0xbcab895d	-0.020939523
43	0x3cb31d88	0.021864668
44	0x3d94f91c	0.07274076
45	0xbbdcc7c3	-0.0067376806
46	0x3d2520f4	0.04031463
47	0xbd05814e	-0.032594018
48	0x3d1a4cc3	0.037670862
49	0x3d1b0529	0.037846718
50	0x3b42ece1	0.0029743242
51	0xbc00cf30	-0.007861897
52	0x3cbad075	0.022804478
53	0x3c993228	0.018700674
54	0xbc432842	-0.011911454
55	0x3c5196ff	0.012792348
56	0x3d384235	0.044985015
57	0x3c8196b9	0.01581894
58	0xbc9bf4ed	-0.019037688
59	0xbc0affa8	-0.008483805
60	0x3b827d32	0.0039822096
61	0xbc3b238e	-0.011422051
62	0x3c9f16e3	0.019420093
63	0x3bf8c12f	0.0075913887
64	0xbd02bd7c	-0.031918988
65	0x3cfe3d07	0.03103496
66	0x3d010a2d	0.031503845
67	0x3cdb7a5f	0.02679175
68	0x3cb7e415	0.022447625
69	0x3d1f60e3	0.038910758
70	0xbd395f46	-0.045256875
71	0xbd422f9f	-0.047408696
72	0x3d2efc26	0.042720936
73	0xbbac0565	-0.0052496665
74	0x3b52ee6c	0.0032185568
75	0x3d1ba3ed	0.03799813
76	0xbc116dd5	-0.008876284
77	0xbcbaf504	-0.02282191
78	0x3cee88a9	0.029117899
79	0xbcf8c898	-0.030369088
80	0xbb89cf22	-0.0042056004
81	0xbcdb5cc2	-0.026777629
82	0x3b10eb44	0.0022112885
83	0x3bc6b600	0.0060641766
84	0x3c728c3d	0.014803943
85	0xbd71aff8	-0.059005708
86	0xbd07908f	-0.033096846
87	0x3d07184d	0.03298216
88	0x3d2e712c	0.042588398
89	0x3d08fdc5	0.03344514
90	0xbbe9b7e5	-0.0071325176
91	0xbb47f5e8	-0.0030511562
92	0xbd0d22da	-0.034457065
93	0x3d06e500	0.032933235
94	0xbd0c22c4	-0.034212843
95	0x3a969dec	0.0011491156
96	0xbd4f66bb	-0.05063508
97	0x3af941ff	0.0019016861
98	0x3cd6fe5d	0.026244337
99	0x3d386966	0.04502239
100	0x3b9c9421	0.0047784005
101	0xbceaff29	-0.028686123
102	0x3cf28950	0.029606491
103	0xba60e162	-0.00085785065
104	0xbcbee329	-0.023301678
105	0xbc1e7efe	-0.009673832
106	0x3c0444e2	0.008073064
107	0xbc098d57	-0.008395514
108	0xbc25c204	-0.010117058
109	0x3ccff3b6	0.025384765
110	0xbcf675d2	-0.030085478
111	0xbcb7d928	-0.022442415
112	0xbd1062b2	-0.035250373
113	0xbd103396	-0.035205446
114	0x3cf5f9e4	0.030026384
115	0xbbb8bc9d	-0.005637719
116	0xbceeeb5c	-0.029164962
117	0x3c74d9ea	0.014944533
118	0xbc966dfb	-0.01836299
119	0x3d01de52	0.03170616
120	0xbc3393f5	-0.010960569
121	0x3d0cac5b	0.03434406
122	0x3d2c8334	0.042117313
123	0x3d120f64	0.03565921
124	0xbc122028	-0.008918799
125	0x3c65e7a1	0.014032275
126	0xbc2a5c2a	-0.01039795
127	0xbcefd50c	-0.029276393
128	0xbc500a86	-0.0126978215
129	0xbadd5244	-0.0016885479
130	0x3ba8b3e6	0.0051483987
131	0x3bac0078	0.0052490793
132	0xbc16d3ab	-0.009205739
133	0xbb4ac408	-0.0030939598
134	0xbbe73df0	-0.007056944
135	0x3c1f6a0d	0.009729874
136	0x3c9b8678	0.018985018
137	0x3a80ac8f	0.0009817051
138	0x3c35f76d	0.011106354
139	0x3b598dbb	0.003319605
140	0x3c9cc2fa	0.01913594
141	0xbbf33347	-0.007421884
142	0x3ba09ee0	0.004901752
143	0x3cc18dab	0.023627123
144	0x3c63f3dd	0.013913122
145	0x3be5bf41	0.0070113246
146	0x3b0286ca	0.0019916766
147	0x3b9f1dfb	0.004855869
148	0xbcc5faf8	-0.024167523
149	0xbbb66231	-0.0055659045
150	0x3b925f40	0.004466921
151	0x3cc0000f	0.023437528
152	0xbcccd5d4	-0.025004305
153	0xbca67cb6	-0.020323139
154	0x3c207a69	0.00979481
155	0xbaf0b5ec	-0.0018364764
156	0xbbf77c8e	-0.00755269
157	0x3b86ab61	0.0041097854
158	0xbc6d0288	-0.0144659355
159	0x3c3fc492	0.011704581
160	0xbc4b98eb	-0.012426595
161	0x3c8eebe0	0.017446458
162	0xba92b090	-0.0011191536
163	0xbbcc402c	-0.006233236
164	0xbc158c56	-0.009127697
165	0x3bc49a71	0.005999856
166	0xbb9c764a	-0.0047748433
167	0x3be50252	0.006988802
168	0xbb020f77	-0.0019845644
169	0xbca01c0c	-0.019544624
170	0xbc2383da	-0.009980166
171	0xbbc38804	-0.005967142
172	0x3c81031f	0.015748559
173	0x3ca3d97a	0.020001162
174	0x3cc84b06	0.024449836
175	0x3cf0c109	0.029388921
176	0xb9e5e578	-0.0004384925
177	0xbc9cc6e7	-0.019137813
178	0x3c1747d1	0.009233431
179	0x3cc9f15d	0.024651224
180	0xbbe5d255	-0.007013599
181	0xbbf77903	-0.0075522675
182	0xbaad26a2	-0.0013210366
183	0xbc27b694	-0.010236401
184	0xbd125944	-0.03572966
185	0x3a443aee	0.0007485588
186	0x3b08c2ac	0.0020867987
187	0x3c9bc955	0.019016901
188	0x3bce06b6	0.006287421
189	0x3c8da3f2	0.01729009
190	0xbc18568e	-0.00929798
191	0xbb724ba2	-0.003697135

gru.bias_hh_l0 f4 [192]
0	0x3cee0fa5	0.029060194
1	0x3be32b1b	0.006932629
2	0x3d0cea70	0.034403265
3	0x3b95bb58	0.0045694523
4	0x3c5d1f0c	0.013496172
5	0x3c71c9f2	0.01475762
6	0x3b372668	0.0027946476
7	0x3d32499b	0.043527227
8	0x3cc71230	0.024300665
9	0x3bce378b	0.0062932423
10	0x3cd9550d	0.026529813
11	0x3c957d23	0.018248146
12	0x3ca87179	0.02056192
13	0x3c47ea4e	0.012201859
14	0x3ab9523e	0.001413889
15	0x3c6b9901	0.014379741
16	0xbd48f146	-0.04905822
17	0x3c912b29	0.017720776
18	0xbcdfdcb3	-0.027326917
19	0x3cbef479	0.023309933
20	0xbd697765	-0.05699863
21	0x3c8ee79d	0.017444426
22	0x3d0ffcd8	0.03515324
23	0xbc53b549	-0.01292164
24	0x3cf60176	0.030029994
25	0xbc9d0dd1	-0.019171627
26	0xbc9b17fc	-0.018932335
27	0x3d34d85f	0.04415166
28	0x3cc9dad5	0.02464048
29	0xbc322530	-0.010873124
30	0x3cd45d50	0.025923401
31	0xbc02a468	-0.007973768
32	0x3d81e2de	0.063420996
33	0x3d098275	0.03357168
34	0x3c95d02b	0.018287739
35	0xbcca7951	-0.024716051
36	0x3c583e04	0.013198379
37	0xbb139ba9	-0.00225232
38	0xbcda51e4	-0.026650377
39	0x3b8240c8	0.0039750077
40	0xbd3907d7	-0.045173492
41	0x3cdce3e6	0.02696414
42	0xbcab895d	-0.020939523
43	0x3cb31d88	0.021864668
44	0x3d94f91c	0.07274076
45	0xbbdcc7c3	-0.0067376806
46	0x3d2520f4	0.04031463
47	0xbd05814e	-0.032594018
48	0x3d1a4cc3	0.037670862
49	0x3d1b0529	0.037846718
50	0x3b42ece1	0.0029743242
51	0xbc00cf30	-0.007861897
52	0x3cbad075	0.022804478
53	0x3c993228	0.018700674
54	0xbc432842	-0.011911454
55	0x3c5196ff	0.012792348
56	0x3d384235	0.044985015
57	0x3c8196b9	0.01581894
58	0xbc9bf4ed	-0.019037688
59	0xbc0affa8	-0.008483805
60	0x3b827d32	0.0039822096
61	0xbc3b238e	-0.011422051
62	0x3c9f16e3	0.019420093
63	0x3bf8c12f	0.0075913887
64	0xbd02bd7c	-0.031918988
65	0x3cfe3d07	0.03103496
66	0x3d010a2d	0.031503845
67	0x3cdb7a5f	0.02679175
68	0x3cb7e415	0.022447625
69	0x3d1f60e3	0.038910758
70	0xbd395f46	-0.045256875
71	0xbd422f9f	-0.047408696
72	0x3d2efc26	0.042720936
73	0xbbac0565	-0.0052496665
74	0x3b52ee6c	0.0032185568
75	0x3d1ba3ed	0.03799813
76	0xbc116dd5	-0.008876284
77	0xbcbaf504	-0.02282191
78	0x3cee88a9	0.029117899
79	0xbcf8c898	-0.030369088
80	0xbb89cf22	-0.0042056004
81	0xbcdb5cc2	-0.026777629
82	0x3b10eb44	0.0022112885
83	0x3bc6b600	0.0060641766
84	0x3c728c3d	0.014803943
85	0xbd71aff8	-0.059005708
86	0xbd07908f	-0.033096846
87	0x3d07184d	0.03298216
88	0x3d2e712c	0.042588398
89	0x3d08fdc5	0.03344514
90	0xbbe9b7e5	-0.0071325176
91	0xbb47f5e8	-0.0030511562
92	0xbd0d22da	-0.034457065
93	0x3d06e500	0.032933235
94	0xbd0c22c4	-0.034212843
95	0x3a969dec	0.0011491156
96	0xbd4f66bb	-0.05063508
97	0x3af941ff	0.0019016861
98	0x3cd6fe5d	0.026244337
99	0x3d386966	0.04502239
100	0x3b9c9421	0.0047784005
101	0xbceaff29	-0.028686123
102	0x3cf28950	0.029606491
103	0xba60e162	-0.00085785065
104	0xbcbee329	-0.023301678
105	0xbc1e7efe	-0.009673832
106	0x3c0444e2	0.008073064
107	0xbc098d57	-0.008395514
108	0xbc25c204	-0.010117058
109	0x3ccff3b6	0.025384765
110	0xbcf675d2	-0.030085478
111	0xbcb7d928	-0.022442415
112	0xbd1062b2	-0.035250373
113	0xbd103396	-0.035205446
114	0x3cf5f9e4	0.030026384
115	0xbbb8bc9d	-0.005637719
116	0xbceeeb5c	-0.029164962
117	0x3c74d9ea	0.014944533
118	0xbc966dfb	-0.01836299
119	0x3d01de52	0.03170616
120	0xbc3393f5	-0.010960569
121	0x3d0cac5b	0.03434406
122	0x3d2c8334	0.042117313
123	0x3d120f64	0.03565921
124	0xbc122028	-0.008918799
125	0x3c65e7a1	0.014032275
126	0xbc2a5c2a	-0.01039795
127	0xbcefd50c	-0.029276393
128	0xbbeeb703	-0.0072850003
129	0xba81c249	-0.000989982
130	0x3c63f279	0.01391279
131	0xbbca7a6e	-0.0061791455
132	0xbbc9b4fb	-0.0061556078
133	0xba918b6d	-0.0011104174
134	0xbc9bca13	-0.019017255
135	0xbab0db80	-0.001349315
136	0x3ccb0d43	0.024786597
137	0xbbe98de1	-0.007127509
138	0x3c8e0d78	0.017340407
139	0x3c7205b7	0.01477187
140	0x3c8d9d2b	0.017286858
141	0xbbb6b041	-0.0055752103
142	0x3bc6c214	0.0060656164
143	0x3caadd62	0.020857517
144	0x3c28810c	0.010284673
145	0x3c1b278c	0.009469878
146	0xbb220393	-0.0024721369
147	0x3b998b48	0.004685793
148	0xbcd30ce9	-0.025762992
149	0xbbee6033	-0.0072746514
150	0xba19e547	-0.0005870652
151	0x3cd96a1e	0.026539858
152	0xbcd48fcc	-0.025947474
153	0xbc7e6a9c	-0.015528347
154	0x3c6b4182	0.01435888
155	0x3ad6e5ce	0.0016395391
156	0xbab1740a	-0.0013538611
157	0x3c55a0a0	0.013038784
158	0xbc781865	-0.015142535
159	0x3cb32398	0.021867558
160	0xbc19bd55	-0.009383519
161	0x3c8da8d2	0.017292414
162	0xba9823d2	-0.0011607355
163	0xbbfc4122	-0.007698194
164	0xbbe264af	-0.006908975
165	0x3b939ea1	0.004504994
166	0xbbbd14a8	-0.0057702847
167	0x3b8951f8	0.0041906796
168	0x3c5b56b1	0.013387368
169	0xbcbdc234	-0.023163892
170	0xbc08f68a	-0.008359561
171	0xbb87c452	-0.0041432763
172	0x3c1d50ed	0.009601814
173	0x3cadec04	0.021230705
174	0x3cf60c06	0.03003503
175	0x3ce8530b	0.02835991
176	0xb9270045	-0.00015926461
177	0xbc4f9204	-0.01266909
178	0x3c796260	0.015221208
179	0x3cc8841a	0.024477053
180	0xbbf2946f	-0.0074029486
181	0xbba65fef	-0.005077354
182	0xbb8a5363	-0.0042213663
183	0xbbe9f26b	-0.007139494
184	0xbd158943	-0.036507856
185	0x3ad0f22a	0.0015941311
186	0x3b3fae3c	0.002924814
187	0x3ca472bb	0.020074239
188	0x3b01143c	0.0019695899
189	0x3c8308a8	0.015995339
190	0xbc1cd723	-0.009572777
191	0xbad2e9d8	-0.0016091419

gru.weight_ih_l0_reverse f4 [192, 21]
0	0xbda4d4f6	-0.080484316
1	0x3db1e94f	0.08687078
2	0x3d9fe989	0.07808215
3	0xbd685e34	-0.056730464
4	0xbbd8d643	-0.006617339
5	0x3d06e361	0.03293169
6	0xbe3a9fa4	-0.1822496
7	0x3dafd71c	0.08585951
8	0xbc9a2bd6	-0.01881973
9	0xbd9e6108	-0.07733351
10	0x3d95f6ec	0.07322487
11	0xbdd16a06	-0.102253005
12	0x3e43229e	0.19056174
13	0x3dbfcab6	0.09364836
14	0xbe06fcc3	-0.13182358
15	0x3b97c13f	0.004631191
16	0xbe0562cd	-0.13025971
17	0xbe21f039	-0.15814294
18	0xbe2ef3ec	-0.17085236
19	0xbdef4d63	-0.11684682
20	0x3d0aa95e	0.033852927
21	0xbdd6952b	-0.1047767
22	0xbe0f74bb	-0.14009373
23	0x3ce5d7db	0.02805703
24	0x3dcc863c	0.09986541
25	0xbcf69139	-0.030098544
26	0xbde44f80	-0.11147976
27	0x3dd537b1	0.10411013
28	0x3d98f5b6	0.07468741
29	0x3dee9347	0.11649185
30	0x3cda8d76	0.026678782
31	0x3d1ac1f8	0.03778264
32	0x3c51b09c	0.012798455
33	0x3c6ccfd7	0.01445385
34	0x3d1aa767	0.037757304
35	0xbe350adc	-0.17679924
36	0x3d1b0b51	0.03785259
37	0x3dd99e90	0.106259465
38	0xbde4016f	-0.11133086
39	0xbe65caf4	-0.22440702
40	0xbc2e7941	-0.010649026
41	0x3ccbcc1e	0.024877604
42	0x3c9f220f	0.01942542
43	0xbdad12e5	-0.084508695
44	0xbdd78799	-0.1052391
45	0x3d77fb24	0.06054224
46	0xbdf65fbc	-0.12029979
47	0xbd5c0dc3	-0.05372406
48	0xbc27c444	-0.010239664
49	0x3e00f62d	0.12593909
50	0x3dae37b4	0.08506718
51	0x3d903c09	0.07042701
52	0xbd9cd723	-0.076582216
53	0x3e295900	0.16537857
54	0x3de543cf	0.11194574
55	0xbe12b62f	-0.1432731
56	0x3d260ae5	0.040537734
57	0x3d71e176	0.059052907
58	0x3e565adb	0.20933096
59	0xbe0c8c23	-0.13725333
60	0xbb3b6b4a	-0.0028597885
61	0x3c38eeeb	0.011287431
62	0x3d4e5edf	0.050383445
63	0xbd2ce7ec	-0.042213365
64	0x3d926b29	0.071493454
65	0xbd2cd8ea	-0.042199053
66	0xbd9d6847	-0.07685905
67	0xbe202643	-0.15639596
68	0xbde9ca2b	-0.114155136
69	0x3e008367	0.12550126
70	0xbd4d398f	-0.05010372
71	0x3d85b82d	0.06529269
72	0x3d8950a4	0.06704834
73	0x3dc07993	0.093981884
74	0x3d917471	0.071022876
75	0xbdb8fd05	-0.09032635
76	0x3e1f44e1	0.15553619
77	0xbde814d8	-0.11332101
78	0x3cec7b2c	0.028867327
79	0x3c88bb9e	0.016691025
80	0xbde682a8	-0.112553895
81	0xbe04baa3	-0.12961821
82	0xbe227c09	-0.15867628
83	0x3d1fcacd	0.039011765
84	0xbde1e3b1	-0.11029757
85	0xbe25b2d4	-0.16181499
86	0xbda5d79c	-0.08097765
87	0xbde301b1	-0.11084307
88	0x3de7a13e	0.113100514
89	0xbd93d5bb	-0.072185
90	0xbcc3624f	-0.023850588
91	0x3c61d32d	0.013783258
92	0xbd88126d	-0.066441394
93	0x3d54acdd	0.051922668
94	0xbd9d622f	-0.07684743
95	0x3e128498	0.14308393
96	0x3c8ed179	0.017433869
97	0xbe2241b1	-0.15845372
98	0xbb050368	-0.002029622
99	0xbe26a939	-0.16275491
100	0xbddff404	-0.10935214
101	0xbe335565	-0.17513044
102	0xbd7232bd	-0.05913042
103	0x3de2d4f1	0.110757716
104	0xbcf95142	-0.030434255
105	0xbe088eb0	-0.13335681
106	0x3de33c5e	0.110954985
107	0x3e4fa900	0.20279312
108	0x3d326a93	0.04355867
109	0xbd974e19	-0.07387943
110	0xbe3be01e	-0.18347213
111	0xbe42c2f0	-0.19019675
112	0x3db3c4d5	0.08777777
113	0xbd221ff1	-0.039581243
114	0xbd4c7c18	-0.049923033
115	0xbdda1f22	-0.10650469
116	0x3cab5e99	0.020919131
117	0x3bcb2d55	0.0062004724
118	0x3d8a4c89	0.06752879
119	0x3ddfe279	0.10931868
120	0x3e2348c5	0.15945728
121	0x3d0b6da0	0.034040093
122	0x3bc495fb	0.0059993244
123	0xbd3c9fe4	-0.04605092
124	0x3e032cb7	0.12810026
125	0x3e376987	0.17911349
126	0xbd93bcd8	-0.072137535
127	0x3e0bcfc4	0.13653475
128	0xbd83252a	-0.06403573
129	0xbdc762d4	-0.09735647
130	0x3db3ac85	0.0877314
131	0xbe067353	-0.1312993
132	0xbd679b6c	-0.056544706
133	0xbd680d81	-0.056653503
134	0xbc607d06	-0.013701683
135	0xbe06ab97	-0.13151394
136	0x3ccba1f7	0.024857504
137	0x3cddd31d	0.027078206
138	0x3b9a68a1	0.00471218
139	0xbe100555	-0.14064534
140	0x3d29ad8e	0.04142528
141	0xbe2efc1d	-0.17088361
142	0xbc79edcd	-0.01525445
143	0x3da6a449	0.08136804
144	0xbd881540	-0.06644678
145	0x3e14471b	0.1448025
146	0x3dda3773	0.10655107
147	0xbd3ee745	-0.046607275
148	0xbe1fba13	-0.15598325
149	0x3d659b7f	0.056056496
150	0xbe1f3659	-0.15548076
151	0xbdc95ab5	-0.09831754
152	0xbb668b15	-0.0035178114
153	0xbde172f7	-0.11008256
154	0xbba4668e	-0.0050171083
155	0xbc72b8dd	-0.014814583
156	0xbe0702f0	-0.13184714
157	0x3c901194	0.017586507
158	0x3dc20b48	0.09474808
159	0xbd12aa94	-0.035807207
160	0xbce93406	-0.02846719
161	0xbe3cca5c	-0.18436569
162	0xbdbdd9f1	-0.09270085
163	0xbd204633	-0.039129447
164	0xbe0b410c	-0.13599032
165	0xbd1c133b	-0.038104277
166	0xbe0678e9	-0.13132061
167	0x3d8e5de9	0.06951506
168	0x3dbfac97	0.09359091
169	0xbd83bffa	-0.06433101
170	0xbe26b1dc	-0.16278785
171	0x3d7051f0	0.05867189
172	0x3da6412e	0.08117901
173	0x3d7231c7	0.059129503
174	0xbd97ca9f	-0.07411694
175	0x3ddc6d8e	0.107630834
176	0xbe13c6ae	-0.14431259
177	0xbe254466	-0.16139373
178	0x3d69d4e2	0.057087786
179	0x3d457703	0.0482092
180	0x3e1991dc	0.14997047
181	0x3dd5f8bc	0.10447833
182	0xbda1cbb7	-0.07900184
183	0xbe010106	-0.12598047
184	0x3dcffbd4	0.10155454
185	0xbda579f7	-0.080799036
186	0x3df183f7	0.117927484
187	0xbdb9d1dc	-0.090732306
188	0x3ccf1cf2	0.025282357
189	0xbe0b6ea4	-0.13616425
190	0xbe027920	-0.12741518
191	0xbdf80d27	-0.121118836
192	0xbde2999f	-0.11064457
193	0x3d9ace6c	0.07558903
194	0xbcf78410	-0.03021434
195	0xbdd82003	-0.10552981
196	0xbcb5aa0f	-0.022175817
197	0x3de53827	0.11192351
198	0xbe0c3bf1	-0.13694741
199	0xbd6214a2	-0.05519546
200	0xbd50a6e4	-0.05094041
201	0x3e011769	0.12606587
202	0xbe289872	-0.16464403
203	0xbe16d1db	-0.14728491
204	0xbe2bcde6	-0.16777763
205	0xbe3c8c28	-0.1841284
206	0x3d9f9add	0.0779321
207	0xbe49a752	-0.19692734
208	0xbbfe1eb4	-0.007755125
209	0xbd40efc7	-0.04710367
210	0xbdcc13db	-0.09964725
211	0xbdd80a56	-0.105488464
212	0x3e09327f	0.13398169
213	0xbd5d266e	-0.053991728
214	0xbe11722f	-0.14203714
215	0x3dc71adc	0.0972192
216	0xbe4357c2	-0.19076446
217	0xbdfc313e	-0.1231408
218	0x3d52a45e	0.051426284
219	0x3e283fd0	0.16430593
220	0xbd90a7bc	-0.07063243
221	0x3e4c8324	0.19971901
222	0xbb2622c0	-0.0025350302
223	0xbdaea5a7	-0.085276894
224	0xbae5d113	-0.0017533622
225	0x3d1fc172	0.039002843
226	0x3cce0dd7	0.025153084
227	0x3d107b5e	0.035273902
228	0x3ce37de6	0.027769994
229	0xbd728fe9	-0.059219275
230	0xbe463fd3	-0.19360285
231	0xbcf90432	-0.030397508
232	0x3e4e3132	0.20135954
233	0x3dbfa6c2	0.093579784
234	0x3df27af3	0.11839857
235	0x3c741769	0.01489816
236	0xbe402fcc	-0.18768233
237	0xbe18aa39	-0.14908685
238	0x3d8a1074	0.067414194
239	0xbd8da92a	-0.06917031
240	0xbdface21	-0.12246347
241	0x3e35012c	0.17676228
242	0x3dc4dd6f	0.096125476
243	0x3c46acf4	0.012126196
244	0xbdd0629b	-0.101750575
245	0x3d3dd38b	0.04634432
246	0xbdad3c61	-0.08458782
247	0xbdf28df4	-0.11843482
248	0xbdf025f6	-0.117259905
249	0xbe282811	-0.16421534
250	0x3bd62c8e	0.006536073
251	0xbdc0bd3b	-0.09411093
252	0x3c86dd43	0.016462928
253	0xbdeb04c6	-0.1147552
254	0xbe003e3b	-0.12523739
255	0x3c904f5d	0.017615968

gru.weight_hh_l0_reverse f4 [192, 64]
0	0x3e0118b3	0.12607078
1	0x3d150646	0.036382936
2	0xbd983d48	-0.074335635
3	0xbda3fc66	-0.080071256
4	0xbe1c549d	-0.15266652
5	0xbab53283	-0.0013824258
6	0xbe57316d	-0.21014948
7	0x3e130178	0.14356029
8	0x3ddf875b	0.10914489
9	0xbc6c9dfc	-0.014441963
10	0x3dde0901	0.10841561
11	0xbd7fbf39	-0.062438224
12	0x3d6f3ed0	0.058409512
13	0x3e342520	0.17592287
14	0xbe21507e	-0.15753362
15	0x3df132ae	0.117772445
16	0x3ba6d976	0.0050918413
17	0xbe0fee12	-0.1405566
18	0xbe0db571	-0.13838746
19	0x3d01f77e	0.031730168
20	0x3d9dad7f	0.076991074
21	0xbdb2fe4a	-0.08739908
22	0xbd8c790c	-0.06859025
23	0x3dab3b9f	0.08360981
24	0xbd026806	-0.031837486
25	0xbd1a2c1f	-0.037639733
26	0xbe64a431	-0.22328259
27	0xbb4e9627	-0.0031522603
28	0xbd4930ac	-0.049118683
29	0xbde9fc3e	-0.114250645
30	0xbc516ced	-0.012782318
31	0x3d4c40de	0.04986655
32	0xbd914ea9	-0.07095081
33	0xbda3ba0c	-0.0799447
34	0x3d025882	0.03182269
35	0xbdb423e0	-0.08795905
36	0xbd52b340	-0.051440477
37	0x3cf4d2f2	0.029885743
38	0xbe01d32d	-0.12678213
39	0xbcb5e29e	-0.022202786
40	0x3db580ab	0.08862432
41	0xbdd446b7	-0.1036505
42	0x3c38498c	0.011248004
43	0x3c9a9f3a	0.018874753
44	0xbc82b329	-0.01595457
45	0x3ddd4c17	0.108055286
46	0xbd95aaf8	-0.07308
47	0x3cb10579	0.021609055
48	0xbc8b80c4	-0.017029174
49	0x3d92b93b	0.07164236
50	0x3db2ea4f	0.08736097
51	0x3dc30d24	0.09523991
52	0xbdbfc4e7	-0.09363728
53	0x3e23254d	0.15932198
54	0xbdc5e117	-0.09662073
55	0xbd3c5e6a	-0.045988478
56	0x3da5a49a	0.08088036
57	0x3d28aac3	0.041178476
58	0xbdaa3041	-0.08309985
59	0xbcabd864	-0.020977207
60	0x3c942fcf	0.018089203
61	0xbdfc0b02	-0.12306787
62	0x3dd6b43b	0.10483595
63	0xbe0a9a39	-0.13535394
64	0xbcd257c1	-0.02567661
65	0x3e24ec0a	0.16105667
66	0xbe33db1d	-0.17564054
67	0x3e44aae4	0.19205815
68	0x3c827b54	0.015927948
69	0xbdbd3e01	-0.09240342
70	0x3dcd2b82	0.10018064
71	0x3d130f36	0.03590318
72	0x3d32e36b	0.043673914
73	0xbbea431a	-0.0071491124
74	0x3e3d23cf	0.18470691
75	0x3d28a73d	0.041175116
76	0x3e1092d4	0.1411851
77	0x3d8e41e6	0.06946163
78	0x3e122775	0.14272864
79	0xbdeac6a6	-0.114636704
80	0xbc9b2a66	-0.018941116
81	0xb99ec232	-0.00030280795
82	0xbce88c5f	-0.028387247
83	0xbc5891d1	-0.013218359
84	0xbd432d92	-0.04765088
85	0xbcc3f67c	-0.023921244
86	0x3e4e8573	0.20168094
87	0x3d479c11	0.04873282
88	0xbd42d5b3	-0.04756708
89	0x3adb1b5e	0.001671653
90	0x3c29200d	0.010322583
91	0x3b4534a9	0.0030091202
92	0x3d5a4434	0.0532877
93	0x3da44492	0.08020891
94	0xbd41e526	-0.047337674
95	0x3da35f24	0.07977131
96	0x3c99c00f	0.018768338
97	0x3c9e42a1	0.01931888
98	0x3d4aec56	0.049541794
99	0x3d5fded3	0.05465586
100	0xbc8c4a01	-0.017125132
101	0xbddef7a5	-0.10887078
102	0x3d717aa3	0.058954846
103	0x3e202ba8	0.15641654
104	0xbca9caac	-0.020726524
105	0xbcd73e10	-0.02627471
106	0x3bd94866	0.006630945
107	0xbd49459a	-0.049138643
108	0x3e03056d	0.12795039
109	0xbd21b8f9	-0.039483044
110	0x3d951531	0.072794326
111	0x3e29c93c	0.16580671
112	0x3d7b142b	0.06129853
113	0x3e55c06d	0.20874186
114	0xbd77ba60	-0.060480475
115	0x3d6a8d2b	0.057263535
116	0xbd1b3efc	-0.037901863
117	0x3d3b0dbc	0.045667395
118	0xbe4db327	-0.20087872
119	0x3e2fdf4c	0.17175025
120	0xbdd09593	-0.10184779
121	0xbe08ca15	-0.13358338
122	0xbe3ef94d	-0.18649788
123	0x3d06fbae	0.032954864
124	0xbd0cec33	-0.034404945
125	0xbe2adb18	-0.1668514
126	0xbd48a920	-0.048989415
127	0xbc98cc5c	-0.018652134
128	0xbdae0e01	-0.08498765
129	0x3d575dc0	0.05257964
130	0xbd897ab6	-0.067128584
131	0xbd29a49d	-0.041416753
132	0x3be55c68	0.006999541
133	0xbded16ba	-0.115766004
134	0x3d47b434	0.04875584
135	0x3d9375aa	0.07200177
136	0x3d954e0a	0.072902754
137	0x3c986c6d	0.018606389
138	0xbdaad662	-0.083416715
139	0x3d51b630	0.05119914
140	0x3d47983c	0.048729166
141	0xbd25e734	-0.040503696
142	0x3d93833f	0.072027676
143	0xbe064ae8	-0.13114512
144	0xbdde8cf9	-0.10866732
145	0x3d0f15f3	0.03493304
146	0x3e0c59ea	0.13706174
147	0x3dfb47e9	0.12269575
148	0xbd5b00a7	-0.05346742
149	0xbb9e815b	-0.0048371977
150	0x3e3474d0	0.17622685
151	0xbcb4e16d	-0.022080148
152	0x3c9812e5	0.018563697
153	0x3d10e8e2	0.035378344
154	0x3d4d0d90	0.050061762
155	0x3cf62d76	0.030050974
156	0x3d6f9518	0.058491796
157	0x3d162c2c	0.03666322
158	0x3be4a5ca	0.0069777714
159	0xbd28c6dc	-0.041205272
160	0x3db522d3	0.08844533
161	0xbd66e3f8	-0.05636975
162	0xbe036042	-0.12829688
163	0x3e0e876f	0.13918851
164	0xbd3f121c	-0.04664813
165	0x3d86af04	0.0657635
166	0xbd89bdea	-0.06725676
167	0x3d5729db	0.05253015
168	0x3d0075d5	0.031362373
169	0x3d3e1b9d	0.046413053
170	0xbd0f42fb	-0.034975987
171	0x3d27362f	0.040823158
172	0x3d312db1	0.043256465
173	0xbd0f2f90	-0.03495747
174	0x3dbf14f6	0.0933017
175	0x3db5836e	0.08862959
176	0xbd27ed9b	-0.040998083
177	0xb9c88ecb	-0.00038253362
178	0x3daf697c	0.085650414
179	0x3d1a2b79	0.037639115
180	0x3e212209	0.1573564
181	0xbd176a00	-0.036966324
182	0xbdc1299d	-0.09431765
183	0x3e51671b	0.20449488
184	0xbd9a6d4e	-0.075403795
185	0xbd68380b	-0.05669407
186	0x3ae14a82	0.0017188343
187	0x3d781a1f	0.060571786
188	0xbe075d3e	-0.13219163
189	0x3d17a6d5	0.037024338
190	0x3dc94fab	0.098296486
191	0x3c34412a	0.011001864
192	0x3d1c721a	0.038194753
193	0x3e0957df	0.13412426
194	0xb9b375cf	-0.00034229315
195	0x3da6d5a0	0.081462145
196	0x3c2688de	0.010164468
197	0xbd71bccd	-0.059017945
198	0xbbd43867	-0.0064764502
199	0x3d031d42	0.032010324
200	0xbd7cc0e8	-0.061707407
201	0xbd4cdbab	-0.05001418
202	0xbbb7d132	-0.005609655
203	0xbce21183	-0.02759624
204	0x3dafa619	0.085766025
205	0xbc24fcad	-0.010070008
206	0xbc665994	-0.014059443
207	0x3cfdb0d7	0.030968113
208	0xbdac7737	-0.08421176
209	0x3ddabff6	0.10681145
210	0x3dc0e0f5	0.09417907
211	0xbd2531d0	-0.040330708
212	0x3d4535fe	0.048147194
213	0x3d78e0e9	0.060761366
214	0x3d423a10	0.047418654
215	0xbd679828	-0.056541592
216	0xbce2257a	-0.02760576
217	0xbbb5a00c	-0.0055427607
218	0xbd3684cd	-0.044560242
219	0xbde51050	-0.11184752
220	0x3de189d2	0.11012615
221	0xbb0d08fb	-0.0021520245
222	0xbc87848b	-0.016542694
223	0xbaca0bd1	-0.0015414899
224	0xbdc2311f	-0.09482025
225	0xbc7c3afe	-0.015394924
226	0xbcbc2790	-0.022968084
227	0xbdf560ed	-0.11981378
228	0xbdbe6a76	-0.092976496
229	0xbe0f7d51	-0.14012648
230	0xbd21ef4e	-0.03953486
231	0x3c0f5ebc	0.008750614
232	0xbc1887ff	-0.009309768
233	0x3be4b9b5	0.006980146
234	0x3d929d49	0.07158906
235	0x3e61c68d	0.22048397
236	0xbcd656d3	-0.026164448
237	0xbaee49c3	-0.0018179942
238	0xbd143213	-0.036180567
239	0xbc9dd0db	-0.01926463
240	0xbdf3bf72	-0.1190175
241	0xbbfcbfad	-0.007713279
242	0x3bc56442	0.0060239146
243	0xbdc51de9	-0.096248455
244	0x3a96d56c	0.0011507696
245	0xbca84431	-0.020540329
246	0xbdae21a8	-0.08502513
247	0xbdbfb0e6	-0.093599126
248	0xbd1acffb	-0.037796002
249	0x3e4e7b19	0.20164146
250	0x3c833ad8	0.01601927
251	0x3d109302	0.035296448
252	0x3e1fdcac	0.15611523
253	0xbc9bb969	-0.019009309
254	0x3d57d3db	0.052692275
255	0x3bf29f27	0.0074042263

gru.bias_ih_l0_reverse f4 [192]
0	0x3d1a5b01	0.037684444
1	0x3d6f7dc9	0.058469567
2	0x3cc729ce	0.024311926
3	0x3cddfdcb	0.027098557
4	0x3d01aa24	0.0316564
5	0x3ae59f82	0.001751885
6	0x3cb5d58d	0.022196556
7	0x3cd465b3	0.0259274
8	0xbbbad82b	-0.0057020388
9	0x3d762be0	0.060100436
10	0x3d33e91a	0.043923475
11	0x3c9a5e5e	0.018843826
12	0xbc8a0cfd	-0.016851896
13	0x3c93dcf5	0.018049696
14	0x3cdebdda	0.027190138
15	0x3c80d1a1	0.015724959
16	0x3c4dd96d	0.012564045
17	0x3cf97161	0.030449571
18	0xbc23c2fb	-0.009995217
19	0x3b463f88	0.003025027
20	0xbc8a08d6	-0.016849916
21	0x3d2389bd	0.03992628
22	0x3c97c5c2	0.018526915
23	0x3d18d1b7	0.037309375
24	0x3ccaa88f	0.024738578
25	0x3d4b115c	0.049577102
26	0xbc65689b	-0.014001991
27	0x3d96419c	0.07336733
28	0xba411293	-0.00073651335
29	0x3c37f63b	0.0112281395
30	0xbbe70182	-0.0070497403
31	0x3d3bb5dc	0.04582773
32	0x3d2e0432	0.04248447
33	0x3c961819	0.018322038
34	0x3d432886	0.047646068
35	0x38a1df65	7.718689e-05
36	0x3c4ed2e3	0.0126235215
37	0x3d142610	0.03616911
38	0x3d0e8560	0.034795165
39	0x3c5e85f3	0.013581741
40	0x3cc7e218	0.024399802
41	0x3d240cd9	0.040051315
42	0x3ca610da	0.020271707
43	0x3b84eb4c	0.00405637
44	0xbd98acef	-0.074548595
45	0x3d684ec6	0.05671575
46	0x3c6c7100	0.014431238
47	0x3d430623	0.047613274
48	0xbaca2286	-0.0015421666
49	0x3d5730e8	0.052536875
50	0x3ca542e5	0.0201735
51	0xbca48615	-0.020083467
52	0x3ba1b013	0.0049343198
53	0x3d065534	0.0327961
54	0x3ce5023d	0.027955169
55	0x3c925b0a	0.017865676
56	0x3c22c07e	0.009933589
57	0x3d2aab78	0.04166743
58	0x3d0f30f9	0.034958813
59	0x3cb320eb	0.021866282
60	0x3d2642c9	0.040591035
61	0x3cb3a248	0.021927968
62	0x3c89cf45	0.016822467
63	0x3d885ff8	0.066589296
64	0xbc6ac33b	-0.014328773
65	0x3c2b8ae8	0.01047013
66	0x3c687bc8	0.014189668
67	0x3d7819c0	0.060571432
68	0xbb05e515	-0.0020430733
69	0xbcc10a38	-0.023564443
70	0x3c0d2212	0.00861408
71	0xbc2d8603	-0.010591033
72	0xbd16eb4c	-0.03684549
73	0xbc92898e	-0.017887857
74	0xbd0786ff	-0.033087727
75	0xbd1a1b22	-0.037623532
76	0x3bef807a	0.007309017
77	0xbcf84e3d	-0.030310744
78	0xbcc7e10b	-0.024399301
79	0xbd13e752	-0.036109276
80	0xbd0c36bc	-0.034231886
81	0xbd565633	-0.0523283
82	0xbcbc6c90	-0.023000985
83	0xbb45b125	-0.00301654
84	0xbcb88f64	-0.022529311
85	0xbd266f8a	-0.040633716
86	0xbcf3c83b	-0.029758563
87	0xbd22b832	-0.039726444
88	0xbc9373cf	-0.017999558
89	0xbca594f8	-0.020212635
90	0x3c8dea51	0.017323645
91	0xbb9203c8	-0.004456017
92	0xbcfb73af	-0.03069481
93	0xbccb866e	-0.024844375
94	0xba88d8a3	-0.0010440539
95	0x3ccf7a33	0.025326824
96	0x3bef608d	0.007305211
97	0x3b815a54	0.0039475355
98	0xbd02f2ff	-0.03197002
99	0x3d31ed4a	0.043439187
100	0x3c689051	0.014194564
101	0x3c78fa84	0.015196446
102	0x3b1e8c08	0.0024192352
103	0xbd1ae48a	-0.037815608
104	0x3cbf7a44	0.02337373
105	0xba8ff432	-0.001098281
106	0xbd3de8fc	-0.04636477
107	0xbdbc281e	-0.09187339
108	0xbcda0d61	-0.026617708
109	0xbb6427f9	-0.0034813865
110	0x3be651aa	0.007028778
111	0xbc962a64	-0.01833076
112	0xb9d0eea3	-0.0003985065
113	0xbc8a62ae	-0.016892757
114	0x3d33ff17	0.043944445
115	0x38fd1eaf	0.000120696954
116	0x3c2394e1	0.009984226
117	0x3cd2a630	0.02571401
118	0xbc65f0ab	-0.0140344305
119	0xbd1f2ef8	-0.038863152
120	0xbcec0e6d	-0.028815472
121	0xbc9be391	-0.01902941
122	0xbcf78aaf	-0.030217497
123	0xbc2501c3	-0.010071221
124	0x3c21dff1	0.009880052
125	0xbc585d65	-0.013205861
126	0xbbdd3ff1	-0.006752007
127	0xbd3dc80c	-0.046333358
128	0xbd00b979	-0.03142688
129	0xbc9f7e9d	-0.019469554
130	0x3b88363c	0.004156856
131	0x3c1a976d	0.009435517
132	0x3b71a6f3	0.003687319
133	0x3c43dc9d	0.011954454
134	0xbc73846b	-0.014863114
135	0xbbff9247	-0.00779942
136	0x3c0e936f	0.008702143
137	0x3bd1846e	0.0063939607
138	0xbc8ad910	-0.016949207
139	0xbc40b061	-0.011760802
140	0x3cbf0d5d	0.023321802
141	0x3ba37c1d	0.0049891607
142	0xbc0ab49f	-0.008465915
143	0xbc28abf9	-0.010294908
144	0x3c891f50	0.016738564
145	0xbc690a70	-0.01422368
146	0x3aed613e	0.0018110645
147	0x3c7498ac	0.014928978
148	0xbc4cee24	-0.012507949
149	0x3bc3a40d	0.005970484
150	0x3b4a1af9	0.003083883
151	0x3c103225	0.008801018
152	0x3bef063e	0.0072944453
153	0x3c1b14ac	0.009465378
154	0x3c510beb	0.012759189
155	0x3c360421	0.011109383
156	0xbbd5565a	-0.006510538
157	0x3b45e22b	0.003019462
158	0x3bc790ae	0.006090245
159	0xbbad91d5	-0.0052969255
160	0x3c0503f4	0.008118618
161	0xbaca7f55	-0.0015449325
162	0xbb37bb53	-0.0028035238
163	0x3c93027b	0.017945519
164	0x3ca1ed35	0.01976643
165	0x3c7970b3	0.0152246235
166	0x3c8d7e77	0.017272217
167	0x3c320765	0.010866021
168	0x3ccfe9b2	0.02537999
169	0xbb37fbc5	-0.002807365
170	0x3c43c8f8	0.01194977
171	0x3ac8984a	0.0015304175
172	0xbc3cc9b4	-0.011522699
173	0x3a455073	0.00075269415
174	0x3a540a28	0.00080886716
175	0x3c42c470	0.011887655
176	0x399f843e	0.0003042537
177	0x3ca5a9ca	0.020222563
178	0xbc306afb	-0.010767694
179	0x3bee0689	0.0072639626
180	0xbb79fdd6	-0.0038145683
181	0xb91195c6	-0.00013884073
182	0x3bb093de	0.005388721
183	0x3c4abfc8	0.012374826
184	0xbc8681f9	-0.016419398
185	0xbc95c3b3	-0.018281793
186	0xbc412143	-0.011787715
187	0xbbbf9bcb	-0.0058474294
188	0xbbfe34a1	-0.0077577387
189	0x3b8ac082	0.0042343745
190	0x3b0abcce	0.0021169665
191	0xbbcdafa8	-0.0062770434
