ckpt/model_lr_0.001_emb_32_hid_64_layers_1.pth (torch, 277138 bytes, 18 tensors)

class_embedding.weight f4 [8, 32]
0	0xbd4a773d	-0.04943012
1	0x3d025a3b	0.03182433
2	0xbd596f55	-0.05308469
3	0xbce0b7d3	-0.027431404
4	0xbc57db17	-0.013174794
5	0x3d0d1f8d	0.034453917
6	0x3d57d39c	0.05269204
7	0xbd4f80cf	-0.05065995
8	0xbd2ab925	-0.041680474
9	0x3bb1ba99	0.0054238555
10	0x3d638658	0.055548042
11	0xbd15f720	-0.03661263
12	0xbcc9114b	-0.024544379
13	0xbcfe2529	-0.031023579
14	0x3db0941a	0.08621998
15	0xbd391c92	-0.045193262
16	0xbdd4903b	-0.10379072
17	0xbb61e6a0	-0.0034469739
18	0x3d8fe057	0.07025211
19	0x3d3804e6	0.044926547
20	0xbcd3fcea	-0.025877435
21	0x3cabc878	0.020969614
22	0xbb9fad21	-0.0048729335
23	0xbcc9f7f3	-0.024654364
24	0xbd38d91e	-0.045128934
25	0x3d9046fc	0.07044789
26	0x3d217daf	0.0394265
27	0xbd315d9b	-0.04330216
28	0xbc585be9	-0.013205507
29	0x3d07873d	0.033087958
30	0x3d1ea77c	0.038733944
31	0x3c7e1012	0.015506761
32	0xbd3887e3	-0.045051467
33	0x39e97ac7	0.000445327
34	0xbc9901f3	-0.018677687
35	0xbc9de93b	-0.019276252
36	0xbd0af116	-0.033921324
37	0x3c8fb4cf	0.017542271
38	0x3c7ffe03	0.015624526
39	0xbbd473d7	-0.0064835357
40	0xbc36375a	-0.011121595
41	0xbb5705dd	-0.0032809891
42	0x3cade677	0.021228058
43	0xbccd055d	-0.025026971
44	0xbcb95eef	-0.022628276
45	0xbd036e56	-0.032087646
46	0x3cec93ba	0.028879035
47	0x3be493b4	0.0069756154
48	0xbcca92b7	-0.024728162
49	0x3b680982	0.0035406058
50	0x3cd1793c	0.025570504
51	0x3c66cc43	0.014086786
52	0xbc58dcdf	-0.0132362535
53	0x3b0d5bf6	0.0021569706
54	0xbba5132e	-0.005037687
55	0xbcaa2dcb	-0.020773789
56	0xbc9309a9	-0.017948942
57	0x3c835eea	0.01603647
58	0x3d1085a7	0.03528371
59	0xbc6a3f90	-0.014297381
60	0xbc7b10d2	-0.0153238345
61	0x3c2ba340	0.010475934
62	0x3caba472	0.020952437
63	0x3cb7b5d6	0.022425573
64	0x3ddfe30b	0.10931977
65	0xbd4e06d7	-0.05029949
66	0x3e1e854e	0.15480539
67	0x3de73e06	0.11291127
68	0x3d069334	0.032855228
69	0x3bcb7ad8	0.0062097125
70	0xbe113438	-0.14180076
71	0xbd38508e	-0.044998698
72	0x3dc14225	0.09436444
73	0x3de1ad86	0.11019425
74	0xbdc2c06c	-0.09509358
75	0x3d4f9ea0	0.050688386
76	0x3ddceccd	0.10787354
77	0x3dc7bdf1	0.09753025
78	0x3d86bac4	0.065785915
79	0x3d060ae7	0.03272524
80	0x3dfd0f9a	0.123564914
81	0xbda9a0b9	-0.082826085
82	0xbdcdd68a	-0.10050686
83	0xbe0c1a31	-0.13681866
84	0x3dbae356	0.09125392
85	0xbda40ae4	-0.0800989
86	0x3d133280	0.035936832
87	0x3da958cc	0.0826889
88	0x3da37d5f	0.07982897
89	0x3baf7d42	0.005355508
90	0xbe0095f7	-0.12557207
91	0x3deb6dd2	0.11495556
92	0x3d7e043e	0.062015764
93	0xbd56d44e	-0.052448563
94	0xbdd418fc	-0.10356328
95	0xbd8c827e	-0.06860827
96	0xbc724ecc	-0.014789294
97	0xbd3ef9b9	-0.046624873
98	0xbbcaffc0	-0.0061950386
99	0x3cce1c2f	0.025159923
100	0x3cae3115	0.021263639
101	0x3c27e650	0.010247782
102	0x3b961a04	0.004580738
103	0xbcc1246c	-0.023576938
104	0x3d5991c7	0.05311754
105	0xbc550b44	-0.013003174
106	0xbda0bda9	-0.07848675
107	0x3d8f09b8	0.069842756
108	0xbb632c2a	-0.0034663775
109	0xbc4af857	-0.01238831
110	0xbd8f434c	-0.06995258
111	0x3db124a5	0.086495675
112	0x3cfccaca	0.030858416
113	0x3c30820d	0.010773194
114	0x3c7e4ab6	0.015520742
115	0x3bff55c3	0.007792206
116	0x3ae5a562	0.0017520601
117	0xbd1b6d23	-0.037945878
118	0x3e08d3cd	0.13362046
119	0xbc840a5f	-0.016118227
120	0xbc8ef7e3	-0.017452186
121	0x3d3f82a2	0.04675544
122	0xbb184e74	-0.002324012
123	0x3d152efd	0.036421765
124	0x3c887bf1	0.016660662
125	0xbbb4846b	-0.0055089495
126	0x3b884dfe	0.004159688
127	0xbd3a0089	-0.045410667
128	0xbd221def	-0.03957933
129	0x3d57d529	0.05269352
130	0xbc14c537	-0.009080223
131	0xbca2c6d8	-0.019870207
132	0xbd137437	-0.035999503
133	0xbd8d4bb9	-0.068992086
134	0x3d194f9d	0.03742944
135	0x3d8fa1e8	0.07013303
136	0xbd0e1a81	-0.034693245
137	0xbd394bdf	-0.045238372
138	0x3d024cd0	0.031811535
139	0xbccf3929	-0.02529581
140	0xbcd8b5ef	-0.02645394
141	0xbcb30aea	-0.02185579
142	0xbc3e8b7e	-0.011629937
143	0xbd10b68d	-0.035330344
144	0x3dc6d9c8	0.09709507
145	0x3d931216	0.07181184
146	0x3ca8b5e2	0.020594541
147	0x3d2ddd05	0.04244711
148	0xbd1e4a30	-0.03864497
149	0x3d67edc7	0.056623247
150	0x3c9cce9d	0.01914149
151	0xbd0c4805	-0.03424837
152	0xbcd7dfe2	-0.026351873
153	0xbdcefd5c	-0.10106918
154	0x3cfbf40b	0.030756017
155	0xbd4e40ff	-0.050354954
156	0xbd8aa0ca	-0.06768949
157	0x3d86c5d2	0.065807
158	0x3d5cf896	0.053948008
159	0x3d80e39e	0.062934145
160	0xbca96cc3	-0.020681744
161	0xbda8aedb	-0.08236476
162	0xbcf1b7bd	-0.029506559
163	0x3cc769a2	0.024342362
164	0x3cde17b1	0.027110906
165	0x3d481051	0.048843686
166	0x3bcf57d8	0.0063276105
167	0xbd66cedf	-0.05634963
168	0x3d0c5275	0.034258325
169	0x3b42e611	0.002973918
170	0xbd4ef399	-0.05052528
171	0x3cf045fb	0.029330244
172	0xbc5c49c9	-0.013445326
173	0xbcda8ce1	-0.026678504
174	0x3c88e3e5	0.016710231
175	0x3d4e6603	0.050390255
176	0x3c77c385	0.015122299
177	0xbd21ae40	-0.03947282
178	0x3d801208	0.06253439
179	0x3d018594	0.03162153
180	0xbc221fef	-0.009895309
181	0xbd475dd5	-0.04867347
182	0xbcc06f3f	-0.023490546
183	0x3c967d45	0.01837028
184	0x3b8d4752	0.0043114806
185	0x3c1b07c0	0.009462297
186	0x3d01850d	0.031621028
187	0x3c1c13e8	0.00952623
188	0x3cf4ca1e	0.029881533
189	0x3ce3ce29	0.027808266
190	0x3c1eec91	0.0096999565
191	0xbd1ad311	-0.037798945
192	0x3d369c29	0.04458252
193	0xbb0de45f	-0.0021651012
194	0x3c9b8a73	0.018986916
195	0x3bc417eb	0.0059842966
196	0x3ca6336d	0.020288194
197	0x3c82f6df	0.015986858
198	0xbccc3323	-0.024926728
199	0xbd28f286	-0.041246913
200	0x3bcb2980	0.0062000155
201	0x3d60fb26	0.054927014
202	0x3b166582	0.0022948687
203	0x3c90e7de	0.017688688
204	0x3c7c948e	0.015416278
205	0x3d1371ee	0.035997324
206	0x3cfe0699	0.031009005
207	0x3aaafd13	0.0013045393
208	0xbcd8b20d	-0.026452089
209	0xbd4affdf	-0.049560424
210	0xbb89184e	-0.0041838055
211	0xbcdb6a96	-0.026784223
212	0x3d01c2a7	0.031679776
213	0xba77a453	-0.00094467885
214	0x3b215eb9	0.002462311
215	0x3d0e6ef3	0.03477378
216	0x3d161b2b	0.036647003
217	0x3b424a46	0.0029646321
218	0xbca431e8	-0.020043328
219	0x3c49ba92	0.012312548
220	0x3d1e6985	0.03867485
221	0x3a5f420b	0.0008516616
222	0xbc109522	-0.0088246185
223	0xbb1c313c	-0.0023833057
224	0xbc3446d4	-0.011003215
225	0xbc17df97	-0.009269617
226	0x3bdc4d87	0.006723109
227	0xbac6a502	-0.0015155377
228	0x3c109d04	0.008826498
229	0x3b85696b	0.0040714047
230	0xbb5c58fd	-0.0033622377
231	0x3b8180bb	0.0039521134
232	0x3c1f7de5	0.009734605
233	0x3bcfff58	0.006347578
234	0xbc89e66d	-0.016833508
235	0x3b93186f	0.0044889967
236	0xbc200368	-0.009766437
237	0xb8a2e729	-7.767819e-05
238	0xbbbce417	-0.005764495
239	0x3b450ee6	0.0030068695
240	0x3bf47fe9	0.007461537
241	0xbc613f98	-0.013748072
242	0x3bb147f2	0.005410188
243	0xbad67310	-0.0016361196
244	0xbadcca6f	-0.0016844998
245	0x3b450d8e	0.0030067894
246	0x3c3cb973	0.011518824
247	0xbba21b89	-0.00494713
248	0x3d03bd7d	0.032163132
249	0x3b036dea	0.0020054528
250	0xbaab037b	-0.0013047302
251	0xbc319c35	-0.010840465
252	0x3bdfdf6c	0.006832054
253	0x3c0b55ec	0.008504372
254	0x3c47b7c2	0.012189807
255	0x3a7ff8cc	0.00097645517

class_counts_projection.weight f4 [8, 5]
0	0xbd9cdcb4	-0.07659283
1	0xbe3c33fd	-0.18379207
2	0x3f34c605	0.70614654
3	0xbe294b3a	-0.16532603
4	0x3f27f6a3	0.6561071
5	0x3d64ea00	0.055887222
6	0xbd93b2e4	-0.07211855
7	0xbef82245	-0.48463646
8	0xbecb9bd5	-0.39767328
9	0xbd423433	-0.047413062
10	0xbed330bd	-0.41248122
11	0xbef1467b	-0.47124085
12	0xbdb31d22	-0.08745791
13	0x3df55341	0.1197877
14	0xbe80f7ce	-0.2518906
15	0xbedaaf2c	-0.4271177
16	0x3e760aa5	0.24027498
17	0xbe13e6ae	-0.14443466
18	0xbf1e9f19	-0.61961514
19	0x3eb90f62	0.3614455
20	0xbf0f11b9	-0.5588642
21	0xbeae1da4	-0.3400699
22	0xbeb42e3b	-0.3519152
23	0x3e76d7cf	0.24105762
24	0xbec194ae	-0.37808746
25	0x3f1b7b25	0.6073478
26	0x3f0216e9	0.5081621
27	0xbe2cbdbb	-0.16869251
28	0x3e81d10d	0.25354806
29	0x3eea6b4e	0.45784992
30	0x3e9efdf2	0.3105312
31	0x3d9710d8	0.073762596
32	0xbef68072	-0.4814487
33	0x3e26b04d	0.16278191
34	0xbe9d3fcd	-0.3071274
35	0x3e82e460	0.2556486
36	0xbec0660d	-0.3757786
37	0x3eed2493	0.46316966
38	0xbe97e9f1	-0.2967067
39	0x3e7065e2	0.23476365

class_counts_projection.bias f4 [8]
0	0xbcd468c6	-0.025928866
1	0x3cabd73c	0.020976655
2	0xbbb5ca63	-0.005547808
3	0xbc468d2a	-0.012118617
4	0xbc0dfbb0	-0.008665964
5	0x3ba5023e	0.0050356677
6	0x3c90e1af	0.01768574
7	0xbd0b1484	-0.033955112

layer_norm.weight f4 [45]
0	0x3f86e26c	1.0537848
1	0x3f8b18c2	1.086693
2	0x3f84fadd	1.0389057
3	0x3f84dbbb	1.0379556
4	0x3f827036	1.0190494
5	0x3f7f7395	0.9978574
6	0x3f88dfde	1.0693319
7	0x3f870de8	1.0551119
8	0x3f830bc4	1.0237966
9	0x3f886e27	1.0658616
10	0x3f84b758	1.0368452
11	0x3f83a6e5	1.0285307
12	0x3f83f7f8	1.0310049
13	0x3f85339a	1.0406373
14	0x3f83e5e1	1.0304528
15	0x3f83cfcb	1.0297788
16	0x3f8d425e	1.1035879
17	0x3f869c4d	1.0516449
18	0x3f85a3d0	1.0440617
19	0x3f870671	1.0548841
20	0x3f84cf32	1.0375731
21	0x3f82b4ed	1.0211464
22	0x3f811614	1.0084863
23	0x3f84feb5	1.039023
24	0x3f85a256	1.0440166
25	0x3f7e4aa1	0.99332625
26	0x3f888ba4	1.0667615
27	0x3f82c77d	1.0217129
28	0x3f85875b	1.0431932
29	0x3f7e4188	0.9931874
30	0x3f81adb4	1.0131135
31	0x3f83f34b	1.0308622
32	0x3f8307bd	1.0236737
33	0x3f84ba30	1.036932
34	0x3f8458f9	1.0339652
35	0x3f8311f3	1.0239853
36	0x3f813ce7	1.0096711
37	0x3f82573f	1.0182875
38	0x3f825142	1.0181048
39	0x3f7fd4f9	0.99934345
40	0x3f7f92e0	0.9983349
41	0x3f7850b5	0.9699815
42	0x3f84cb12	1.0374472
43	0x3f871f1c	1.0556369
44	0x3f7fe2aa	0.99955237

layer_norm.bias f4 [45]
0	0xbc7bd5e2	-0.015370818
1	0x3b92ae61	0.004476354
2	0xbc5dc25f	-0.013535111
3	0x3c86f33a	0.016473401
4	0x3ccde1b7	0.025132043
5	0xbaa6e047	-0.0012731635
6	0x3c996a4c	0.018727444
7	0xbbdfb7e3	-0.006827341
8	0x384e3bf8	4.9170078e-05
9	0xbbbea80a	-0.0058183717
10	0x3b0007f7	0.0019535997
11	0x3b8c5bd1	0.0042834063
12	0xb7a52b01	-1.9689558e-05
13	0xbbbe6cfd	-0.0058113323
14	0x3c70c918	0.014696382
15	0x3cf10113	0.029419458
16	0xb908b769	-0.00013038296
17	0xbc2f319e	-0.010692982
18	0x3d063fb3	0.032775592
19	0x3cbedb91	0.023298057
20	0x3b799a83	0.003808648
21	0xbb9a0c8b	-0.0047012023
22	0xb98527b4	-0.00025397318
23	0x3c0d2957	0.008615813
24	0xbb8f17cb	-0.00436685
25	0x3beb48c2	0.0071803043
26	0x3cc41016	0.023933452
27	0x3b36b768	0.0027880315
28	0xbb4f92a9	-0.003167311
29	0x3cc137fb	0.023586264
30	0x3bc6fc46	0.006072554
31	0x3bc7701e	0.0060863635
32	0xbd5dfb8e	-0.05419498
33	0xbd0c7f01	-0.034300808
34	0x3c9355e7	0.017985297
35	0x3ba7abb0	0.0051169023
36	0xbc3f8898	-0.011690281
37	0xbb9a02a6	-0.0047000227
38	0x3c927ac3	0.017880803
39	0xb9b8ebe3	-0.00035270964
40	0x3c7c9614	0.015416641
41	0xbb1a8c07	-0.0023581998
42	0x3c440d6e	0.0119660925
43	0x3c7eb92e	0.01554708
44	0xbc33eff9	-0.010982507

gru.weight_ih_l0 f4 [192, 45]
0	0xbd7d3b50	-0.061824143
1	0xbdb23b1b	-0.0870268
2	0x3c97b21f	0.018517552
3	0x3d99b917	0.07506006
4	0x3dbf4bcc	0.09340629
5	0xbe073b30	-0.13206172
6	0xbde024c0	-0.109445095
7	0xbbe0ead5	-0.0068639317
8	0x3caa7272	0.020806525
9	0x3e3dbb42	0.18528464
10	0xbe0343cf	-0.12818836
11	0x3d2273d9	0.039661262
12	0xbdd43ba1	-0.10362936
13	0x3e05bfe7	0.13061486
14	0x3dd2b26e	0.10287939
15	0x3e117a00	0.14206696
16	0x3da0a9c0	0.07844877
17	0x3d871eb1	0.06597651
18	0xbc63bd34	-0.01390009
19	0xbddf5bd1	-0.109061845
20	0x3ddd4795	0.10804669
21	0xbc136609	-0.008996495
22	0xbb7ab774	-0.003825632
23	0x3dc6b12b	0.09701761
24	0x3c4fd83d	0.012685833
25	0xbe3f8435	-0.18702777
26	0xbe33bb56	-0.17551932
27	0x3cfaba78	0.030606493
28	0x3cf5a294	0.02998475
29	0xbe1661c6	-0.14685735
30	0xbe02cdba	-0.12773791
31	0xbd12a76a	-0.03580419
32	0xbdb2597d	-0.08708475
33	0xbdc3a2fb	-0.095525704
34	0x3b54d5d4	0.0032476084
35	0xbd0c92b7	-0.034319606
36	0x3d969709	0.073530264
37	0xbccbfcee	-0.02490088
38	0xbe11efc4	-0.1425162
39	0x3c80cb4f	0.015721945
40	0xbe0a4a12	-0.13504818
41	0xbca518e6	-0.020153474
42	0xbe34f9d5	-0.17673428
43	0xbe3d0872	-0.18460253
44	0xbd88ada5	-0.06673745
45	0xbde8501d	-0.113434054
46	0xbe168fe1	-0.14703323
47	0xbe1c24b2	-0.15248373
48	0x3d722866	0.05912056
49	0xbc259abf	-0.010107695
50	0xbd43fad8	-0.047846645
51	0x3d131c49	0.035915647
52	0x3e4070b9	0.18793
53	0x3e1ed47a	0.15510741
54	0xbd031eef	-0.032011922
55	0xbdbc1b3d	-0.09184883
56	0x3dd047d1	0.10169948
57	0xbdc1328f	-0.094334714
58	0x3d921710	0.07133305
59	0xbe2c88fa	-0.16849127
60	0x3e29beea	0.16576734
61	0x3cff5756	0.031169575
62	0x3d9855f9	0.07438273
63	0x3e65dd62	0.22447732
64	0x3e47e036	0.19519123
65	0xbd82d822	-0.0638888
66	0xbc94cbaf	-0.01816353
67	0xbd0210da	-0.031754352
68	0xbdc3a84b	-0.09553584
69	0x3df6a042	0.120422855
70	0x3deee372	0.116644755
71	0x3e81e2cf	0.25368354
72	0xbc7f58a4	-0.015585098
73	0xbce1af00	-0.027549267
74	0x3d388173	0.045045327
75	0x3c2f0d7d	0.010684368
76	0x3cee4e53	0.029090082
77	0xbce77533	-0.028254127
78	0xbd84b8ce	-0.06480561
79	0xbd5ef920	-0.054436803
80	0xbd977fb5	-0.07397405
81	0xbd6c459c	-0.057683572
82	0x3d457430	0.04820651
83	0x3d8c1de4	0.06841639
84	0xbdfaec51	-0.12252105
85	0xbdc4affd	-0.096038796
86	0xbd86202e	-0.065491065
87	0x3e63d6ce	0.2224991
88	0xbe06878d	-0.13137646
89	0x3e2555a8	0.16145957
90	0x3a920363	0.0011139925
91	0xbd76612a	-0.060151257
92	0x3cc6051c	0.024172358
93	0xbd001e34	-0.031278804
94	0x3c03b18e	0.008037938
95	0x3db9b8bd	0.09068439
96	0xbe531009	-0.20611586
97	0xbe096173	-0.1341608
98	0x3a556f66	0.0008141905
99	0x3e4333e2	0.1906276
100	0xbdd12c0e	-0.10213481
101	0xbd913e9e	-0.070920214
102	0x3dea5e22	0.11443736
103	0x3d1cbee0	0.03826797
104	0x3df7685d	0.120804526
105	0xbd5c1371	-0.05372948
106	0xbd140807	-0.036140468
107	0xbe63e7de	-0.22256419
108	0x3d260381	0.040530685
109	0xbbb2af10	-0.005452998
110	0x3de129bd	0.10994289
111	0xbdb6bd63	-0.089228414
112	0xbdd9bb35	-0.1063141
113	0x3e07004a	0.13183704
114	0xbde48b3e	-0.11159371
115	0xbdeb7028	-0.114960015
116	0x3cb33b95	0.021878997
117	0x3e0cb93a	0.13742533
118	0x3deacc12	0.114647046
119	0xbd265cc4	-0.040615812
120	0x3d4084b6	0.047001563
121	0x39a08e03	0.00030623385
122	0xbdb640c6	-0.08899073
123	0x3e0e6e79	0.1390933
124	0xbcd17547	-0.025568618
125	0x3e4b0d8e	0.1982939
126	0xbdbc4019	-0.09191913
127	0x3da095fc	0.07841107
128	0x3cb09a92	0.02155808
129	0x3d009ac9	0.031397615
130	0xbd50329c	-0.050829515
131	0x3d019b4d	0.031642247
132	0xbb6eecb9	-0.0036457016
133	0xbe30dc4e	-0.1727154
134	0x3e6d4b98	0.23173368
135	0x3c12f050	0.008968428
136	0xbe1cc1e7	-0.15308343
137	0x3d2c72f4	0.042101815
138	0xbe09c423	-0.13453726
139	0x3dc4cb69	0.0960911
140	0xbe122b76	-0.14274392
141	0xbe2bf34a	-0.16792026
142	0xbde41c9f	-0.111382715
143	0xbdaeb9d8	-0.08531541
144	0x3d9361f4	0.071964175
145	0xbe0c6748	-0.13711274
146	0x3da65353	0.081213616
147	0x3d2f1f34	0.042754367
148	0xbd0f651f	-0.035008546
149	0xbd928ba8	-0.071555436
150	0x3d9b54ec	0.07584557
151	0xbd05f060	-0.032699943
152	0xbcba6a81	-0.022755863
153	0xbe6482ad	-0.22315474
154	0xbe3c29f3	-0.18375377
155	0xbd059759	-0.03261504
156	0x3d93c25e	0.07214807
157	0x3d546d0f	0.05186182
158	0xbdddd9ca	-0.108325556
159	0xbd56eaf6	-0.05247017
160	0x3ca15153	0.019692099
161	0xbdbf0b47	-0.09328323
162	0xbdc0d7d7	-0.09416168
163	0x3d95a2d4	0.073064476
164	0xbd98d1fa	-0.07461925
165	0x3d75223f	0.059847113
166	0xbe256ca3	-0.16154723
167	0x3ca9a4e0	0.020708501
168	0xbdc1b72f	-0.094587676
169	0xbded694c	-0.115923494
170	0x3e2f1368	0.17097247
171	0x3dfd190a	0.123582914
172	0xbd58ee49	-0.05296162
173	0xbe02a24a	-0.12757221
174	0xbdc53d7b	-0.09630867
175	0x3d9588f3	0.073015116
176	0xbe0e08b7	-0.13870512
177	0x3cf35c70	0.029707164
178	0x3d75df06	0.060027145
179	0xbb2b04cc	-0.0026095388
180	0x3d06eb42	0.032939203
181	0xbe4253ef	-0.1897733
182	0xbdb539b4	-0.088488966
183	0x3dd0518c	0.10171804
184	0x3df3033a	0.1186585
185	0xbd6bb02b	-0.057541054
186	0x3b98042b	0.0046391687
187	0xbe01c651	-0.12673308
188	0x3e0fb505	0.14033897
189	0xbdee31e2	-0.11630608
190	0xbe6330b8	-0.22186553
191	0x3dcb3191	0.099215634
192	0xbde9ce71	-0.11416329
193	0x3e1275d6	0.14302763
194	0xbe40c705	-0.1882592
195	0x3cea6b28	0.02861555
196	0xbd96d11c	-0.07364103
197	0xbdcc5783	-0.09977629
198	0xbcc5c8a3	-0.024143523
199	0xbe412b54	-0.18864185
200	0x3cd838b6	0.02639423
201	0x3dc2c2ba	0.095097974
202	0x3b3f80a9	0.0029220975
203	0xbb58b7be	-0.0033068503
204	0xbe0620c7	-0.13098441
205	0x3d3d8de5	0.0462779
206	0xbe2c9301	-0.16852953
207	0xbdb807bc	-0.0898585
208	0xbc1474f8	-0.009061091
209	0x3d453610	0.04814726
210	0xbd49df3d	-0.049285162
211	0xbdd977cf	-0.10618555
212	0xbdb6d8eb	-0.089280926
213	0x3cdf1e59	0.02723615
214	0x3cac7734	0.021052934
215	0x3dd7e155	0.105410255
216	0xbd2a510c	-0.0415812
217	0x3bf7b166	0.0075589893
218	0x3daa3e8a	0.0831271
219	0xbe23f706	-0.160122
220	0xbcd5b016	-0.02608494
221	0xbc499e8a	-0.012305865
222	0x3d6f8bf7	0.05848309
223	0x3ddda151	0.10821784
224	0x3cb7e09e	0.022445973
225	0xbb52a312	-0.0032140655
226	0xbe1562e3	-0.14588504
227	0x3db61b6e	0.088919505
228	0x3db204e0	0.08692336
229	0xbdb25909	-0.08708388
230	0x3d44760e	0.04796415
231	0xbe09f5f7	-0.13472734
232	0x3db1860c	0.086681455
233	0xbe03759e	-0.12837836
234	0x3dbb7afb	0.09154316
235	0x3d1c4bd7	0.038158264
236	0xbd543398	-0.051807016
237	0x3dd76e02	0.10519029
238	0xbda48087	-0.08032327
239	0xbe1ded86	-0.15422639
240	0xbd3576c4	-0.044302717
241	0xbc000dc4	-0.007815782
242	0x3db01399	0.08597488
243	0xbd6eec23	-0.058330666
244	0xbd1c0073	-0.038086366
245	0x3e089f49	0.13342012
246	0x3d7cb668	0.061697394
247	0xbd3a4e34	-0.045484737
248	0x3e1348a4	0.14383179
249	0x3dc572bc	0.096410245
250	0x3cac0aeb	0.0210013
251	0xbd4e932d	-0.050433327
252	0x3ce65790	0.028117925
253	0x3db9a5c4	0.090648204
254	0xbda78067	-0.08178788
255	0xbe3a0a84	-0.18168074

gru.weight_hh_l0 f4 [192, 64]
0	0xbcf29afa	-0.029614914
1	0x3dd75708	0.10514647
2	0xbdc270b0	-0.0949415
3	0x3d5b7f64	0.053588286
4	0x3d4fd642	0.05074144
5	0x3d971490	0.07376969
6	0xba9e5d1e	-0.0012082194
7	0xbe1afbe0	-0.15135145
8	0xbe27f4b6	-0.16401944
9	0x3d892e5b	0.06698295
10	0xbd626db1	-0.05528039
11	0x3c95b1df	0.018273292
12	0x3d90cd9a	0.070704654
13	0xbb7beeb7	-0.0038441846
14	0x3d62c576	0.055364095
15	0xbd0fd82c	-0.035118267
16	0x3c53f8d5	0.012937744
17	0xbd6533e3	-0.055957686
18	0x3d63b12a	0.05558888
19	0xbd009817	-0.031395044
20	0xbdb28739	-0.08717198
21	0xbc263b86	-0.010146027
22	0x3e028d93	0.12749319
23	0xbda8ae2c	-0.08236346
24	0xbe0fc315	-0.14039262
25	0x3d083c11	0.03326041
26	0xbd5a5b0e	-0.053309493
27	0x3ca8643b	0.020555606
28	0xbe0cf796	-0.13766322
29	0x3d05a743	0.032630216
30	0x3de13512	0.109964505
31	0x3ce88497	0.028383536
32	0x3dc9c139	0.098513074
33	0x3c0c8c51	0.008578376
34	0xbe34c947	-0.17654906
35	0x3cff70af	0.031181661
36	0x3d9f75a6	0.077861115
37	0xbc0c68f9	-0.008569949
38	0x3d8dbb35	0.069204725
39	0xbd3b8431	-0.045780364
40	0x3c9feacb	0.019521138
41	0x3d938de6	0.07204799
42	0x3d951e09	0.072811194
43	0xbcdeb31c	-0.027185015
44	0x3d33e93d	0.043923605
45	0xbd262dd3	-0.040571045
46	0x3d87c759	0.066298194
47	0xbb88a743	-0.00417033
48	0x3d7c8b59	0.06165633
49	0x3d9489cc	0.07252845
50	0x3e0f0aa0	0.13968897
51	0xbca410e1	-0.02002758
52	0x3ac0237f	0.0014659016
53	0x3e43c14f	0.1911671
54	0x3d694295	0.056948263
55	0x3dd73822	0.10508753
56	0x3dd653cb	0.10465201
57	0xbd32fa3b	-0.04369567
58	0x3d5f121d	0.054460634
59	0xbe3f3d25	-0.18675669
60	0x3c9f7fa7	0.019470049
61	0xbd58470c	-0.05280213
62	0x3d6b7a0e	0.057489447
63	0xbd87958a	-0.06620319
64	0xb9feb96b	-0.00048584802
65	0x3d1348f7	0.035958257
66	0xbd3f6b32	-0.04673309
67	0xbd308001	-0.043090824
68	0x3c9d6f34	0.019218065
69	0x3d81f5a0	0.063456774
70	0xbe150673	-0.14553241
71	0x3e410ff2	0.18853739
72	0x3dec21f3	0.11529913
73	0xbd972989	-0.07380969
74	0xbd2494e8	-0.04018107
75	0x3dc24e3b	0.094875775
76	0x3ddd5108	0.10806471
77	0x3d8e82e4	0.06958559
78	0x3e04fd88	0.1298734
79	0xbdd2a37e	-0.1028509
80	0x3dab4f58	0.08364743
81	0x3cb5224f	0.022111086
82	0x3cc54fa6	0.02408583
83	0xbd560c65	-0.052257914
84	0xbd4aba0b	-0.04949383
85	0xbca319ec	-0.019909821
86	0xbd783714	-0.0605994
87	0x3c6a97b0	0.014318392
88	0xbd5cf97a	-0.053948857
89	0x3ccb41e5	0.024811694
90	0xbdb71019	-0.08938617
91	0xbba1d69f	-0.004938915
92	0xbc992dfc	-0.018698685
93	0xbbce5ed9	-0.006297928
94	0x3d37c761	0.044867877
95	0xbdc3ac65	-0.09554366
96	0xbdbf52f1	-0.09341992
97	0x3e0d3187	0.13788424
98	0xbd42c4d4	-0.04755099
99	0xbc9dbeb8	-0.01925598
100	0xbd2f0ceb	-0.04273693
101	0x3ce59dc9	0.02802934
102	0x3ccb463c	0.024813764
103	0x3b0d6ffa	0.0021581636
104	0x3d724da8	0.05915609
105	0xbc7f4b50	-0.015581921
106	0x3d6baa42	0.057535417
107	0xbd09fd83	-0.033689033
108	0xbd66222d	-0.056184936
109	0x3d46e66c	0.04855959
110	0x3c0f8b05	0.008761172
111	0xbe7c2fb0	-0.24627566
112	0xbca2d578	-0.01987718
113	0xbd1c0365	-0.038089175
114	0xbd3ebe9f	-0.04656851
115	0xbd971566	-0.07377128
116	0x3bfd7122	0.0077344337
117	0xbe07b7ef	-0.13253759
118	0xbba616a7	-0.0050686183
119	0x3d989634	0.07450524
120	0x3df1cba5	0.1180642
121	0x3cef4eef	0.029212443
122	0xbc12d0f2	-0.008960949
123	0x3cd1335c	0.025537185
124	0x3ce3040f	0.027711896
125	0x3d532914	0.051552847
126	0xbd7fdfe4	-0.062469378
127	0x3d83c502	0.06434061
128	0xbd22bb1d	-0.039729226
129	0xbe1346e2	-0.14382508
130	0xbdf26073	-0.118348025
131	0x3d28d0c3	0.041214716
132	0x3db46e25	0.08810071
133	0x3d019cee	0.0316438
134	0xbdc6e64e	-0.09711896
135	0x3da5aef4	0.0809001
136	0x3d337b11	0.043818537
137	0xbca67245	-0.02031816
138	0xbd6e4672	-0.05817265
139	0xbe363bb1	-0.17796208
140	0xbd321d69	-0.04348508
141	0x3d956080	0.072937965
142	0x3dd5bcb1	0.10436381
143	0x3da1697c	0.07881448
144	0x3dc905fa	0.09815593
145	0x3d4f0c62	0.05054892
146	0x3d56c70d	0.052435923
147	0x3c393c43	0.011305871
148	0x3b6ca48f	0.0036108827
149	0xbb15775b	-0.0022806737
150	0x3ddca5cd	0.107738115
151	0xbd8ba126	-0.06817846
152	0x3b1c50cf	0.0023851877
153	0x3de49f47	0.11163192
154	0xbd66aa97	-0.05631503
155	0xbcc66a56	-0.024220627
156	0x3d858883	0.06520178
157	0x3cbe3ad4	0.02322141
158	0xbd0cf0c2	-0.034409292
159	0xbcc1aaa3	-0.023640936
160	0xbd5fb61c	-0.054617032
161	0xbda66a26	-0.08125715
162	0xbd4ad64a	-0.04952077
163	0xbd894cd2	-0.067041054
164	0x3d62f520	0.05540955
165	0xbd0673e6	-0.032825373
166	0xbd0c798b	-0.0342956
167	0xbe196e3e	-0.1498346
168	0x3db6a4f1	0.08918179
169	0x3d1e5117	0.038651552
170	0x3cd0ee70	0.02550432
171	0x3d57123c	0.052507624
172	0xbda1aa2b	-0.07893785
173	0xbe172ebf	-0.14763926
174	0x3c2c2ffa	0.010509485
175	0xbdeba1b6	-0.11505453
176	0x3e09bd9a	0.13451234
177	0x3daeaf7d	0.085295655
178	0xbdd6f806	-0.104965255
179	0xbd3cb01e	-0.046066396
180	0xbdcc729c	-0.099827975
181	0xbe50c56c	-0.2038781
182	0x3d9a43ae	0.0753244
183	0x3d783490	0.060597003
184	0x3e3fc60e	0.18727896
185	0x3a46537f	0.00075655425
186	0xbd8b488e	-0.06800948
187	0x3d18e806	0.03733065
188	0x3cbf3f61	0.023345651
189	0x3df05041	0.11734057
190	0x3e25980b	0.16171281
191	0x3dff2883	0.12458899
192	0x3cb12b26	0.02162702
193	0xbc391e18	-0.011298679
194	0x3c9e4ec3	0.019324666
195	0xbd24da82	-0.040247448
196	0x3e3997b9	0.18124284
197	0x3df28bfe	0.11843108
198	0xbe109851	-0.14120604
199	0xbd8faa75	-0.07014934
200	0x3d84bc31	0.06481207
201	0x3e1a8849	0.15091051
202	0xbb2acdbd	-0.002606257
203	0xbb83281a	-0.004002583
204	0xbd5834d2	-0.05278475
205	0x3c5d2182	0.013496758
206	0xbd5e5113	-0.054276537
207	0xbda998b6	-0.082810804
208	0xbd9f2fdc	-0.077728
209	0xbdad1349	-0.08450944
210	0xbdbd33eb	-0.09238418
211	0xbd365165	-0.044511218
212	0xbc4e8080	-0.012603879
213	0xbdfc4ef2	-0.12319745
214	0xbb945832	-0.0045271153
215	0xbdb93146	-0.09042601
216	0x3e18030a	0.1484491
217	0xbd58d535	-0.052937705
218	0xbd6c04ce	-0.05762177
219	0x3d6a9b1e	0.057276838
220	0x3d00243a	0.03128455
221	0x3d617f6b	0.055053156
222	0xbe0be5ed	-0.13661928
223	0xbbf1ecb6	-0.0073829545
224	0x3da0c2b6	0.07849638
225	0xbcd864ea	-0.026415307
226	0xbd5e17cf	-0.054221924
227	0xbd2c8414	-0.042118147
228	0xbd9421c8	-0.07233006
229	0xbd10ac63	-0.03532065
230	0x3dfe6160	0.124209166
231	0xbe003369	-0.12519611
232	0x3d670d82	0.056409366
233	0x3dbd92da	0.09256525
234	0x3c212fce	0.009838058
235	0xbdcc5f72	-0.09979142
236	0x3b2982bb	0.0025865275
237	0xbd182b71	-0.037150804
238	0x3deb1856	0.11479251
239	0x3da111a3	0.07864692
240	0x3d51788b	0.05114035
241	0x3de1e53a	0.110300496
242	0x3d804d16	0.06264703
243	0xbe8afa03	-0.2714387
244	0x3e25c7b3	0.1618946
245	0xbc102bb9	-0.008799487
246	0x3d37e1eb	0.044893187
247	0x3d14dd7f	0.036344048
248	0x3dbe843f	0.09302568
249	0xbdd0d88d	-0.10197554
250	0x3d71b9c3	0.059015047
251	0x3bcdf988	0.00628585
252	0xbbc57980	-0.006026447
253	0x3dee4c7f	0.11635684
254	0x3c0a38aa	0.008436361
255	0x3e920ea3	0.28526792

gru.bias_ih_l0 f4 [192]
0	0x3cc07b4e	0.023496296
1	0xbbdff5d1	-0.0068347235
2	0x3d1342be	0.035952322
3	0x3c40ba2a	0.011763135
4	0x3cc5b769	0.024135308
5	0x3cc74426	0.024324488
6	0x3c496ed8	0.012294494
7	0x3c517e6c	0.012786489
8	0x3c7e15b4	0.015508104
9	0x3d41f899	0.04735622
10	0x3b9c37a2	0.004767374
11	0x3c79692d	0.01522283
12	0x3cb5bc5a	0.02218454
13	0x3bfea2f1	0.007770889
14	0xbc2ca32d	-0.010536951
15	0x3cdb612b	0.026779732
16	0x3cddde3f	0.027083514
17	0x3cd1c62e	0.025607195
18	0xbc9b4194	-0.018952169
19	0x3d85d213	0.06534209
20	0x3d042af7	0.032267537
21	0x3c99cd60	0.018774688
22	0x3c9c422d	0.019074524
23	0x3d8b62ed	0.06805978
24	0x3ce5dc18	0.02805905
25	0xbc341293	-0.010990757
26	0x3cc1e676	0.023669463
27	0xbca724a8	-0.020403221
28	0xbc5fb6a5	-0.013654386
29	0x3d574902	0.05255986
30	0x3d0b99e3	0.034082305
31	0x3d1710f7	0.036881413
32	0xb9d878df	-0.00041288786
33	0x3d8b97dc	0.06816074
34	0x3d49164f	0.04909354
35	0x3c587bbc	0.013213094
36	0xbb59875b	-0.003319225
37	0x3cced086	0.025245916
38	0x3ac66e2e	0.0015139037
39	0x3acfbecf	0.0015849712
40	0x3d290be7	0.041271117
41	0xbbdc92ae	-0.006731353
42	0x3bd033bc	0.0063538235
43	0xbbfd055c	-0.007721586
44	0x3cf0a393	0.029374873
45	0x3b7d6407	0.0038664357
46	0x39a0f835	0.00030702507
47	0x3d09adc9	0.033613
48	0x3c4b467a	0.01240694
49	0x3cb41451	0.021982344
50	0x3c2b1aad	0.010443372
51	0x3c4bb017	0.01243212
52	0x3caaba78	0.020840868
53	0x3c69c79b	0.014268781
54	0x3bbf1705	0.0058316016
55	0x3cd48a58	0.025944874
56	0x3d197ec0	0.037474394
57	0x3cc08d55	0.023504892
58	0x3ce0b0e2	0.027428094
59	0x3bf6d5ac	0.007532796
60	0x3d26a994	0.040689066
61	0x3ccdaa88	0.02510573
62	0x3c8b50cb	0.017006299
63	0x3d1a8d37	0.03773233
64	0x3bff142d	0.0077843876
65	0xbd0d6f6e	-0.034530096
66	0x3bb2a8f3	0.005452269
67	0x3b405ee4	0.0029353434
68	0x3d64a5d7	0.05582222
69	0x3d1de3ba	0.038547255
70	0x3c053341	0.008129896
71	0xbd96dc97	-0.07366293
72	0x3ceb2d72	0.028708193
73	0xbd15659b	-0.03647385
74	0xbcb4c2bc	-0.022065513
75	0x3d251f56	0.040313087
76	0x3cc1f1e7	0.023674918
77	0xbb7d2534	-0.003862691
78	0x3d2fa89e	0.042885415
79	0xb81e1469	-3.7689144e-05
80	0x3c612a0c	0.013742935
81	0xbb91760a	-0.00443912
82	0xbcb9183f	-0.02259457
83	0xbd8e8dee	-0.06960665
84	0xbd08ec34	-0.033428386
85	0xbd1d81c4	-0.038453832
86	0x3cd6c43b	0.026216617
87	0xbc9ddf57	-0.019271536
88	0x3c565e23	0.013083967
89	0x3d44d7d1	0.04805738
90	0xbbc920e2	-0.006137953
91	0x3aab2e78	0.0013060113
92	0xbc0f47fb	-0.008745189
93	0xbd54622c	-0.051851436
94	0x3c9b2390	0.018937856
95	0x3c1fdf14	0.009757776
96	0x3c9ee208	0.01939489
97	0xbcc5d03e	-0.02414715
98	0xbca040f0	-0.019562215
99	0x3c87a5b2	0.016558502
100	0x3c182bc0	0.009287775
101	0x3a89efac	0.0010523698
102	0xbc06cd9d	-0.008227733
103	0x3d512dca	0.05106906
104	0xbd8fccce	-0.07021485
105	0xbcae288d	-0.02125957
106	0x3d2ce72e	0.042212658
107	0xbbe8499b	-0.0070888526
108	0xbc7d4014	-0.015457172
109	0xbb881f21	-0.0041541015
110	0x3cc3c59c	0.023897938
111	0xbcea39dc	-0.028592043
112	0xba3cf188	-0.0007207622
113	0x3c17c1ee	0.009262545
114	0x3c257b29	0.010100164
115	0xbc87f456	-0.016596
116	0xbc3f6530	-0.01168184
117	0xbd06b436	-0.032886706
118	0xbc1ef3b6	-0.00970166
119	0x3cb85977	0.022503598
120	0xbca8f775	-0.02062581
121	0x3c2254ae	0.0099078845
122	0x3b8e7766	0.0043477295
123	0xbc39cb2c	-0.011339944
124	0xbb34e667	-0.002760315
125	0x3cbbde8a	0.022933263
126	0x3c93d937	0.018047912
127	0x3cc91160	0.024544418
128	0xba6e1cdf	-0.00090832816
129	0x3c080da6	0.008304035
130	0x3d07cd2b	0.033154648
131	0xbc8292ce	-0.015939143
132	0x3b52c749	0.003216224
133	0xbc6d4331	-0.014481352
134	0x3b3af692	0.0028528315
135	0xbc1a8383	-0.009430769
136	0xbb0ed51e	-0.0021794508
137	0xbc33e183	-0.010979059
138	0xbcd47eec	-0.025939427
139	0x3bb529aa	0.0055286484
140	0xbc13fe46	-0.0090327915
141	0x3c6b1060	0.014347166
142	0xba16c814	-0.000575186
143	0xbc651a97	-0.01398339
144	0x3c08a819	0.008340859
145	0xbc615705	-0.013753657
146	0xbc45dad1	-0.012076096
147	0xbc5e8299	-0.013580942
148	0xbc2c4598	-0.010514639
149	0x3c58ef6f	0.013240679
150	0xbbb20c57	-0.0054336
151	0x3c88b8be	0.016689654
152	0x3aa87e54	0.0012855032
153	0x3ba16893	0.0049257963
154	0xbc9a5b6f	-0.018842427
155	0xbcb34e2d	-0.021887863
156	0x3a37cf8e	0.0007011824
157	0x3c7d4eda	0.015460694
158	0x3acdab34	0.0015691281
159	0x3cc38d4e	0.02387109
160	0xba939a9c	-0.0011261287
161	0xbbad769f	-0.0052936818
162	0x3b5ea3a7	0.0033972056
163	0x3c611364	0.013737533
164	0x3be8bb29	0.0071023894
165	0x3b3bf119	0.002867764
166	0x3c12dc35	0.008963634
167	0xbbeb4265	-0.0071795457
168	0xbcb108f7	-0.02161072
169	0xba287a58	-0.0006426922
170	0xbc184fc3	-0.00929636
171	0xbc3fa632	-0.011697339
172	0xbc1dff51	-0.009643392
173	0x3cecbd56	0.028898876
174	0x3c89e0a7	0.016830755
175	0xbca018d5	-0.01954309
176	0xbcee4e6a	-0.029090125
177	0xb9295520	-0.00016148807
178	0x3c2dcce1	0.010607929
179	0x3aabdd76	0.0013112265
180	0x3b121d4e	0.00222953
181	0xbc82ce82	-0.015967611
182	0x3b4045b5	0.0029338424
183	0x3ca7057d	0.02038836
184	0xbc34068b	-0.010987888
185	0xbcb6c47a	-0.022310484
186	0xbbb27ab6	-0.005446757
187	0x3c45edf3	0.012080657
188	0xbc6c5ea4	-0.014426861
189	0x3c803f6e	0.015655246
190	0x3c751a7b	0.014959927
191	0xbc8ed07a	-0.017433394

gru.bias_hh_l0 f4 [192]
0	0x3cc07b4e	0.023496296
1	0xbbdff5d1	-0.0068347235
2	0x3d1342be	0.035952322
3	0x3c40ba2a	0.011763135
4	0x3cc5b769	0.024135308
5	0x3cc74426	0.024324488
6	0x3c496ed8	0.012294494
7	0x3c517e6c	0.012786489
8	0x3c7e15b4	0.015508104
9	0x3d41f899	0.04735622
10	0x3b9c37a2	0.004767374
11	0x3c79692d	0.01522283
12	0x3cb5bc5a	0.02218454
13	0x3bfea2f1	0.007770889
14	0xbc2ca32d	-0.010536951
15	0x3cdb612b	0.026779732
16	0x3cddde3f	0.027083514
17	0x3cd1c62e	0.025607195
18	0xbc9b4194	-0.018952169
19	0x3d85d213	0.06534209
20	0x3d042af7	0.032267537
21	0x3c99cd60	0.018774688
22	0x3c9c422d	0.019074524
23	0x3d8b62ed	0.06805978
24	0x3ce5dc18	0.02805905
25	0xbc341293	-0.010990757
26	0x3cc1e676	0.023669463
27	0xbca724a8	-0.020403221
28	0xbc5fb6a5	-0.013654386
29	0x3d574902	0.05255986
30	0x3d0b99e3	0.034082305
31	0x3d1710f7	0.036881413
32	0xb9d878df	-0.00041288786
33	0x3d8b97dc	0.06816074
34	0x3d49164f	0.04909354
35	0x3c587bbc	0.013213094
36	0xbb59875b	-0.003319225
37	0x3cced086	0.025245916
38	0x3ac66e2e	0.0015139037
39	0x3acfbecf	0.0015849712
40	0x3d290be7	0.041271117
41	0xbbdc92ae	-0.006731353
42	0x3bd033bc	0.0063538235
43	0xbbfd055c	-0.007721586
44	0x3cf0a393	0.029374873
45	0x3b7d6407	0.0038664357
46	0x39a0f835	0.00030702507
47	0x3d09adc9	0.033613
48	0x3c4b467a	0.01240694
49	0x3cb41451	0.021982344
50	0x3c2b1aad	0.010443372
51	0x3c4bb017	0.01243212
52	0x3caaba78	0.020840868
53	0x3c69c79b	0.014268781
54	0x3bbf1705	0.0058316016
55	0x3cd48a58	0.025944874
56	0x3d197ec0	0.037474394
57	0x3cc08d55	0.023504892
58	0x3ce0b0e2	0.027428094
59	0x3bf6d5ac	0.007532796
60	0x3d26a994	0.040689066
61	0x3ccdaa88	0.02510573
62	0x3c8b50cb	0.017006299
63	0x3d1a8d37	0.03773233
64	0x3bff142d	0.0077843876
65	0xbd0d6f6e	-0.034530096
66	0x3bb2a8f3	0.005452269
67	0x3b405ee4	0.0029353434
68	0x3d64a5d7	0.05582222
69	0x3d1de3ba	0.038547255
70	0x3c053341	0.008129896
71	0xbd96dc97	-0.07366293
72	0x3ceb2d72	0.028708193
73	0xbd15659b	-0.03647385
74	0xbcb4c2bc	-0.022065513
75	0x3d251f56	0.040313087
76	0x3cc1f1e7	0.023674918
77	0xbb7d2534	-0.003862691
78	0x3d2fa89e	0.042885415
79	0xb81e1469	-3.7689144e-05
80	0x3c612a0c	0.013742935
81	0xbb91760a	-0.00443912
82	0xbcb9183f	-0.02259457
83	0xbd8e8dee	-0.06960665
84	0xbd08ec34	-0.033428386
85	0xbd1d81c4	-0.038453832
86	0x3cd6c43b	0.026216617
87	0xbc9ddf57	-0.019271536
88	0x3c565e23	0.013083967
89	0x3d44d7d1	0.04805738
90	0xbbc920e2	-0.006137953
91	0x3aab2e78	0.0013060113
92	0xbc0f47fb	-0.008745189
93	0xbd54622c	-0.051851436
94	0x3c9b2390	0.018937856
95	0x3c1fdf14	0.009757776
96	0x3c9ee208	0.01939489
97	0xbcc5d03e	-0.02414715
98	0xbca040f0	-0.019562215
99	0x3c87a5b2	0.016558502
100	0x3c182bc0	0.009287775
101	0x3a89efac	0.0010523698
102	0xbc06cd9d	-0.008227733
103	0x3d512dca	0.05106906
104	0xbd8fccce	-0.07021485
105	0xbcae288d	-0.02125957
106	0x3d2ce72e	0.042212658
107	0xbbe8499b	-0.0070888526
108	0xbc7d4014	-0.015457172
109	0xbb881f21	-0.0041541015
110	0x3cc3c59c	0.023897938
111	0xbcea39dc	-0.028592043
112	0xba3cf188	-0.0007207622
113	0x3c17c1ee	0.009262545
114	0x3c257b29	0.010100164
115	0xbc87f456	-0.016596
116	0xbc3f6530	-0.01168184
117	0xbd06b436	-0.032886706
118	0xbc1ef3b6	-0.00970166
119	0x3cb85977	0.022503598
120	0xbca8f775	-0.02062581
121	0x3c2254ae	0.0099078845
122	0x3b8e7766	0.0043477295
123	0xbc39cb2c	-0.011339944
124	0xbb34e667	-0.002760315
125	0x3cbbde8a	0.022933263
126	0x3c93d937	0.018047912
127	0x3cc91160	0.024544418
128	0xbbed4cae	-0.007241807
129	0xbb9badae	-0.004750929
130	0x3cb8469a	0.022494603
131	0xbc1b7a7b	-0.009489651
132	0x399d573a	0.00030010362
133	0xbc763347	-0.015026874
134	0xba086911	-0.00052036444
135	0xbc210949	-0.009828874
136	0xbb4668ac	-0.0030274792
137	0xbbcf1d12	-0.006320604
138	0xbcda3df0	-0.026640862
139	0x3c023c6b	0.007948975
140	0xbbfdb7c7	-0.007742855
141	0x3c548c14	0.01297285
142	0x3a8af00d	0.0010600105
143	0xbc8fa819	-0.01753621
144	0x3bf6ee29	0.007535715
145	0xbc7b98e4	-0.015356276
146	0xbc2d5adc	-0.010580745
147	0xbc7fde92	-0.01561703
148	0xbc41c4e2	-0.011826726
149	0x3c65f8ce	0.01403637
150	0xbbdf07a3	-0.0068063303
151	0x3ca52d52	0.020163212
152	0xbb97481c	-0.0046167504
153	0x3c18ee64	0.0093341805
154	0xbc88042c	-0.016603552
155	0xbcf0fad2	-0.029416475
156	0x3b92009c	0.004455639
157	0x3c89f7ec	0.016841851
158	0x3bab3e0e	0.0052259034
159	0x3cb8cc22	0.022558276
160	0xbbcea14e	-0.00630585
161	0xbc046969	-0.008081772
162	0x3a91526d	0.0011087187
163	0x3c3c614d	0.011497808
164	0x3c8062d1	0.01567212
165	0xb87542d0	-5.8474776e-05
166	0x3cc6fa4c	0.024289273
167	0xbb1f3ed2	-0.0024298918
168	0xbc8f0081	-0.017456295
169	0x3c5ed5c1	0.013600768
170	0xbc89ce30	-0.01682195
171	0xbc224b7c	-0.009905692
172	0xbba4878a	-0.0050210403
173	0x3c909675	0.017649869
174	0x3c957643	0.018244868
175	0xbcddccf9	-0.027075278
176	0xbcbd45a1	-0.02310449
177	0x3ad1fd09	0.0016020845
178	0x3c52c806	0.012865072
179	0xbba5ee76	-0.005063827
180	0x3be3d4d4	0.0069528613
181	0xbc250819	-0.010072731
182	0x3adb8296	0.0016747292
183	0x3cd71fa1	0.026260199
184	0xbbd74e63	-0.0065706237
185	0xbce51bcc	-0.027967356
186	0xbbd99d88	-0.0066410936
187	0x3bc89c02	0.006122113
188	0xbc7a3f2e	-0.015273852
189	0x3c96b0ef	0.018394915
190	0x3c631494	0.013859887
191	0xbc35464c	-0.011064123

gru.weight_ih_l0_reverse f4 [192, 45]
0	0xbdbd9f9d	-0.092589594
1	0x3e0f729d	0.14008565
2	0x3dd8722d	0.10568652
3	0xbe014a9f	-0.12626122
4	0x3d846d80	0.06466198
5	0xbc41d67c	-0.011830922
6	0xbe228de2	-0.15874436
7	0x3e32b781	0.17452814
8	0x3c78a5a6	0.015176212
9	0x3b7f4f20	0.0038957074
10	0x3dea1444	0.114296466
11	0x3dfd251f	0.12360596
12	0x3e32add9	0.1744913
13	0xbd333d76	-0.043759786
14	0x3d8c1698	0.06840247
15	0xbcca4528	-0.02469118
16	0xbe1b0220	-0.1513753
17	0xbd049276	-0.03236624
18	0x3d51912b	0.051163834
19	0xbd445bbb	-0.047939043
20	0xbde40c76	-0.11135189
21	0xbded93ca	-0.11600454
22	0xbd1ddbf2	-0.038539834
23	0x3dd1a719	0.102369495
24	0x3d8ca976	0.068682596
25	0xbd5b6b2f	-0.053569015
26	0xbd2d7bae	-0.04235428
27	0x3dd49061	0.103791006
28	0x3c6b46e3	0.014360162
29	0x3d536063	0.051605593
30	0x3da7a61a	0.08185978
31	0x3d31c833	0.043403815
32	0xbd89d2a6	-0.06729631
33	0x3cb219c9	0.021740811
34	0xbcf6ef7f	-0.030143498
35	0x3d7abc68	0.061214834
36	0xbd03209a	-0.032013513
37	0x3d21c8b4	0.039498046
38	0xbd92f262	-0.07175137
39	0xbd85f4b1	-0.06540812
40	0x3da86910	0.08223164
41	0xbe29f9cd	-0.16599198
42	0xbe09771c	-0.13424343
43	0xbdb3e77f	-0.08784389
44	0x3c9c5813	0.019084966
45	0xbdeaebe3	-0.11470773
46	0xbe01333c	-0.126172
47	0x3d73ce07	0.059522655
48	0xbe205eac	-0.15661114
49	0x3da23e56	0.07922046
50	0x3dd19b0c	0.10234651
51	0xbd751f97	-0.05984458
52	0xbe05fae3	-0.13083987
53	0xbe2e4bc8	-0.17021096
54	0x3e067217	0.1312946
55	0x3d76a24f	0.060213383
56	0xbe335260	-0.17511892
57	0xbe07d55c	-0.13264984
58	0xbdf3ee23	-0.11910655
59	0x3c8a08a7	0.016849829
60	0x3bcf9116	0.0063344343
61	0x3db89590	0.09012902
62	0x3c6b6248	0.014366694
63	0xbe0af079	-0.13568296
64	0x3d3c79e6	0.04601469
65	0x3b80355a	0.00391261
66	0xbdd60df8	-0.10451883
67	0xbe1afbf9	-0.15135182
68	0xbe2ca20a	-0.16858688
69	0x3e081ee3	0.13293032
70	0x3d0cd9ef	0.034387525
71	0xbe0e7080	-0.13910103
72	0xbda6d741	-0.08146525
73	0xbda3bc08	-0.079948485
74	0x3d2ef22b	0.042711418
75	0xbd7b407b	-0.06134079
76	0xbb18788a	-0.0023265206
77	0xbd8ce102	-0.06878854
78	0x3d5495e7	0.05190077
79	0x3dafe993	0.085894726
80	0xbe04a6e2	-0.12954286
81	0x3dbc735e	0.09201692
82	0xbd613b69	-0.0549883
83	0x3d18ba11	0.03728682
84	0x3d7fd864	0.062462226
85	0xbdeee36f	-0.11664473
86	0xbc8c7ef9	-0.017150389
87	0xbdb5045d	-0.08838723
88	0xbdbee887	-0.09321695
89	0x3dca7f11	0.09887517
90	0xbcb0a0be	-0.021561023
91	0x3dbef151	0.09323371
92	0x3dd80bd4	0.10549131
93	0xbdcf849f	-0.10132717
94	0xbd918da3	-0.07107093
95	0x3d392b50	0.04520732
96	0xbce06356	-0.027391117
97	0x3dccb362	0.09995152
98	0xbc49edd6	-0.012324771
99	0xbde5454e	-0.111948594
100	0xbd5bc5d9	-0.05365548
101	0xbc09ae05	-0.008403306
102	0x3c33738a	0.01095284
103	0x3d280e33	0.041029166
104	0xbd01c4b0	-0.031681716
105	0x3d2418fd	0.040062893
106	0x3db9bc8d	0.09069166
107	0xbe0b5e24	-0.1361013
108	0x3e0b09ca	0.13577953
109	0xbda30b76	-0.079611704
110	0x3d8e4ddb	0.069484435
111	0x3e0cf347	0.13764678
112	0xbe13a3e3	-0.14417987
113	0xbe008423	-0.12550406
114	0x3dc08175	0.09399692
115	0xbdf3dabe	-0.11906956
116	0xbdf05641	-0.117352016
117	0xbd590514	-0.05298336
118	0x3ddc2546	0.10749297
119	0xbbdbc04e	-0.006706274
120	0xbdbf4c3d	-0.09340713
121	0x3d4f74f4	0.050648645
122	0xbe2259a3	-0.15854506
123	0xbdddce7c	-0.108303994
124	0xbc763d34	-0.01502924
125	0x3dcddc43	0.10051777
126	0xbc949f1f	-0.018142281
127	0xbcbb2e1d	-0.022849137
128	0xbd59818e	-0.05310207
129	0x3e0773e7	0.13227807
130	0x3dbed2b9	0.09317536
131	0xbd5b2ade	-0.05350768
132	0x3dec71c7	0.11545139
133	0x3db9c173	0.09070101
134	0xbe2dfaa6	-0.16990146
135	0xbd310abb	-0.043223124
136	0x3c9187ed	0.01776501
137	0x3d7a038f	0.06103855
138	0xbdca56ec	-0.0987986
139	0x3dc8a6ab	0.097974144
140	0x3d3a67f3	0.04550929
141	0xbcc7f229	-0.024407463
142	0x3bc9f0ce	0.0061627394
143	0x3c239be6	0.0099859
144	0xbd90d0e8	-0.07071096
145	0x3cabfeee	0.020995583
146	0xbdab4ca8	-0.083642304
147	0x3cab5a14	0.020916976
148	0x3e0f48d9	0.13992633
149	0xbe156912	-0.14590862
150	0x3cd0c40b	0.025484106
151	0xbde0fbb4	-0.109855086
152	0xbd85d149	-0.065340586
153	0xbd114f84	-0.035476223
154	0xbe052b49	-0.13004793
155	0xbd5bde82	-0.053678997
156	0x3d288abf	0.041147944
157	0x3d58956a	0.052876867
158	0xbd8839b7	-0.06651633
159	0xbb86affe	-0.0041103354
160	0x3e238a03	0.15970616
161	0x3d87df40	0.066343784
162	0x3d34e701	0.044165615
163	0xbe28d54a	-0.16487613
164	0xbe36d890	-0.1785605
165	0x3d0346ee	0.032050066
166	0x3d310656	0.043218933
167	0xbdecb100	-0.115571976
168	0xbd9852df	-0.074376814
169	0xbd9e3833	-0.07725563
170	0x3cadbd9d	0.021208579
171	0x3d3c3a9d	0.045954335
172	0xbdb820d0	-0.089906335
173	0xbdef9224	-0.11697796
174	0x3dabe019	0.083923526
175	0x3afe5e75	0.0019406812
176	0xbd3f71dc	-0.046739444
177	0xbe405f71	-0.18786408
178	0x3d944a79	0.07240767
179	0xbc537741	-0.01290685
180	0xbdd779f2	-0.10521306
181	0x3dfb55bb	0.12272211
182	0xbcbe8b7d	-0.023259873
183	0xbc400cbb	-0.011721785
184	0xbe000cbe	-0.12504861
185	0x3e16db46	0.14732084
186	0xbd1b5188	-0.03791955
187	0xbda35594	-0.07975307
188	0xbd3ce76d	-0.046119142
189	0xbd43c0c9	-0.047791276
190	0x3c9d190d	0.019176984
191	0x3e1c24e3	0.15248446
192	0xbd95ed17	-0.07320612
193	0xbcbefc50	-0.023313671
194	0x3dbe360c	0.092876524
195	0xba8994f6	-0.0010496664
196	0xbdf31469	-0.11869127
197	0x3d857393	0.06516185
198	0x3e290d60	0.16509008
199	0xbce1e9a2	-0.027577225
200	0xbd5d3703	-0.05400754
201	0x3dea5215	0.11441437
202	0x3d584665	0.05280151
203	0xbd44c57e	-0.048039906
204	0xbc8f33bf	-0.01748073
205	0xbe1f49e8	-0.15555537
206	0xbb461e35	-0.0030230407
207	0xbcee949a	-0.029123593
208	0x3e198d6d	0.14995356
209	0xbdad1720	-0.08451676
210	0x3e19492e	0.14969322
211	0x3dec7396	0.11545484
212	0x3dc93cf8	0.09826082
213	0x3c5a6035	0.013328602
214	0xbe0bb2b7	-0.13642393
215	0xbd9c0e3f	-0.07619905
216	0xbdecc9fa	-0.115619615
217	0x3d967167	0.073458485
218	0xbd334261	-0.043764476
219	0xbe116003	-0.14196782
220	0x3e03cc0f	0.12870811
221	0x3bdea58d	0.0067946375
222	0x3e20b87b	0.15695374
223	0xbc9e557b	-0.01932787
224	0xbce5153a	-0.027964223
225	0x3e148150	0.14502454
226	0x3e1a6ccf	0.1508057
227	0xbe25f905	-0.16208275
228	0x3db6621d	0.089054324
229	0x3d993434	0.0748066
230	0xbde64a40	-0.11244631
231	0xbd08cd9a	-0.033399202
232	0x3d256929	0.04038349
233	0x3a009ae6	0.0004905894
234	0xbe2d3673	-0.16915302
235	0x3dabf5a6	0.08396463
236	0x3da9271c	0.08259413
237	0xbe04492a	-0.12918535
238	0x3d94d840	0.07267809
239	0x3cf4fefe	0.029906746
240	0xbc7f2255	-0.01557215
241	0x3dbf2eba	0.09335084
242	0x3dc17b85	0.094473876
243	0x3dce34c7	0.1006866
244	0x3e092fb7	0.13397108
245	0x3d2f1ce7	0.042752173
246	0xbcbf8d65	-0.023382852
247	0xbcb50540	-0.02209723
248	0x3d7e11a5	0.062028546
249	0x3e0ea877	0.13931452
250	0x3c0df744	0.00866491
251	0xbe17d85b	-0.14828627
252	0xbde3fcc6	-0.11132197
253	0x3e037fa0	0.12841654
254	0x3db6efff	0.08932494
255	0xbd21cfeb	-0.039504927

gru.weight_hh_l0_reverse f4 [192, 64]
0	0x3d422640	0.04739976
1	0x3e467566	0.19380721
2	0x3dddf9db	0.10838672
3	0xbca8ad50	-0.020590454
4	0x3d189cf8	0.037259072
5	0x3e12d2d8	0.14338243
6	0xbceb33be	-0.028711196
7	0x3cc71004	0.024299629
8	0x3a9736c0	0.0011536703
9	0xbb841f00	-0.004032016
10	0xbbce04ae	-0.006287179
11	0x3e00d3a3	0.12580733
12	0xbe0a58a9	-0.13510384
13	0xbda8d750	-0.082441926
14	0x3dcc43b6	0.09973852
15	0xbde2fa72	-0.11082925
16	0x3cade81d	0.021228844
17	0x3d2936d3	0.04131205
18	0x3dbf05d3	0.09327283
19	0xbdb37d64	-0.08764151
20	0x3c98711a	0.018608619
21	0x3cdc7a26	0.026913714
22	0x3e24f219	0.16107978
23	0xbdb7f1db	-0.08981677
24	0xbc2ad37e	-0.0104264
25	0xbc148ca7	-0.009066737
26	0x3d3e184b	0.046409886
27	0x3d93da9d	0.072194315
28	0xbc180773	-0.00927912
29	0xbd099ab3	-0.0335948
30	0xbd664b94	-0.05622442
31	0x3c4f7bcd	0.012663794
32	0xbd71f3dd	-0.059070457
33	0xbd8b492f	-0.06801068
34	0x3c53774d	0.0129068615
35	0x3cbf5827	0.023357464
36	0xbd6a365d	-0.05718075
37	0xbcf90d64	-0.030401893
38	0xbd100b6c	-0.035167143
39	0xbca0aa6a	-0.01961251
40	0x3dcdc966	0.10048179
41	0x3dd49359	0.10379667
42	0x3c4fcb6a	0.012682775
43	0x3b4a1a25	0.0030838337
44	0xbd9b7836	-0.07591288
45	0xbcdcb8c0	-0.026943564
46	0xbe2bd519	-0.16780509
47	0x3d50c816	0.050972067
48	0x3d16aafd	0.03678416
49	0xbc8ba16b	-0.017044744
50	0x3de160b9	0.110047765
51	0x3d3aa74b	0.0455697
52	0x3d02c176	0.03192278
53	0x3dc03b9b	0.09386369
54	0x3cfdb599	0.030970382
55	0x3ca54946	0.020176541
56	0x3d2d29df	0.04227626
57	0x3d9edd44	0.07757047
58	0x3d94ea28	0.07271224
59	0x3d6937b4	0.05693789
60	0x3df38044	0.11889699
61	0xbd56164a	-0.05226735
62	0xbcaa7039	-0.020805465
63	0xbc1b10c3	-0.0094644455
64	0x3d48ce2b	0.049024742
65	0x3d062a00	0.032754898
66	0xbce20dec	-0.02759453
67	0xbd25d7f2	-0.040489145
68	0xbbdc3718	-0.006720435
69	0x3d1b5845	0.037925977
70	0xbdbc3363	-0.09189489
71	0xbd2b904a	-0.04188565
72	0xbdb87fe0	-0.09008765
73	0x3de01be6	0.10942821
74	0xbe364553	-0.17799883
75	0xbd05a8c8	-0.032631665
76	0x3c195292	0.009358065
77	0x3d0cf646	0.034414552
78	0x3d5c8630	0.05383891
79	0xbc949d9c	-0.01814156
80	0x3b18b726	0.0023302524
81	0xbd8255a5	-0.06363992
82	0xbdf69ca4	-0.120415956
83	0x3dc9f7f3	0.09861746
84	0x3bac0355	0.0052494206
85	0xbbcbcf01	-0.006219745
86	0x3da62615	0.08112732
87	0x3cda27ac	0.026630245
88	0x3dcd0046	0.10009818
89	0x3c930c04	0.017950065
90	0x3ca86fe0	0.020561159
91	0x3dbeb4e8	0.09311849
92	0xbd124241	-0.035707716
93	0x3e3d3461	0.18477012
94	0xbe195f87	-0.14977847
95	0xbbaecac7	-0.0053342315
96	0x3db7937c	0.08963677
97	0xbc5ddc69	-0.013541319
98	0xbd17ed40	-0.037091494
99	0xbdb2bee1	-0.087278135
100	0xbbceaeec	-0.0063074734
101	0xbda86a69	-0.08223421
102	0xbda14a08	-0.078754485
103	0xbde322de	-0.11090635
104	0xbce17ffc	-0.027526848
105	0x3d8a15d4	0.06742445
106	0xbd0bbddd	-0.034116615
107	0xbdf5d03a	-0.12002607
108	0xbd4de202	-0.050264366
109	0x3c354832	0.011064576
110	0x3c57d9c2	0.013174476
111	0xbd96bbd4	-0.07360044
112	0x3e572f87	0.21014224
113	0x3a927ab2	0.0011175482
114	0xbcf37e9e	-0.029723462
115	0x3adea858	0.0016987426
116	0xbdfa9bef	-0.12236773
117	0x3c999d11	0.018751653
118	0x3dd61529	0.10453255
119	0xbdc41d98	-0.09575957
120	0xbc15026a	-0.009094814
121	0xbdb1e228	-0.08685714
122	0xbd490e7e	-0.049086086
123	0x3d977bcd	0.0739666
124	0xbca5eb0f	-0.020253686
125	0x3bf53df9	0.0074841944
126	0xbd4f23cc	-0.050571248
127	0xbb120c9e	-0.0022285352
128	0x3d6e9e36	0.05825635
129	0x3d1bfaf2	0.038081117
130	0xbc261680	-0.0101372
131	0xbc897a53	-0.016781962
132	0xbd4d010c	-0.050049827
133	0x3dac32fc	0.08408162
134	0xbe25d60b	-0.16194932
135	0xbd6b8f95	-0.057509977
136	0xbdf27c9d	-0.11840174
137	0xbae40842	-0.001739748
138	0xbc549564	-0.012975071
139	0x3cf8cca3	0.030371016
140	0xbd463417	-0.04838952
141	0x3dd11b28	0.10210258
142	0xbc880c44	-0.016607411
143	0x3dc39941	0.09550715
144	0xbd248611	-0.04016692
145	0x3d8ce402	0.068794265
146	0xbca0b6f4	-0.019618489
147	0xbd7f3741	-0.062308554
148	0x3da51da8	0.08062297
149	0x3d7a4641	0.061102156
150	0x3c21eea6	0.009883558
151	0x3d6d1e39	0.05789015
152	0x3db62ab5	0.088948645
153	0x3e295e4a	0.16539875
154	0xbd7745fe	-0.060369484
155	0x3bf0006c	0.007324269
156	0xbdbd9322	-0.09256579
157	0x3d9711b0	0.073764205
158	0xbdaa0d48	-0.083033144
159	0x3d580936	0.05274316
160	0x3c5b4e15	0.013385315
161	0xbb31f1a3	-0.0027152083
162	0xbdba2033	-0.09088173
163	0x3e16d3b6	0.14729199
164	0xbe0f205b	-0.13977186
165	0xbdda7d8d	-0.10668478
166	0x3d6a5815	0.057212908
167	0x3e6a8ecf	0.2290604
168	0x3d0e6561	0.03476465
169	0x3c2d3377	0.010571352
170	0xbd83d9c5	-0.064380206
171	0xbdb89161	-0.09012104
172	0x3dd1a033	0.10235634
173	0x3d508938	0.050912112
174	0xbdaf6761	-0.0856464
175	0xbbc3d282	-0.005976022
176	0x3b1cfd8c	0.0023954837
177	0xbcbe7358	-0.02324836
178	0x3c5e0c3c	0.013552722
179	0x3dc0b76d	0.09409986
180	0xbdd4725c	-0.10373375
181	0xbd6bd1c1	-0.057573084
182	0xbd460c7d	-0.048351754
183	0x3d0441d9	0.03228936
184	0xbd4ad555	-0.049519856
185	0xbbab2ec2	-0.00522408
186	0x3cb8f861	0.022579374
187	0xbb78c290	-0.0037957765
188	0xbd1b02fa	-0.037844636
189	0xbd40c097	-0.047058668
190	0xbd5772e1	-0.05259979
191	0xbd831baa	-0.06401761
192	0xbda4890f	-0.08033954
193	0xbc66a44f	-0.01407726
194	0xbdbe2787	-0.09284883
195	0xbc43f400	-0.01196003
196	0x3d73af5c	0.059493408
197	0x3ddb6eaa	0.10714467
198	0xbd12872a	-0.035773434
199	0xbd9152c0	-0.070958614
200	0x3d89ec01	0.06734467
201	0xbb2b0753	-0.0026096895
202	0x3d1d7d40	0.038449526
203	0x3db345f4	0.08753577
204	0xbcff9582	-0.03119922
205	0x3deab96a	0.11461146
206	0x3d1d741d	0.038440812
207	0x3e136cc9	0.14396967
208	0xbcad692f	-0.02116832
209	0x3dda1bca	0.106498316
210	0x3d1338f8	0.035943
211	0x3de6d07b	0.11270233
212	0x3c3f9561	0.01169333
213	0xbdbe1d46	-0.09282927
214	0x3cda944e	0.026682045
215	0x3c972f77	0.01845525
216	0xbd22c720	-0.03974068
217	0xbc5a7cb4	-0.013335396
218	0x3d110ddd	0.03541361
219	0xbd64dc84	-0.055874363
220	0xbe00b377	-0.1256846
221	0x3d1a3822	0.03765119
222	0xbc5c52c0	-0.0134474635
223	0x3decdff2	0.11566152
224	0x3dc2d88c	0.09513959
225	0xbc59b01e	-0.0132866185
226	0x3cdb98b0	0.026806206
227	0xbd75618d	-0.059907485
228	0x3d9afd7a	0.07567878
229	0xbde8e281	-0.11371327
230	0x3d3b4bbc	0.045726523
231	0x3bf0f550	0.0073534623
232	0xbca642e5	-0.02029557
233	0xbd87d735	-0.06632844
234	0x3d877f54	0.06616083
235	0x3d0a6a54	0.03379281
236	0xbd96d24f	-0.07364332
237	0xbd741df6	-0.059598885
238	0x3dc8282c	0.09773287
239	0xbd2237a8	-0.03960386
240	0xbdc80e86	-0.09768395
241	0xba16f563	-0.00057586114
242	0x3d09790e	0.033562712
243	0x3dd277d8	0.10276765
244	0xbd4059ad	-0.04696052
245	0xbc2ef2af	-0.010677977
246	0x3b4fa408	0.0031683464
247	0x3d0f3270	0.03496021
248	0xbd947a94	-0.072499424
249	0x3db22cd3	0.08699956
250	0xbdf0572d	-0.117353775
251	0x3d58832e	0.052859478
252	0xbcd73586	-0.02627064
253	0xbc6d8126	-0.014496123
254	0x3dcc1e89	0.099667616
255	0x3ddeb7f5	0.10874931
