ckpt/model_lr_0.001_emb_8_hid_64_layers_3.pth (torch, 836866 bytes, 34 tensors)

class_embedding.weight f4 [8, 8]
0	0xbd61fde2	-0.055173762
1	0xbd6bf2c8	-0.05760458
2	0xbd6180bc	-0.05505441
3	0x3d200d73	0.039075326
4	0xbbff848f	-0.0077977846
5	0x3bef7857	0.007308047
6	0x3d7bc71a	0.061469175
7	0xbcb14f1e	-0.021644171
8	0x3c818188	0.015808836
9	0xbca8c7b3	-0.020603037
10	0xbcfc523a	-0.030800927
11	0x3cdd7714	0.02703432
12	0xbd881501	-0.06644631
13	0x3bda43d7	0.006660919
14	0x3cc7bbdd	0.024381572
15	0xbcef7395	-0.029229918
16	0x3e132d2c	0.143727
17	0x3e44f7b9	0.19235124
18	0x3deedc8a	0.11663158
19	0xbddbcf7a	-0.107329324
20	0x3e088d20	0.13335085
21	0xbba5144e	-0.005037821
22	0xbdf7634b	-0.120794855
23	0x3e0180e6	0.12646827
24	0x3d1bfcad	0.038082767
25	0xbc36c263	-0.011154744
26	0xbb4f4c99	-0.003163135
27	0xbca0adff	-0.019614218
28	0xbd4b0fe6	-0.04957571
29	0xbcb96895	-0.022632876
30	0x3b509816	0.0031828932
31	0x3c8a6c28	0.016897276
32	0x3d99bab5	0.07506315
33	0x3bf923cc	0.0076031443
34	0x3c8904b8	0.016725883
35	0xbc331bba	-0.0109319035
36	0xbcbc706d	-0.023002828
37	0x3cf48b04	0.029851444
38	0xbc0e929b	-0.008701946
39	0x3bf47d37	0.007461216
40	0x3bac3aaa	0.0052560167
41	0xbc48ec4f	-0.012263372
42	0x3a352477	0.0006910036
43	0x3caad8cd	0.020855332
44	0xbd272753	-0.040808987
45	0xbd50eeeb	-0.0510091
46	0xbd24954c	-0.040181443
47	0x3ce25094	0.027626313
48	0xbc26c917	-0.0101797795
49	0x3cee4433	0.029085254
50	0x3d1fa2dd	0.038973678
51	0xbcd4f5bd	-0.025996083
52	0x3c59f806	0.013303762
53	0xbc51b02c	-0.01279835
54	0xbafbdd42	-0.001921572
55	0x3d4acac4	0.04950978
56	0xbbba2fd9	-0.0056819734
57	0x3ba7f4ed	0.005125633
58	0xbc34edb8	-0.011043005
59	0x3cf362e1	0.029710235
60	0xbc1e81fb	-0.009674544
61	0xbcaacbe6	-0.02084918
62	0x3b8e35bd	0.004339902
63	0xbb4ef550	-0.0031579323

class_counts_projection.weight f4 [8, 5]
0	0x3d2cf0b2	0.042221732
1	0x3e2188bc	0.15774816
2	0x3f308d2d	0.6896542
3	0xbf15550d	-0.583329
4	0x3f2391d5	0.638944
5	0xbe5b2644	-0.21401316
6	0x3e04c43d	0.12965484
7	0xbf08ad82	-0.5338975
8	0x3d09f212	0.033678122
9	0xbe88080a	-0.26568633
10	0x3f2a5db2	0.6654922
11	0x3edf47d1	0.4360948
12	0x3e837dd7	0.25681946
13	0x3ee4c93b	0.44684777
14	0x3f13c14b	0.57716817
15	0x3e6f02dd	0.23340936
16	0x3e5623ab	0.20912044
17	0x3f2e93cd	0.68194276
18	0xbefa5bb2	-0.48898083
19	0x3eedb06f	0.4642367
20	0x3ee874a3	0.45401487
21	0xbf156fb0	-0.58373547
22	0xbee2c2b0	-0.4428916
23	0xbf2a4bd3	-0.6652195
24	0x3e9b854d	0.30375138
25	0xbe8bb7b6	-0.27288598
26	0x3ded5c1d	0.11589835
27	0xbefcd709	-0.4938281
28	0xbe9912a2	-0.29897028
29	0x3f119061	0.5686093
30	0x3e0dea2f	0.13858865
31	0x3e7e541c	0.24836773
32	0xbeecfbe0	-0.46285915
33	0xbea604b7	-0.32425472
34	0xbdef949c	-0.11698267
35	0xbf11a709	-0.568955
36	0x3e021ab3	0.12705497
37	0xbe96ae95	-0.2943007
38	0x3f0888fb	0.53334016
39	0xbf0e4cb5	-0.55585796

class_counts_projection.bias f4 [8]
0	0x3c082c5f	0.00831136
1	0xbb94a682	-0.004536451
2	0xbc4ef3ee	-0.0126314
3	0x3b141ae8	0.0022599045
4	0xbc140c14	-0.009036083
5	0x3cf7faad	0.030270899
6	0xbc7b6c48	-0.0153456405
7	0x3b1e2c64	0.0024135346

layer_norm.weight f4 [21]
0	0x3f82b652	1.021189
1	0x3f8551a2	1.0415537
2	0x3f85f12d	1.0464226
3	0x3f837c4a	1.0272305
4	0x3f81bf20	1.0136452
5	0x3f8183b5	1.0118319
6	0x3f814763	1.009991
7	0x3f860925	1.0471541
8	0x3f7f6fb9	0.9977985
9	0x3f83e8ed	1.0305458
10	0x3f7ebb63	0.9950468
11	0x3f8225ec	1.0167823
12	0x3f7e72ce	0.9939393
13	0x3f87f3e7	1.0621308
14	0x3f7ca69a	0.98691714
15	0x3f817c74	1.0116105
16	0x3f82ebc2	1.0228198
17	0x3f864ad4	1.0491586
18	0x3f7fb776	0.99889314
19	0x3f834798	1.0256224
20	0x3f7f9571	0.99837404

layer_norm.bias f4 [21]
0	0x3b84a3c6	0.0040478436
1	0xbb2d6754	-0.0026459293
2	0x3ba41be3	0.005008207
3	0x3bfb542d	0.0076699466
4	0x3ba559c0	0.0050460994
5	0x3c40afac	0.011760633
6	0x3c06fe44	0.008239333
7	0x3c77a19d	0.015114215
8	0xbc9d4fdb	-0.019203117
9	0xbc87e0c7	-0.016586674
10	0xbc80bdfc	-0.015715592
11	0xbb2fa932	-0.002680373
12	0xbb997cc3	-0.004684062
13	0xb8dcfb51	-0.00010537229
14	0xbb98c7e9	-0.004662503
15	0xba78e5b1	-0.0009494676
16	0x3bc42a22	0.005986468
17	0x392059b5	0.00015292208
18	0x39d9c562	0.00041536527
19	0xbb1d843a	-0.0024035112
20	0x3c3eb2f1	0.011639343

gru.weight_ih_l0 f4 [192, 21]
0	0x39cd3da6	0.0003914658
1	0xbdec5402	-0.11539461
2	0xbd5ad708	-0.053427726
3	0xbddd3286	-0.10800652
4	0xbbdbd41a	-0.006708634
5	0xbe2e75e8	-0.17037165
6	0xbcf77136	-0.03020535
7	0x3d9f8de4	0.07790735
8	0x3d15206a	0.036407866
9	0xbca8db9e	-0.020612534
10	0xbe022eb7	-0.12713133
11	0x3e01c0ed	0.12671252
12	0xbdbf85f6	-0.09351723
13	0x3e108c8b	0.14116113
14	0xbdb87064	-0.09005812
15	0x3e009f54	0.12560779
16	0xbe18013d	-0.14844222
17	0xbd1160bd	-0.035492647
18	0xbbe855cc	-0.007090306
19	0xbde502cc	-0.11182174
20	0xbdbb1cc5	-0.09136347
21	0x3dcf49fc	0.10121533
22	0x3dd3b7af	0.10337769
23	0x3e6327d1	0.22183158
24	0xbe1fc986	-0.15604219
25	0x3d616ee6	0.0550374
26	0xbe21eac9	-0.1581222
27	0xbddaa346	-0.10675673
28	0x3e1e51eb	0.15460937
29	0x3e155bb9	0.1458577
30	0xbdb69c8e	-0.08916579
31	0xbd3c4534	-0.045964435
32	0x3e510280	0.2041111
33	0x3cf3045b	0.029665163
34	0xbd62ce38	-0.055372447
35	0xbe2071f5	-0.15668471
36	0x3b81738a	0.003950541
37	0x3e227007	0.15863048
38	0xbdf2eee9	-0.11861975
39	0xbdd0881c	-0.10182211
40	0xbe2f6b27	-0.17130719
41	0xbdc4282e	-0.09577976
42	0xbe47812c	-0.19482869
43	0xbc920699	-0.017825412
44	0xbca49e16	-0.020094912
45	0x3d2af349	0.04173592
46	0xbc777d96	-0.015105626
47	0x3c2fe0ef	0.010734781
48	0xbd9f03ac	-0.07764372
49	0xbd3fd340	-0.046832323
50	0xbd895ef7	-0.06707566
51	0x3e08182d	0.13290472
52	0xbd8915a7	-0.06693583
53	0x3e06939f	0.1314225
54	0xbe32e89e	-0.17471549
55	0xbdddd034	-0.10830727
56	0xbdee402f	-0.11633336
57	0xbd0a9191	-0.03383023
58	0xbe2770b9	-0.16351594
59	0x3cd81d43	0.02638114
60	0x3c1a468f	0.009416237
61	0x3e45cd6f	0.19316648
62	0xbd959314	-0.073034436
63	0x3e442232	0.1915367
64	0xbe11f120	-0.14252138
65	0x3d34b11a	0.04411421
66	0xbcb06710	-0.021533519
67	0x3db2d3c4	0.08731797
68	0x3d6343c8	0.055484563
69	0x3cf78cab	0.030218443
70	0x3d994824	0.07484463
71	0xbd9a3d2e	-0.075312
72	0x3d8de70f	0.069288366
73	0x3dc92f9c	0.09823534
74	0xbd4f284a	-0.050575532
75	0x3d5ce9c1	0.053933863
76	0x3db0db85	0.0863562
77	0xbe0c77dd	-0.13717599
78	0x3d99cd79	0.07509894
79	0xbd188814	-0.03723915
80	0xbe4daddb	-0.20085852
81	0xbdef0633	-0.11671104
82	0xbe09d8e0	-0.13461637
83	0xbd9fec69	-0.078087635
84	0xbe74fc86	-0.23924455
85	0x3d92e626	0.071728036
86	0x3de62831	0.11238135
87	0xbc46b7e4	-0.012128804
88	0xbdf47bcd	-0.119376756
89	0xbe03ec21	-0.12883045
90	0xbcbe71be	-0.023247596
91	0xbc889fc1	-0.01667774
92	0x3ca03611	0.01955703
93	0x3e76f8f0	0.241184
94	0x3e760094	0.24023658
95	0x3e83df79	0.25756434
96	0x3e57ef0e	0.21087286
97	0xbc9574e6	-0.018244218
98	0x3d215c11	0.039394442
99	0xbbbd3c0b	-0.00577498
100	0xbd740337	-0.05957338
101	0x3e09f444	0.13472086
102	0xbe0d231a	-0.13782921
103	0xbda76571	-0.08173645
104	0xbcb9194c	-0.02259507
105	0x3dea02b1	0.114262946
106	0x3d088fcf	0.03334027
107	0xbd7f49d6	-0.062326275
108	0xbd71c994	-0.05903013
109	0xbdd6cbd9	-0.104880996
110	0xbde94214	-0.113895565
111	0x3e13cf3f	0.14434527
112	0x3b04d5be	0.0020269002
113	0xbdc9a974	-0.09846774
114	0x3dc10327	0.094244294
115	0x3d377bee	0.044795923
116	0xbc7af0fd	-0.015316245
117	0x3da6317b	0.081149064
118	0xbb87f15c	-0.0041486453
119	0xbe0a9e04	-0.1353684
120	0xbd657777	-0.056022134
121	0x3e2e8104	0.17041403
122	0x3d9b651a	0.07587643
123	0xbdb38a01	-0.087665565
124	0xbd921d47	-0.071344905
125	0xbe08cb73	-0.1335886
126	0x3a2a5f6b	0.0006499204
127	0x3c82766e	0.015925612
128	0x3e1a99a5	0.15097673
129	0x3c2f0f3a	0.010684783
130	0xbe23b40e	-0.15986654
131	0x3d325407	0.043537166
132	0xbdba0936	-0.09083788
133	0x3dda3381	0.10654355
134	0xbe28bbf3	-0.16477947
135	0x3e1d4bf7	0.1536101
136	0xbd2b5158	-0.041825622
137	0x3e2a5db7	0.16637312
138	0x3e00a14a	0.12561527
139	0x3e1f9d69	0.15587391
140	0x3c92dc62	0.017927352
141	0x3ddb05cf	0.10694467
142	0x3cd32b3d	0.025777454
143	0x3d2edb38	0.042689532
144	0x3e2aa715	0.16665299
145	0xbde415e5	-0.111369886
146	0x3d2b1609	0.04176906
147	0x3e20247e	0.1563892
148	0xbcd4fca0	-0.025999367
149	0xbdf500b1	-0.119630225
150	0xbdd0328c	-0.10165891
151	0xbd4bb682	-0.0497346
152	0x3afc97e1	0.0019271338
153	0xbd73aa1b	-0.059488397
154	0xbdebd2c5	-0.115148105
155	0x3e1d0342	0.15333274
156	0xbd9378dd	-0.07200787
157	0x3dd136d7	0.10215538
158	0xbe30afb0	-0.1725452
159	0x3dbebda6	0.09313516
160	0xb8e3df16	-0.000108657565
161	0xbde95abf	-0.113942616
162	0x3dd312ef	0.10306346
163	0xbde565af	-0.11201035
164	0xbe128e7e	-0.14312169
165	0xbdb7542b	-0.08951601
166	0x3dad1d8d	0.08452902
167	0x3d30d99c	0.04317628
168	0x3d873e1f	0.066036455
169	0x3dcd7416	0.10031907
170	0x3ce132ae	0.027489986
171	0xbded3442	-0.11582233
172	0xbd936cb5	-0.071984686
173	0xbd85d89a	-0.06535454
174	0x3da43c7c	0.08019349
175	0x3d62079e	0.055183046
176	0xbd1e9a52	-0.03872139
177	0xbda7eaf0	-0.08199108
178	0xbd0d268b	-0.034460586
179	0xbde23e53	-0.11047044
180	0xbdf5b287	-0.11996942
181	0xbd3a610a	-0.0455027
182	0xbe32677b	-0.17422287
183	0xbb3a2e78	-0.0028409045
184	0xbceab0ef	-0.028648822
185	0x3da48b67	0.080344014
186	0xbe176671	-0.14785172
187	0xbde6d801	-0.11271668
188	0x3b190c43	0.0023353256
189	0x3d6da47d	0.058018196
190	0x3dafb1b1	0.08578814
191	0x3e30d7c9	0.17269816
192	0xbe2d8f28	-0.16949141
193	0x3dce6edf	0.10079741
194	0x3db4826a	0.08813937
195	0xbe1a9127	-0.15094434
196	0x3dee06a3	0.116223596
197	0x3d7ff8be	0.06249308
198	0x3e079ba9	0.13242973
199	0x3e16fd8d	0.1474516
200	0x3dbb2aae	0.09139
201	0xbd8a9b3e	-0.06767891
202	0xbc422289	-0.011849054
203	0xbc4d36e3	-0.012525293
204	0x3da136ee	0.07871805
205	0xbd35f7a1	-0.04442561
206	0x3dc14560	0.0943706
207	0x3d96a433	0.07355537
208	0xbe0fd3ec	-0.14045686
209	0x3ded3eae	0.11584221
210	0x3d90d8ae	0.07072578
211	0xbe0480c9	-0.12939753
212	0xbde2bd93	-0.11071315
213	0xbe16c4bd	-0.14723487
214	0xbd3947fc	-0.045234665
215	0xbd85570e	-0.06510745
216	0xbc013a28	-0.007887401
217	0x3e0a4d28	0.13505995
218	0x3d885f11	0.066587575
219	0xbbb3bee5	-0.005485403
220	0xbe06efb1	-0.13177373
221	0x3c3f44f3	0.011674154
222	0x3dde96ed	0.108686306
223	0x3d8de09b	0.06927606
224	0x3d0221ad	0.031770397
225	0xbe01f990	-0.12692857
226	0x3d8e4e0c	0.0694848
227	0xbd9fcdbb	-0.07802912
228	0x3d79c784	0.06098129
229	0x3cf7afed	0.030235255
230	0xbe19f429	-0.15034546
231	0x3c151b53	0.009100753
232	0x3d513380	0.051074505
233	0x3bb1f145	0.005430373
234	0xbd1f08b4	-0.03882666
235	0xbaa2ac74	-0.0012411014
236	0xbe329e5a	-0.17443219
237	0x3de2b98c	0.110705465
238	0x3e01997f	0.1265621
239	0x3e1305d8	0.14357698
240	0xba9d67a6	-0.0012009039
241	0xbcbb7191	-0.022881301
242	0x3e4d8588	0.2007047
243	0x3e2eadd4	0.17058498
244	0xbcf62c30	-0.030050367
245	0x3e023f34	0.12719423
246	0x3c04c325	0.008103167
247	0x3ceddefc	0.029036991
248	0xbd82764f	-0.06370222
249	0xbcf5026a	-0.029908378
250	0xbd366572	-0.04453034
251	0x3c209aaf	0.009802504
252	0x3dc9dfdf	0.09857153
253	0x3dcc7e86	0.0998507
254	0xbd87cf9a	-0.06631394
255	0x3e137f9b	0.14404146

gru.weight_hh_l0 f4 [192, 64]
0	0x3b37ff12	0.0028075618
1	0x3e942d94	0.28941023
2	0x3dfd434e	0.12366353
3	0x3bec57d6	0.0072126193
4	0xbb95cee7	-0.004571784
5	0x3bf2b6f2	0.0074070627
6	0xbe072320	-0.13196993
7	0xbd3b317c	-0.04570149
8	0xbe45ac75	-0.19304068
9	0x3e009351	0.12556197
10	0x3ddfee17	0.10934084
11	0xbd69bbaf	-0.057063755
12	0x3d83b9aa	0.06431897
13	0x3d9f0477	0.077645235
14	0xbd992b22	-0.0747893
15	0x3da260cc	0.07928619
16	0x3df221e7	0.118228726
17	0x3a8bc088	0.0010662237
18	0x3c5c3e00	0.013442516
19	0x3cc0299b	0.023457339
20	0xbbecbaa1	-0.0072243963
21	0x3d942234	0.07233086
22	0xbcb882c2	-0.022523288
23	0xbdf95cac	-0.12175879
24	0xbde7ddc1	-0.11321593
25	0xbbb9e6ef	-0.0056732814
26	0x3cd8fd20	0.026487887
27	0x3dc9a651	0.098461755
28	0xbc0e1319	-0.008671545
29	0xb9f3a3d6	-0.0004647064
30	0xba028b39	-0.0004979852
31	0x3cfbaeef	0.030723063
32	0xbdfdaa28	-0.1238597
33	0x3e0d8685	0.13820846
34	0x3dbc199a	0.091845706
35	0xbd3fd226	-0.046831273
36	0xbd7a11cf	-0.06105214
37	0x39d31f26	0.00040268264
38	0x3d0577d9	0.032585
39	0xbe1a944e	-0.15095636
40	0x3c11656d	0.008874279
41	0xbd01896e	-0.031625204
42	0xbca740d2	-0.02041665
43	0x3d81e74e	0.06342946
44	0x3d99c794	0.0750877
45	0x3adb0354	0.0016709366
46	0x3cc94aa5	0.024571726
47	0xbd8e1e0d	-0.069393255
48	0x3dd6b80e	0.104843244
49	0x3e3ae66e	0.18251964
50	0x3dc90c39	0.098167844
51	0xbc644a43	-0.013933721
52	0x3d8f0f9b	0.069853984
53	0xbd86c6de	-0.065809
54	0x3d584f2f	0.05280989
55	0x3d91c4e8	0.07117635
56	0x3c7838a7	0.015150226
57	0x3d5315ef	0.05153459
58	0xbdbc11f9	-0.091831155
59	0xbd73c3d7	-0.05951294
60	0x3df9e97b	0.12202736
61	0xbe255af6	-0.1614798
62	0xbd54900c	-0.051895186
63	0x3e37ee42	0.17961982
64	0x3b0bfacd	0.0021359206
65	0xbd0ae5db	-0.033910614
66	0xbc4717fa	-0.012151713
67	0xbd96ead9	-0.073690124
68	0x3d263bc4	0.04058434
69	0xbdf753b9	-0.12076516
70	0x3c9638cc	0.01833763
71	0xbba6f220	-0.0050947815
72	0x3c49e320	0.012322217
73	0xbc7eafae	-0.015544815
74	0x3d9096db	0.070600234
75	0x3d1cc56f	0.038274225
76	0x3c86db78	0.016462073
77	0x3e834510	0.25638628
78	0x3ada5d75	0.0016659932
79	0xbb9fda03	-0.004878284
80	0xbdb8f62d	-0.09031329
81	0xbc6a21c0	-0.014290273
82	0x3d2e7b3e	0.042598
83	0x3dc4c95f	0.09608721
84	0xbd8f8242	-0.070072666
85	0x3cd0b392	0.02547625
86	0x3cb0c1e3	0.021576827
87	0x3da2bbf2	0.07946004
88	0xbd65ea62	-0.056131728
89	0xbdb67932	-0.08909835
90	0xbda35393	-0.07974925
91	0xbd6768a2	-0.05649627
92	0xbd55be95	-0.052183706
93	0xbcd58a25	-0.026066849
94	0xbd5a41fb	-0.05328558
95	0x3d95dc43	0.07317402
96	0xbd900e31	-0.07033957
97	0x3cbaaf3e	0.02278864
98	0xbc2323d4	-0.009957273
99	0xbe18e21d	-0.14930005
100	0x3dc5306b	0.096283756
101	0x3da341aa	0.07971509
102	0x3ddb605f	0.10711741
103	0x3d46ea98	0.04856357
104	0x3cbbb2b6	0.022912364
105	0x3bddcc6d	0.006768754
106	0xbce46b75	-0.02788327
107	0xbda6d938	-0.081469
108	0xbc91a455	-0.017778555
109	0x3c19ae2a	0.009379903
110	0x3dec4a35	0.11537591
111	0xbe11c315	-0.14234574
112	0x3d767f4d	0.060179997
113	0xbd3ee956	-0.046609245
114	0x3d2cd526	0.04219546
115	0xbd9278e6	-0.07151966
116	0x3a02c942	0.0004989096
117	0xbe18938b	-0.14900033
118	0xbbe3acb2	-0.006948077
119	0xbd8336ec	-0.0640696
120	0xbda14a3a	-0.07875486
121	0x3dbbc7f4	0.091689974
122	0xbe058db7	-0.13042341
123	0xbe336490	-0.1751883
124	0xbd30b137	-0.043137755
125	0x3cf7143f	0.030161021
126	0xbd761d3f	-0.060086485
127	0x3db9a045	0.09063772
128	0xbc5a25ac	-0.013314646
129	0x3d90fdca	0.070796564
130	0x3d3a30bc	0.045456633
131	0x3d2aa401	0.041660313
132	0xb9b40105	-0.00034333035
133	0xbe20ef25	-0.15716226
134	0x3d8505fa	0.064952806
135	0xbdaa0719	-0.08302135
136	0xbd28b864	-0.041191474
137	0xbdb562a5	-0.088567056
138	0xbcf380bb	-0.02972447
139	0x3d041fc1	0.032256845
140	0xbd0860c3	-0.033295404
141	0x3db48dd6	0.088161156
142	0xbda21de4	-0.079158574
143	0xbdcd4b52	-0.10024132
144	0xbcad5eba	-0.021163333
145	0xbce8583b	-0.028362384
146	0xbb8c0d9c	-0.0042740833
147	0x3d42e2bc	0.047579512
148	0xbd906615	-0.070507206
149	0x3da9f33a	0.08298345
150	0xbe26c13d	-0.16284652
151	0xbccb99c7	-0.0248536
152	0x3dc1ed23	0.09469058
153	0xbde727df	-0.11286902
154	0x3cef9322	0.029244963
155	0x3d2b6ce1	0.041851882
156	0xbd10a307	-0.035311725
157	0xbcbbd65d	-0.022929365
158	0xbe33c43b	-0.17555325
159	0xbd8119e3	-0.063037656
160	0xbd96cfe6	-0.07363872
161	0x3cfafbad	0.030637586
162	0x3ce1ca28	0.027562216
163	0xbe05e2dc	-0.13074821
164	0x3ccdfdd3	0.025145447
165	0x3e104ef6	0.14092621
166	0x3c287297	0.010281227
167	0x3d9817f0	0.07426441
168	0xbc0c5d46	-0.00856716
169	0xbd4d0fe3	-0.05006398
170	0x3e3167b4	0.17324716
171	0x3d3ad221	0.04561055
172	0xbdf61078	-0.1201486
173	0x3b6ffa20	0.0036617592
174	0x3cc1eff2	0.023673985
175	0x3df486fe	0.1193981
176	0x3c9f811d	0.019470746
177	0x3db4b149	0.08822877
178	0xbd0f319c	-0.03495942
179	0xbd958ef1	-0.073026545
180	0xbc161acb	-0.009161661
181	0xbc41342e	-0.011792226
182	0x3d92e728	0.07172996
183	0xbde74874	-0.11293116
184	0xbe84208f	-0.2580609
185	0x3cd7bd90	0.026335508
186	0x3d5cec76	0.053936444
187	0x3e26e5c6	0.16298589
188	0x3cd592dd	0.026071006
189	0xbd3ca412	-0.046054907
190	0x3b95c1ec	0.0045702364
191	0x3e13c542	0.14430717
192	0x3d01aae2	0.031657107
193	0x3d831690	0.06400788
194	0x3d3dae3e	0.04630875
195	0x3bb12f59	0.0054072556
196	0xbd8196f1	-0.06327618
197	0xbe04b5c3	-0.12959962
198	0x3cbd4c4d	0.023107672
199	0xbdcd51b8	-0.10025352
200	0xbc0b1478	-0.008488767
201	0x3d862137	0.06549304
202	0x3d3d5cd6	0.046231113
203	0xbdb4c966	-0.08827476
204	0xbd915c4f	-0.070976846
205	0xbdb43d1a	-0.08800717
206	0xbc9a1e9d	-0.018813426
207	0x3dac94b5	0.08426801
208	0x3defcc97	0.11708944
209	0xbe0b78b0	-0.13620257
210	0x3d84f093	0.064911984
211	0x3cb3a98e	0.021931436
212	0xbd085e85	-0.033293266
213	0x3d228f4b	0.039687436
214	0xbd8505cf	-0.064952485
215	0x3d841869	0.06449968
216	0xbde0cce6	-0.10976581
217	0x3d39ba6a	0.045343794
218	0xbdcf14d6	-0.10111396
219	0x3e1a4285	0.15064438
220	0xbd68f688	-0.056875736
221	0xbc8bb349	-0.017053263
222	0x3c1acfef	0.009448989
223	0x3dd1f96e	0.10252653
224	0xbd64935f	-0.055804607
225	0xba9fb1bc	-0.0012183706
226	0x3d121bd3	0.035671066
227	0xbd8aba27	-0.06773787
228	0x3d3669b0	0.044534385
229	0x3d95a695	0.073071636
230	0xbc9e666e	-0.019335952
231	0x3ce3ccca	0.027807612
232	0x3b693073	0.0035581857
233	0xbd9fdf2e	-0.0780624
234	0xbe0c3701	-0.13692857
235	0x3d60706a	0.054794706
236	0x3d8fef7f	0.07028102
237	0xbd9e81b0	-0.0773958
238	0xbcbaef04	-0.02281905
239	0xbd22cbf5	-0.03974529
240	0x3d2d13dc	0.042255268
241	0xbd5ab9fa	-0.053400017
242	0x3d55f3ca	0.05223445
243	0x3e173fca	0.14770427
244	0x3d8a80ff	0.06762885
245	0xbb473404	-0.0030395994
246	0xbd1c503f	-0.038162466
247	0xbdd46b2a	-0.103720024
248	0xbcede244	-0.029038556
249	0x3d268692	0.04065568
250	0x3c364069	0.011123755
251	0xbd4be7f1	-0.049781743
252	0xbd57bc7f	-0.05267
253	0xbd9fb9f4	-0.077991396
254	0x3d7ab4c2	0.06120754
255	0xbdea434a	-0.114386156

gru.bias_ih_l0 f4 [192]
0	0x3c43e5e5	0.011956667
1	0x3cf63b9b	0.030057719
2	0xbb790327	-0.0037996264
3	0xbbd36d55	-0.0064522424
4	0x3d5a596c	0.053307936
5	0x3b4d9690	0.003137026
6	0xbbc295ea	-0.0059382813
7	0xbb2c1b43	-0.0026261366
8	0x3cb334e3	0.021875804
9	0x3cb05abf	0.021527646
10	0x3baae89f	0.005215719
11	0x3d18d5ae	0.037313156
12	0xbce66033	-0.028122043
13	0x3c84efaf	0.016227571
14	0x3af17fca	0.0018424925
15	0xbd1144a0	-0.035465837
16	0x3d1311f7	0.035905804
17	0xbc4fa78a	-0.012674222
18	0x3c42e571	0.011895523
19	0x3c8ef687	0.017451538
20	0xbcfaf76b	-0.030635556
21	0x3b9b621a	0.004741919
22	0xbca5418a	-0.020172853
23	0x3c8a413f	0.016876815
24	0x3ccaee04	0.024771698
25	0x39228c22	0.00015501727
26	0x3c83a20f	0.016068486
27	0xbc9516e3	-0.01819939
28	0x3c2a4c6c	0.010394197
29	0x3ce9bb41	0.028531672
30	0xbb265ad7	-0.0025383735
31	0x3bdd4ed7	0.006753783
32	0x3c63797e	0.013883946
33	0x3c453b7a	0.012038106
34	0x3c51edf5	0.012813081
35	0xbb1297c0	-0.0022368282
36	0x3a15d9d0	0.00057163555
37	0x3c92d002	0.017921451
38	0xbc3efe76	-0.011657348
39	0x3b96df43	0.0046042516
40	0x3c68bfc5	0.014205878
41	0x3d0384b0	0.032108963
42	0x3a6f7dee	0.00091358915
43	0xbcb832b7	-0.02248512
44	0x3bb455e6	0.005503404
45	0x3d36d36c	0.04463522
46	0x3c952014	0.018203773
47	0x3c810444	0.015749104
48	0x3c9d554a	0.019205708
49	0x38bd3697	9.0223904e-05
50	0x3d0b37a2	0.033988602
51	0x3b303ac3	0.0026890493
52	0x3c350c4a	0.011050293
53	0x3c44fa7c	0.012022611
54	0x3bc0f3d0	0.0058884397
55	0x3ca99419	0.020700501
56	0x3c7c70d9	0.015407764
57	0x3bd8e5f2	0.0066192085
58	0x3bdf18e4	0.006808387
59	0x3cac815f	0.021057783
60	0xbacbdce9	-0.0015553507
61	0x3b21eca9	0.002470771
62	0xbd0194b9	-0.031635974
63	0x3a7d1715	0.00096546236
64	0x3cc00779	0.023441063
65	0xbbee98f1	-0.0072814156
66	0xbd23af04	-0.03996183
67	0x3d3ee7e4	0.046607867
68	0xbc1dafb0	-0.009624407
69	0xbd2e380a	-0.04253391
70	0xbc78301b	-0.015148188
71	0x3c4549e1	0.01204154
72	0x3d30f331	0.043200675
73	0xbd10e7f6	-0.035377465
74	0xbd5fe445	-0.054661054
75	0xbd1bcec4	-0.038038984
76	0xbc953c82	-0.018217329
77	0x3cf4c53e	0.029879209
78	0x3b9416c6	0.0045193164
79	0xbd6424ba	-0.055699088
80	0x3af8224f	0.0018931123
81	0x3cc629cc	0.024189852
82	0x3d23d07a	0.03999374
83	0xbc7b2ca1	-0.015330465
84	0xbc0de242	-0.008659901
85	0xbbfbb11f	-0.0076810266
86	0xbc88f8bb	-0.016720166
87	0xbcd5c758	-0.026096031
88	0x3d3c08d8	0.04590687
89	0x3d16c5fa	0.0368099
90	0xbd048aa4	-0.03235878
91	0xbabf4462	-0.0014592523
92	0xbbe540aa	-0.006996234
93	0x3ca6d833	0.020366764
94	0x3caf3dd0	0.02139178
95	0xbcc9063e	-0.02453911
96	0x3b911552	0.0044275904
97	0x3b9dcbee	0.00481557
98	0x3d47b21d	0.048753846
99	0xbcc22794	-0.023700513
100	0xbcd5131c	-0.026010089
101	0xbd0acecf	-0.033888634
102	0xbc985764	-0.018596359
103	0xbc8c4551	-0.017122896
104	0xbcedc1f1	-0.029023143
105	0x3d4440cd	0.04791336
106	0xbc9bbe1e	-0.019011553
107	0x3d6b255e	0.057408683
108	0x3c0d846f	0.008637532
109	0xbc885766	-0.016643237
110	0xbc5fa972	-0.013651239
111	0x3b98acde	0.0046592792
112	0xbc4abb71	-0.012373791
113	0xbd0329db	-0.03202234
114	0xbcd4700d	-0.025932336
115	0xbc9cf2db	-0.019158771
116	0xba2097c3	-0.000612613
117	0xbcf62108	-0.030045047
118	0xbd01d461	-0.03169668
119	0x3cac57c5	0.021037946
120	0x3c9b7ca0	0.018980324
121	0x3cbabc7a	0.02279495
122	0x3ca6c43c	0.020357244
123	0xbd093a25	-0.033502717
124	0xbd7ce4da	-0.061741687
125	0x3a9c3f30	0.0011920687
126	0xbba11a4d	-0.0049164654
127	0xbbc0a23c	-0.005878715
128	0x3c3c9089	0.011509069
129	0xbb91e266	-0.0044520376
130	0x3c893088	0.016746774
131	0xbc2df3d7	-0.010617218
132	0x3b5341d1	0.0032235275
133	0x3ba8c8a1	0.00515087
134	0xbc161f3b	-0.009162719
135	0xbafe9722	-0.0019423703
136	0xbbbe2bda	-0.0058035674
137	0xbc5a2c3c	-0.01331621
138	0xbc03bd76	-0.0080407765
139	0x3c942786	0.018085252
140	0x3c8a4f98	0.016883656
141	0x3c034ec9	0.008014389
142	0xbc1160a4	-0.008873139
143	0x3b6a214f	0.003572542
144	0xbc790350	-0.015198544
145	0xbc7a66c5	-0.015283291
146	0x3a7ea519	0.00097139325
147	0xbca3d1f4	-0.019997574
148	0x3c367478	0.011136167
149	0xbc123d28	-0.008925714
150	0xbc1b6e53	-0.009486753
151	0xbb33835f	-0.0027391536
152	0xbcb242e5	-0.021760413
153	0xba28a702	-0.00064335775
154	0x3a3103a4	0.00067525567
155	0x3b538424	0.0032274807
156	0x3b9003e2	0.004394994
157	0xbb0d4159	-0.0021553843
158	0xbcc6a072	-0.024246428
159	0xbbd9f4d3	-0.0066515
160	0x3bfd402d	0.0077285976
161	0x3b9aa1df	0.0047190036
162	0xbbe632cf	-0.0070251
163	0x3b432819	0.0029778539
164	0x3c1395c2	0.009007873
165	0x3c249bc3	0.010046902
166	0x3b9bf88b	0.0047598532
167	0x3c2f507a	0.010700339
168	0xbacf1af4	-0.0015800879
169	0x3bc0c6e0	0.0058830827
170	0x3c5d02c2	0.013489427
171	0x3b20dd01	0.002454579
172	0xbb8e0884	-0.0043345112
173	0xbb85c157	-0.004081886
174	0x3cd20965	0.025639245
175	0x3c83376d	0.01601764
176	0xbbbfcff9	-0.0058536497
177	0xbc3d61a8	-0.011558928
178	0x3a5de086	0.00084639376
179	0xbc97a145	-0.018509516
180	0xbb5d993a	-0.0033813254
181	0xbc0ee800	-0.008722305
182	0x3c399b16	0.011328479
183	0x3c871035	0.01648722
184	0x3aaf6aa7	0.0013383225
185	0xbbdad957	-0.006678741
186	0xbc63086f	-0.013856991
187	0x3afa945f	0.0019117704
188	0xbaebdba1	-0.0017994532
189	0xba458dba	-0.00075360725
190	0xbc890e3b	-0.016730418
191	0xbc39adf5	-0.0113329785

gru.bias_hh_l0 f4 [192]
0	0x3c43e5e5	0.011956667
1	0x3cf63b9b	0.030057719
2	0xbb790327	-0.0037996264
3	0xbbd36d55	-0.0064522424
4	0x3d5a596c	0.053307936
5	0x3b4d9690	0.003137026
6	0xbbc295ea	-0.0059382813
7	0xbb2c1b43	-0.0026261366
8	0x3cb334e3	0.021875804
9	0x3cb05abf	0.021527646
10	0x3baae89f	0.005215719
11	0x3d18d5ae	0.037313156
12	0xbce66033	-0.028122043
13	0x3c84efaf	0.016227571
14	0x3af17fca	0.0018424925
15	0xbd1144a0	-0.035465837
16	0x3d1311f7	0.035905804
17	0xbc4fa78a	-0.012674222
18	0x3c42e571	0.011895523
19	0x3c8ef687	0.017451538
20	0xbcfaf76b	-0.030635556
21	0x3b9b621a	0.004741919
22	0xbca5418a	-0.020172853
23	0x3c8a413f	0.016876815
24	0x3ccaee04	0.024771698
25	0x39228c22	0.00015501727
26	0x3c83a20f	0.016068486
27	0xbc9516e3	-0.01819939
28	0x3c2a4c6c	0.010394197
29	0x3ce9bb41	0.028531672
30	0xbb265ad7	-0.0025383735
31	0x3bdd4ed7	0.006753783
32	0x3c63797e	0.013883946
33	0x3c453b7a	0.012038106
34	0x3c51edf5	0.012813081
35	0xbb1297c0	-0.0022368282
36	0x3a15d9d0	0.00057163555
37	0x3c92d002	0.017921451
38	0xbc3efe76	-0.011657348
39	0x3b96df43	0.0046042516
40	0x3c68bfc5	0.014205878
41	0x3d0384b0	0.032108963
42	0x3a6f7dee	0.00091358915
43	0xbcb832b7	-0.02248512
44	0x3bb455e6	0.005503404
45	0x3d36d36c	0.04463522
46	0x3c952014	0.018203773
47	0x3c810444	0.015749104
48	0x3c9d554a	0.019205708
49	0x38bd3697	9.0223904e-05
50	0x3d0b37a2	0.033988602
51	0x3b303ac3	0.0026890493
52	0x3c350c4a	0.011050293
53	0x3c44fa7c	0.012022611
54	0x3bc0f3d0	0.0058884397
55	0x3ca99419	0.020700501
56	0x3c7c70d9	0.015407764
57	0x3bd8e5f2	0.0066192085
58	0x3bdf18e4	0.006808387
59	0x3cac815f	0.021057783
60	0xbacbdce9	-0.0015553507
61	0x3b21eca9	0.002470771
62	0xbd0194b9	-0.031635974
63	0x3a7d1715	0.00096546236
64	0x3cc00779	0.023441063
65	0xbbee98f1	-0.0072814156
66	0xbd23af04	-0.03996183
67	0x3d3ee7e4	0.046607867
68	0xbc1dafb0	-0.009624407
69	0xbd2e380a	-0.04253391
70	0xbc78301b	-0.015148188
71	0x3c4549e1	0.01204154
72	0x3d30f331	0.043200675
73	0xbd10e7f6	-0.035377465
74	0xbd5fe445	-0.054661054
75	0xbd1bcec4	-0.038038984
76	0xbc953c82	-0.018217329
77	0x3cf4c53e	0.029879209
78	0x3b9416c6	0.0045193164
79	0xbd6424ba	-0.055699088
80	0x3af8224f	0.0018931123
81	0x3cc629cc	0.024189852
82	0x3d23d07a	0.03999374
83	0xbc7b2ca1	-0.015330465
84	0xbc0de242	-0.008659901
85	0xbbfbb11f	-0.0076810266
86	0xbc88f8bb	-0.016720166
87	0xbcd5c758	-0.026096031
88	0x3d3c08d8	0.04590687
89	0x3d16c5fa	0.0368099
90	0xbd048aa4	-0.03235878
91	0xbabf4462	-0.0014592523
92	0xbbe540aa	-0.006996234
93	0x3ca6d833	0.020366764
94	0x3caf3dd0	0.02139178
95	0xbcc9063e	-0.02453911
96	0x3b911552	0.0044275904
97	0x3b9dcbee	0.00481557
98	0x3d47b21d	0.048753846
99	0xbcc22794	-0.023700513
100	0xbcd5131c	-0.026010089
101	0xbd0acecf	-0.033888634
102	0xbc985764	-0.018596359
103	0xbc8c4551	-0.017122896
104	0xbcedc1f1	-0.029023143
105	0x3d4440cd	0.04791336
106	0xbc9bbe1e	-0.019011553
107	0x3d6b255e	0.057408683
108	0x3c0d846f	0.008637532
109	0xbc885766	-0.016643237
110	0xbc5fa972	-0.013651239
111	0x3b98acde	0.0046592792
112	0xbc4abb71	-0.012373791
113	0xbd0329db	-0.03202234
114	0xbcd4700d	-0.025932336
115	0xbc9cf2db	-0.019158771
116	0xba2097c3	-0.000612613
117	0xbcf62108	-0.030045047
118	0xbd01d461	-0.03169668
119	0x3cac57c5	0.021037946
120	0x3c9b7ca0	0.018980324
121	0x3cbabc7a	0.02279495
122	0x3ca6c43c	0.020357244
123	0xbd093a25	-0.033502717
124	0xbd7ce4da	-0.061741687
125	0x3a9c3f30	0.0011920687
126	0xbba11a4d	-0.0049164654
127	0xbbc0a23c	-0.005878715
128	0x3c640ccb	0.013919066
129	0xba7fa803	-0.0009752514
130	0x3c3e20c5	0.011604493
131	0xbc39a65d	-0.011331168
132	0x3c15397e	0.0091079455
133	0x3be50196	0.0069887144
134	0xbbf3e297	-0.007442783
135	0xba9e4e9a	-0.0012077868
136	0xbc13d26f	-0.009022339
137	0xbc79d82c	-0.015249293
138	0xbbfcd257	-0.007715504
139	0x3c94c402	0.01815987
140	0x3c211a7e	0.009832976
141	0x3bfaf951	0.0076591154
142	0xbc300810	-0.01074411
143	0x3bb7dc1f	0.0056109573
144	0xbc38b600	-0.011273861
145	0xbc42ec23	-0.01189712
146	0x3b15f017	0.00228787
147	0xbc9c7c1f	-0.019102154
148	0x3c0883ee	0.008332236
149	0xbc2c7777	-0.0105265295
150	0xbbcef91f	-0.0063163186
151	0xbb3f5fc9	-0.002920138
152	0xbcef828c	-0.029237054
153	0x3b69c139	0.0035668148
154	0xbb469d13	-0.0030306026
155	0x3b95de7c	0.0045736413
156	0x3b995b38	0.0046800636
157	0xbb82f4be	-0.0039964607
158	0xbcb5163f	-0.022105334
159	0xbb6a210a	-0.003572526
160	0x3be34f0f	0.0069369148
161	0x3bc94b80	0.0061430335
162	0xbc46eadc	-0.012140956
163	0x3c0b336f	0.008496149
164	0x3b8aa1c0	0.004230708
165	0x3c0664bf	0.008202731
166	0x3bc41440	0.0059838593
167	0x3c313745	0.0108164
168	0x3b2983b8	0.0025865864
169	0x3b426437	0.0029661783
170	0x3c7869f1	0.015161977
171	0x3aa1a63d	0.0012332868
172	0xbb8c7e27	-0.0042874995
173	0xbb305b77	-0.0026909986
174	0x3cb937bb	0.022609582
175	0x3c8cf8b0	0.017208427
176	0xbb9a25e1	-0.0047042225
177	0xbc415b96	-0.011801621
178	0xba6f1b62	-0.0009121207
179	0xbcb1bb34	-0.02169571
180	0xbb0e70d2	-0.0021734727
181	0xbc145945	-0.009054487
182	0x3c5a02c5	0.013306324
183	0x3c6002e1	0.013672561
184	0x3b3c1adf	0.002870254
185	0xbb7f7d28	-0.003898451
186	0xbc8a3490	-0.016870767
187	0xbb261f87	-0.0025348382
188	0xbb2e81f5	-0.0026627753
189	0xb84d6eb5	-4.8978913e-05
190	0xbc6df62e	-0.014524026
191	0xbc6aea3d	-0.014338073

gru.weight_ih_l0_reverse f4 [192, 21]
0	0xbe4a0479	-0.19728269
1	0xbe326f3d	-0.17425247
2	0xb92ef728	-0.00016686006
3	0x3d33e519	0.043919656
4	0xba2966c8	-0.0006462154
5	0xbd526758	-0.051368088
6	0xbe225b35	-0.15855105
7	0xbe21cdea	-0.15801206
8	0x3d364a80	0.044504642
9	0xbdbe40c9	-0.092897005
10	0xbdc1d389	-0.09464175
11	0xbd9f4a70	-0.0777787
12	0x3d865133	0.06558456
13	0x3dc78e21	0.09743906
14	0xbbdc048f	-0.0067144106
15	0xbe08d07e	-0.13360783
16	0xbe168ea7	-0.14702855
17	0x3c01d349	0.007923909
18	0x3c80a819	0.015705155
19	0xbc68cfa5	-0.014209663
20	0xbe2fdf51	-0.17175032
21	0xbcf207dd	-0.029544765
22	0x3e08017b	0.13281815
23	0x3dec55e2	0.11539818
24	0x3dbc9d5a	0.092097
25	0x3e2be4b7	0.16786467
26	0x3d9ed7a3	0.07755973
27	0x3daa9cfc	0.08330724
28	0xbd66cd6f	-0.05634826
29	0xbe2d09d5	-0.16898282
30	0xbd13879b	-0.036017995
31	0x3dc5115d	0.096224524
32	0xbde68543	-0.112558864
33	0xbceaa46d	-0.028642857
34	0xbcd82331	-0.026383968
35	0xbdedae0c	-0.116054624
36	0x3cced13b	0.025246253
37	0x3d9cef85	0.07662872
38	0x3e03aee6	0.12859687
39	0xbd599150	-0.053117096
40	0x3d18a2ec	0.03726475
41	0x3d5527f1	0.052040044
42	0x3df394e2	0.118936315
43	0x3d3eb742	0.046561487
44	0x3dbcda43	0.092213176
45	0xbd0a9fc7	-0.03384378
46	0xbdf7e964	-0.121050626
47	0xbd2fe01b	-0.042938333
48	0x3d12fabc	0.03588365
49	0x3dbfdaf4	0.09367934
50	0x3e210d89	0.1572782
51	0xbda4b01c	-0.08041403
52	0x3dca35f7	0.09873574
53	0x3dda27f7	0.10652154
54	0x3e00d656	0.12581763
55	0xbd0cb5fd	-0.034353245
56	0x3dc8554d	0.09781895
57	0xbe08cfd7	-0.13360535
58	0xbde64958	-0.11244458
59	0x3daafbe6	0.08348827
60	0xbdffe387	-0.12494569
61	0x3d2348fd	0.03986453
62	0xbdaec3ab	-0.085334145
63	0x3e1bfa94	0.15232307
64	0x3dd97d65	0.1061962
65	0xbe1ee13a	-0.15515605
66	0xbdd37a6d	-0.10326085
67	0xbdcfc28a	-0.10144527
68	0xbdba2e1a	-0.090908244
69	0xbe1a8d93	-0.15093069
70	0xbdaa6fe4	-0.08322123
71	0x3d2b72fe	0.041857712
72	0x3cd57643	0.026057368
73	0x3e06fc4f	0.13182186
74	0x3b03d858	0.0020117965
75	0x3d31cfaa	0.043410935
76	0xbdabd573	-0.083903216
77	0xbdb5034c	-0.088385195
78	0x3c02766d	0.007962805
79	0x3c87dbe5	0.016584346
80	0xbd2dee11	-0.042463366
81	0xbd0d6367	-0.034518626
82	0x3d1e3ade	0.03863036
83	0x3df07d93	0.117427014
84	0x3d89b38f	0.06723701
85	0xbe325040	-0.17413425
86	0xbe42e4c9	-0.19032587
87	0x3e1aa89a	0.15103379
88	0x3dd9fc59	0.106438346
89	0x3c5a2781	0.0133150825
90	0x3e2f08a2	0.17093137
91	0xbdde534e	-0.10855733
92	0x3e135e00	0.14391327
93	0xbddd88e1	-0.10817123
94	0xbd326588	-0.04355386
95	0xbe280533	-0.16408233
96	0x3db65f18	0.089048564
97	0xbd4f01a7	-0.050538685
98	0xbdd6c7df	-0.10487341
99	0x3d88829c	0.06665537
100	0x3d9bb2bd	0.07602451
101	0xbe2b4974	-0.16727239
102	0x3e237b25	0.15964945
103	0xbe392cf8	-0.1808356
104	0xbe10931a	-0.14118615
105	0xbdc3b35a	-0.09555693
106	0x3d6e0fad	0.05812042
107	0xbd8b6e91	-0.06808198
108	0x3e12ebd0	0.14347768
109	0x3e096701	0.13418199
110	0x3d6d3769	0.05791417
111	0x3df2f13b	0.11862417
112	0x3ddffe65	0.10937194
113	0x3cbbe5f3	0.022936797
114	0xbd9163ce	-0.07099114
115	0xbde1fb5f	-0.11034273
116	0x3e2c32a3	0.16816191
117	0xbd4ea327	-0.050448563
118	0x3daeab34	0.08528748
119	0x3d1d741b	0.038440805
120	0x3e0375bf	0.12837885
121	0xbdabbf21	-0.08386064
122	0xbbe4d916	-0.0069838865
123	0xbd62f294	-0.05540712
124	0xbe06c347	-0.1316043
125	0xbc5d9465	-0.01352415
126	0x3e09f71b	0.1347317
127	0xbe2abca4	-0.16673523
128	0xbd23c728	-0.039984852
129	0xbdfe1c30	-0.1240772
130	0xbe47576a	-0.1946694
131	0x3e1b76a9	0.15181984
132	0xbe35f975	-0.17770942
133	0xbd2d8013	-0.04235847
134	0x3e09efd3	0.13470392
135	0x3cc4875b	0.023990324
136	0x3e358b69	0.17728962
137	0xbe009e34	-0.1256035
138	0xbd34bbe2	-0.04412449
139	0xbe05da0f	-0.13071464
140	0x3e0d677c	0.13809007
141	0xbcffb8d6	-0.031216066
142	0x3dc7b5f3	0.09751501
143	0x3e0b3c2a	0.1359717
144	0xbe009525	-0.12556894
145	0xbc35f90a	-0.011106739
146	0x3de0d5a0	0.10978246
147	0xbd85603c	-0.06512496
148	0xbe0ac1aa	-0.1355044
149	0xbc3ad942	-0.011404337
150	0xbd08a366	-0.033358954
151	0x3dd016a2	0.10160567
152	0xbde85a22	-0.113453165
153	0x3b05bf2e	0.0020408141
154	0x3dc75255	0.097325005
155	0xbc19b779	-0.009382122
156	0xbe196c0b	-0.14982621
157	0x3da467b0	0.08027589
158	0xbdfc49c9	-0.12318761
159	0xbe07e9ea	-0.13272825
160	0x3cdaf60a	0.026728649
161	0x3defb551	0.11704505
162	0x3d5ba5f9	0.05362508
163	0x3e025239	0.12726678
164	0xbe19a25b	-0.1500334
165	0x3d087273	0.033312272
166	0x3dbc81d6	0.09204452
167	0x3d461cf0	0.04836744
168	0xbdb33c71	-0.08751763
169	0xbdce51c1	-0.10074187
170	0x3c01c6c7	0.007920927
171	0xbe06bac5	-0.13157184
172	0xbda9c1c1	-0.08288909
173	0xbd75def2	-0.06002707
174	0xbd4dcec5	-0.05024602
175	0x3c4c60a2	0.012474211
176	0xba5db020	-0.00084567256
177	0x3ba35902	0.004984976
178	0xbb202ca4	-0.002444067
179	0xbdc5fb80	-0.096671104
180	0xbe0174b2	-0.12642172
181	0xbe0d50c1	-0.13800336
182	0xbdad02cc	-0.08447799
183	0x3d1bf9ab	0.0380799
184	0xbb2c76d4	-0.0026315944
185	0xbdfcd350	-0.12344992
186	0xbc9f4f03	-0.019446855
187	0xbdab426a	-0.08362277
188	0xbc66e2a3	-0.01409212
189	0xbe48a12e	-0.19592735
190	0xbdb4877a	-0.088149026
191	0xbdb73ab4	-0.089467436
192	0x3dfc8053	0.123291634
193	0xbe174ec9	-0.14776148
194	0x3c81010b	0.015747568
195	0x3d7b1a2a	0.06130425
196	0xbe0bbd96	-0.1364654
197	0x3dce27d7	0.100661926
198	0x3e1e5bc1	0.15464689
199	0xbd2da906	-0.04239752
200	0xbe31948c	-0.17341822
201	0xbd9063d2	-0.07050289
202	0xbd9721c9	-0.07379491
203	0xbe38b57b	-0.1803798
204	0xbde75ca1	-0.112969644
205	0x3df29baf	0.118461005
206	0x3db137bf	0.08653211
207	0x3d907d75	0.07055179
208	0x3d82db2c	0.0638946
209	0xbc8af3b4	-0.01696191
210	0xbe0a281e	-0.13491866
211	0x3dafe483	0.08588507
212	0xbe02b8bc	-0.12765783
213	0x3d93cbec	0.072166294
214	0x3d3d07d4	0.046150044
215	0x3df33e20	0.11877084
216	0x3c18e599	0.009332084
217	0xbd1d72d7	-0.038439598
218	0x3e279d21	0.16368534
219	0xbd957ba8	-0.07298976
220	0x3e375d90	0.17906785
221	0xbc8ecd7c	-0.017431967
222	0x3e3e5ae7	0.18589364
223	0xbdb15fb0	-0.08660829
224	0xbe0bcb85	-0.13651855
225	0xbdc0ab96	-0.094077274
226	0x3d70a5b9	0.058751795
227	0x3d1c213c	0.038117632
228	0xbbd95bfa	-0.006633279
229	0xbddc6dd4	-0.107631356
230	0x3ddc660a	0.1076165
231	0x3d63292b	0.055459183
232	0x3dd30f06	0.103056
233	0x3e108438	0.14112937
234	0xbe502873	-0.2032793
235	0x3e11bc39	0.14231957
236	0xbd99500b	-0.0748597
237	0xbdc9e1f9	-0.09857554
238	0xbe0b7c6d	-0.13621683
239	0x3de377ac	0.1110681
240	0x3df7ca37	0.12099116
241	0xb9ae6e5c	-0.0003327009
242	0xbda72c27	-0.08162718
243	0x3dc22262	0.09479214
244	0x3d20d9b9	0.039270137
245	0xbe04d259	-0.12970866
246	0xbdbf9e84	-0.09356406
247	0xbd980b7b	-0.07424065
248	0xbd1b1f0d	-0.03787141
249	0x3d3cdd9a	0.046109773
250	0xbd288cd7	-0.04114994
251	0xbdf6a6cc	-0.12043533
252	0x3d7671b4	0.06016703
253	0xbe0945c0	-0.13405514
254	0xbe1d82fb	-0.15381996
255	0x3db799ce	0.08964883

gru.weight_hh_l0_reverse f4 [192, 64]
0	0x3d9f4451	0.07776702
1	0xbe00ecfe	-0.12590405
2	0x3dbb915b	0.09158584
3	0x3e0758d6	0.13217482
4	0x3dab6982	0.083697334
5	0x3da0025c	0.0781295
6	0x3c93fa91	0.018063815
7	0x3cfeea00	0.03111744
8	0xbd22b631	-0.039724533
9	0x3cb07d65	0.021544168
10	0x3cea24a1	0.02858192
11	0xbda96110	-0.08270466
12	0xbd8db3ac	-0.06919035
13	0x3d41ccd1	0.04731447
14	0x3d19a182	0.03750754
15	0xbcf2ade3	-0.029623931
16	0xbdd9d711	-0.10636724
17	0xbd4a18e4	-0.049340144
18	0x3e3c75d4	0.18404323
19	0x3db33ae3	0.08751466
20	0x3d123c7c	0.035702214
21	0xbce7627a	-0.0282452
22	0x3d72cae3	0.05927552
23	0xbd80a0eb	-0.06280693
24	0xbc93f1ff	-0.018059729
25	0x3df7eccf	0.121057145
26	0x3d9953b4	0.07486668
27	0xbd9f188d	-0.077683546
28	0xbe36b722	-0.17843297
29	0xbd86d859	-0.06584234
30	0x3db62fdf	0.088958494
31	0x3b97ff38	0.0046385787
32	0xbda9ce13	-0.08291259
33	0xbd6241ac	-0.05523841
34	0xbd9de7db	-0.077102385
35	0x3ca7fec5	0.020507226
36	0x3df61c00	0.12017059
37	0x3d7857d1	0.060630623
38	0x3dda8efa	0.10671802
39	0x3ce71d74	0.028212287
40	0x3b2ccc21	0.0026366787
41	0xbe0e3cb3	-0.13890342
42	0x3d81d201	0.06338883
43	0xbcf6d2dc	-0.030129842
44	0x3e3f7589	0.1869718
45	0xbd7158a7	-0.058922436
46	0x3d72e87f	0.059303757
47	0x3d80e465	0.06293563
48	0xbcf33d81	-0.029692413
49	0xbd2ed276	-0.04268118
50	0x3cbd5067	0.023109628
51	0x3d98a7d8	0.07453889
52	0xbdc84c8c	-0.09780225
53	0x3cff7465	0.03118343
54	0x3d541dd4	0.05178626
55	0x3ba073d2	0.0048966194
56	0x3d4348e4	0.047676936
57	0xbce71b8a	-0.028211374
58	0x3c0c62f5	0.008568515
59	0x3d565352	0.052325554
60	0xbdb6fe9c	-0.08935282
61	0x3cf9f487	0.030512108
62	0x3dfa6326	0.12225942
63	0xbd9705c8	-0.073741496
64	0xbd89ccf7	-0.06728547
65	0x3d970a67	0.07375031
66	0xbe3583a8	-0.17726004
67	0x3d9d0731	0.07667387
68	0x3d45494b	0.0481656
69	0x3d7a7aa9	0.061152134
70	0x3d36e675	0.044653375
71	0xbc94ec13	-0.018178975
72	0x3d2484d3	0.040165734
73	0x3df49810	0.11943066
74	0xbde73c10	-0.11290753
75	0xbd2f6d7c	-0.04282902
76	0x3d9c8a23	0.07643535
77	0xbd395d5d	-0.045255054
78	0x3d16cc88	0.03681615
79	0x3d702342	0.058627374
80	0x3c0c1cc8	0.008551784
81	0x3d09f921	0.033684853
82	0x3daea0d1	0.08526767
83	0x3da76079	0.081726976
84	0x3de84833	0.11341896
85	0x3da011b9	0.0781588
86	0x3d64cf8c	0.055861995
87	0x3ddf9949	0.10917909
88	0xbdcf16f6	-0.10111801
89	0xbb0e4696	-0.0021709553
90	0xbd86c906	-0.06581311
91	0x3e378364	0.17921215
92	0x3ddd8a36	0.10817377
93	0x3e32ce4b	0.17461507
94	0xbc24457d	-0.010026333
95	0xbd3ced93	-0.046125006
96	0xbde901bc	-0.11377284
97	0x3c9f2b01	0.019429686
98	0x3d2ddac0	0.042444944
99	0xbd3dbbc6	-0.046321653
100	0xbdad7d8d	-0.084712125
101	0xbe129c9b	-0.14317553
102	0xbcc1ccd9	-0.02365725
103	0xbd87575f	-0.066084616
104	0xbc7190f2	-0.01474403
105	0x3da64210	0.08118069
106	0xbdbe96ed	-0.093061306
107	0x3d52be89	0.05145124
108	0x3ce392ab	0.027779898
109	0xbd5c8a42	-0.05384279
110	0xbd33c5e6	-0.043889903
111	0x3ceec34c	0.02914586
112	0x3d6893e7	0.056781676
113	0x3da6ffbd	0.08154247
114	0xbcd614a3	-0.026132887
115	0x3d6d876e	0.057990484
116	0x3d1f7562	0.038930304
117	0xbb90a291	-0.0044139107
118	0x3ce971d3	0.028496658
119	0x3d369e60	0.044584632
120	0x3a05be3a	0.00051018933
121	0x3d9d3093	0.076752804
122	0x3bb6f82a	0.0055837827
123	0xbafb7c5b	-0.0019186841
124	0xbd1a9119	-0.037736032
125	0xbe108473	-0.14113025
126	0x3dd8e0de	0.10589765
127	0xbe02ede2	-0.12786058
128	0xbd087e5e	-0.03332364
129	0x3cb26a7a	0.021779288
130	0x3e1f60b3	0.15564232
131	0x3e23ea01	0.16007234
132	0x3e032ff1	0.12811257
133	0x3d5d9fea	0.054107584
134	0x3bed66fd	0.007244943
135	0x3c9fef1e	0.0195232
136	0xbdc10ece	-0.09426652
137	0xbccb5707	-0.024821771
138	0xbca35e30	-0.019942373
139	0x3d88b800	0.0667572
140	0x3e046a1e	0.12931105
141	0x3d9e6267	0.077336125
142	0x3e264cec	0.16240281
143	0x3ba113ea	0.004915704
144	0xbe238f89	-0.15972723
145	0x3daea244	0.085270435
146	0x3cbd7d46	0.023131024
147	0x3d8b9983	0.068163894
148	0xbce55653	-0.027995264
149	0xbb594bed	-0.0033156828
150	0x3dc6af78	0.09701437
151	0x3cd2c7ad	0.025729978
152	0x3d08bc64	0.03338279
153	0xbe1852de	-0.14875361
154	0x3db610d9	0.08889932
155	0x3a25ec1a	0.00063294324
156	0xbd740399	-0.059573743
157	0x3cf3bd1d	0.029753262
158	0x3d90b64d	0.07066021
159	0xbd055f47	-0.032561567
160	0xbdf086e3	-0.117444776
161	0xbda66486	-0.08124642
162	0xbd81cdf7	-0.06338113
163	0x3d889bc0	0.06670332
164	0xbde2a32d	-0.110662796
165	0xbc8bfd78	-0.017088637
166	0x3dece842	0.11567737
167	0x3cd649ab	0.026158174
168	0x3dc1e82d	0.09468112
169	0xbb92cb35	-0.0044797906
170	0xbd398ffd	-0.045303334
171	0x3dc51f9d	0.096251704
172	0x3d72a0f6	0.059235536
173	0x3c38f0c5	0.011287873
174	0xbd55cc8e	-0.05219703
175	0x3aa230d1	0.0012374168
176	0xbd7fe3a8	-0.06247297
177	0x3d8630a6	0.06552248
178	0x3cb552ab	0.022134146
179	0x3d7d8b4e	0.06190043
180	0xbd5417ce	-0.051780514
181	0xbdc88cba	-0.097924665
182	0xbd9aa4ea	-0.07550986
183	0x3c5b0dfa	0.0133700315
184	0x3de2d104	0.11075023
185	0x3e0057d3	0.12533502
186	0x3da493d0	0.080360055
187	0xbe071450	-0.13191342
188	0x3dc958d7	0.09831398
189	0x3bcfea09	0.006345038
190	0x3d10074f	0.03516322
191	0xba85fff9	-0.001022338
192	0xbdb07cdb	-0.08617564
193	0x3c832f8b	0.016013881
194	0x3e25a7a5	0.16177233
195	0x3c75a9e7	0.014994121
196	0x3d4e1532	0.050313182
197	0xbc1900ef	-0.0093386015
198	0x3e1c309b	0.15252917
199	0x3da41bfd	0.08013151
200	0x3e0cf7eb	0.13766448
201	0x3df57e60	0.11986995
202	0x3d7907c3	0.060798418
203	0x3e37c631	0.17946698
204	0xbbcc1f54	-0.0062293205
205	0x3d79cd6d	0.060986925
206	0xbd87f2d1	-0.066381104
207	0xbd0ef7f4	-0.034904435
208	0x3d447f06	0.0479727
209	0xbc30f043	-0.01079947
210	0x3d85143c	0.06498
211	0xbddbffe6	-0.10742168
212	0xbc32e086	-0.010917788
213	0x3de424ef	0.11139857
214	0x3b9471bb	0.0045301593
215	0x3d5a8694	0.053351
216	0x3bc181c4	0.005905362
217	0x3d884c73	0.066552065
218	0xbe2a4c24	-0.16630608
219	0xbd31a8da	-0.04337392
220	0x3c641bf1	0.013922677
221	0x3d1a00eb	0.03759853
222	0xbdd5a6ad	-0.104321815
223	0xbe03a47a	-0.12855712
224	0x389e0f28	7.53685e-05
225	0x3d2f649c	0.042820558
226	0x3c8ed251	0.017434271
227	0xbd218cc6	-0.039440893
228	0xbc205b64	-0.009787414
229	0x3d2bfe6a	0.041990675
230	0x3d5f3176	0.05449053
231	0x3c1b0119	0.009460711
232	0xbcec2118	-0.028824374
233	0x3d437e3c	0.04772781
234	0xbe0f30c3	-0.13983445
235	0xbb4d9330	-0.0031368248
236	0x3d3cfe5d	0.046141017
237	0xbd77bf5b	-0.060485225
238	0x3d0c1832	0.034202762
239	0x3d1e87f9	0.038703892
240	0xbda65202	-0.081211105
241	0xbdb95927	-0.090502076
242	0x3bd91397	0.0066246497
243	0xbbb5a479	-0.0055432883
244	0xbcd85725	-0.026408741
245	0xbd3c871a	-0.04602728
246	0xbc28c03f	-0.010299741
247	0x3dfb6ab0	0.122762084
248	0xbda2d974	-0.07951632
249	0x3dd50261	0.10400844
250	0xbc827e50	-0.015929371
251	0xbe16b71b	-0.14718287
252	0xbd1e9c60	-0.03872335
253	0x3cb4f1cb	0.022087952
254	0xbc11edd0	-0.008906797
255	0xbc522b37	-0.012827686

gru.bias_ih_l0_reverse f4 [192]
0	0x3cbebefb	0.023284426
1	0xbc42dba9	-0.011893191
2	0x3b97f38f	0.0046371887
3	0xbd3197f2	-0.043357797
4	0x3c78c04b	0.015182565
5	0x3c37bc32	0.011214303
6	0x3cf9f7f0	0.030513734
7	0xbb91a5ae	-0.0044447994
8	0xbbfcfe46	-0.0077207414
9	0x3d8feb5c	0.07027313
10	0x3d3237b5	0.043510158
11	0x3d24862d	0.040167022
12	0xbd393cdd	-0.04522406
13	0x3d1a5ab8	0.037684172
14	0xbc0b65a9	-0.008508124
15	0x3d427b80	0.04748106
16	0x3d3d541a	0.046222784
17	0x3cf7a3e6	0.03022952
18	0xbcb1a0a0	-0.021683037
19	0x3c6caa56	0.014444908
20	0x3c53f133	0.012935924
21	0xbbc68473	-0.0060582696
22	0xbb60ec75	-0.0034320627
23	0x3bb04728	0.0053795762
24	0xbcd45c70	-0.025922984
25	0xbc812e01	-0.015769007
26	0x3d0ce8ca	0.034401692
27	0x3cf69e69	0.030104833
28	0xbb893a55	-0.004187862
29	0xbc768eca	-0.015048692
30	0x3d044f5e	0.032302253
31	0x3d2a0550	0.041508973
32	0x3d36884d	0.04456358
33	0x3ca17765	0.019710252
34	0x3d11aeeb	0.035567205
35	0xbc008bf1	-0.007845865
36	0xbc120002	-0.008911135
37	0x3d61bad4	0.055109814
38	0xbd0d8d4f	-0.03455859
39	0x3c095a9e	0.008383421
40	0xbd057d46	-0.032590173
41	0x3c8c5caf	0.017134039
42	0xbd0f59b8	-0.03499767
43	0xbb43dcf6	-0.0029886342
44	0x3d7630f0	0.060105264
45	0x3c8beba8	0.017080143
46	0x3c934737	0.017978294
47	0x3b9d4b53	0.004800239
48	0x3d63e6f6	0.055640183
49	0x3d28103f	0.04103112
50	0x399bcfcc	0.00029718725
51	0x3cdc790c	0.026913188
52	0x3d0414a5	0.03224625
53	0x3d08ff59	0.033446644
54	0x3cd4598c	0.025921606
55	0xbb940746	-0.0045174686
56	0x3c521acb	0.012823771
57	0x3c67724d	0.0141263725
58	0x3c06d9a7	0.008230603
59	0x3bc314ad	0.0059533925
60	0x3d2f934f	0.042865094
61	0x3c32d6ae	0.010915441
62	0xba907067	-0.0011019827
63	0xbc2ea1c3	-0.010658684
64	0xbd0fecf4	-0.035138085
65	0x3d08a083	0.0333562
66	0xbd1ee1bc	-0.038789496
67	0xbd0fb917	-0.035088625
68	0xbcc2bbcd	-0.023771191
69	0xbc97fa9c	-0.018552117
70	0xbd33c540	-0.043889284
71	0xbc01b03b	-0.007915552
72	0x3c8cb01c	0.01717382
73	0x3c83e5d5	0.016100803
74	0xbc892938	-0.016743287
75	0xbccf561b	-0.025309613
76	0xbb38d1af	-0.0028201153
77	0xbd55372b	-0.052054565
78	0xbc42db6a	-0.011893133
79	0xbc8b4428	-0.017000273
80	0x3c5f24fa	0.013619656
81	0xbcde5858	-0.027141735
82	0xbbf858ed	-0.00757896
83	0x3c8462ff	0.016160486
84	0xbcddedb5	-0.027090887
85	0x3d18d116	0.037308775
86	0xbcd629fd	-0.026143068
87	0xbc8c21ec	-0.017106019
88	0x3cb13b07	0.021634592
89	0x3c22ec48	0.009944029
90	0x3d26ea50	0.0407508
91	0xbd5e4956	-0.054269157
92	0x3c8613ee	0.016366925
93	0xbc7c344e	-0.01539333
94	0x3d3058b7	0.043053355
95	0xbc88dccb	-0.016706845
96	0xbd89a622	-0.067211404
97	0xbbcd4a0b	-0.00626493
98	0x3c989f37	0.018630607
99	0xbc346fdc	-0.0110129975
100	0xbc68f55f	-0.014218657
101	0xbbc1c66b	-0.005913546
102	0x3b74f41d	0.0037376948
103	0xb9436ef8	-0.00018637988
104	0xbd0d39bb	-0.034478884
105	0x3c8a3d7f	0.016875027
106	0x3cbcdff4	0.023056008
107	0x3bbfa68c	0.0058487114
108	0xbd85bebe	-0.06530522
109	0xbc0d7f80	-0.008636355
110	0xbc58b934	-0.01322775
111	0xbcd29e59	-0.025710272
112	0x3cba9f0a	0.022780914
113	0xbc0204ce	-0.007935716
114	0xbc098fec	-0.00839613
115	0xbd18cdc9	-0.037305627
116	0x3b429cba	0.0029695467
117	0x3cb7e8b9	0.022449838
118	0xbc29faaa	-0.010374704
119	0x3c91e9a8	0.017811611
120	0x3c81a50f	0.015825776
121	0xbd3e1d1f	-0.04641449
122	0x3bad9ebc	0.0052984636
123	0x3bacff69	0.0052794707
124	0x3bd9063c	0.0066230576
125	0xbbf4bb30	-0.0074686036
126	0x3c86fc1d	0.016477639
127	0x3d46d14f	0.048539456
128	0x3b155d94	0.0022791373
129	0xbc013e8e	-0.007888449
130	0xbc14745f	-0.009060948
131	0xbbbbbcac	-0.0057292785
132	0x3b063efb	0.0020484317
133	0x3c12a542	0.008950533
134	0xb9fccc2e	-0.0004821731
135	0x3b58469a	0.0033001066
136	0x3b8f668c	0.004376238
137	0xbc85a607	-0.01631452
138	0xbc84aeb8	-0.016196594
139	0xbbf6f4ae	-0.0075364923
140	0xba08abf5	-0.0005213612
141	0xbb67f8b9	-0.0035396053
142	0xbb6e5578	-0.0036366861
143	0x3c0a804d	0.008453441
144	0xbc00d092	-0.007862227
145	0xb98a3a35	-0.0002636478
146	0xbc8df4fb	-0.01732873
147	0xbc5e449e	-0.013566164
148	0x3b286fda	0.0025701434
149	0x3c0b4d36	0.008502295
150	0x3b760c4c	0.003754395
151	0x3bf9672a	0.007611175
152	0xbcac0d02	-0.021002296
153	0xbbd45659	-0.00648002
154	0xbb8efe17	-0.004363786
155	0xbc0ac759	-0.00847038
156	0x39430a40	0.00018600468
157	0xbb77b5aa	-0.003779749
158	0xbba41775	-0.005007679
159	0xbc9435b4	-0.018092014
160	0xbba9a824	-0.0051775146
161	0xbc6a94f4	-0.01431774
162	0x3bcfdfb4	0.006343806
163	0x3b333958	0.0027347412
164	0xbc2d52ee	-0.010578854
165	0xbbb65573	-0.0055643856
166	0x3b36010e	0.0027771625
167	0x3c45d564	0.012074802
168	0x3c9c742b	0.019098362
169	0x3bbc2659	0.005741876
170	0xbc9bcb15	-0.019017735
171	0xba4225bb	-0.0007406135
172	0xba0e02e6	-0.0005417302
173	0x3c6ba6f0	0.014383063
174	0x3ac7da22	0.0015247504
175	0xbc5c8400	-0.013459206
176	0xbc90c7b8	-0.017673358
177	0x3be8c755	0.0071038404
178	0x3a964269	0.0011463884
179	0x399e75b7	0.00030223813
180	0x3bd415c8	0.006472323
181	0xbbdb97a0	-0.0067014247
182	0x3c1267c9	0.008935877
183	0x3b73919f	0.0037165654
184	0xbc841a77	-0.0161259
185	0x3b5a1734	0.003327799
186	0xb753bfef	-1.2621268e-05
187	0x3b54bd65	0.003246152
188	0x3bb2ce6e	0.0054567372
189	0xb9f84b16	-0.0004735819
190	0xbc676872	-0.014124023
191	0x3b717b0c	0.0036847023
