ckpt/model_lr_0.001_emb_8_hid_128_layers_1.pth (torch, 635090 bytes, 18 tensors)

class_embedding.weight f4 [8, 8]
00000000: 9179 05be 7d9d 76bc b3fa 82bd ef20 f33d
00000010: 2f9e afbc 4b72 393d 562d 4abd 831c 1ebd
00000020: eddf 5abc 1e5a bd3c f8dd e3bc 8fdc 043c
00000030: f4d7 00bd 332d 873b 96db 0cbd b3f0 1a3c
00000040: f9b2 3e3e b42b 7bbd d431 fa3d d34d 04be
00000050: 443a cc3d d2ef 69bd 07e0 153e f767 663c
00000060: fb6c 3d3d 55aa 88bc bc82 173c 1489 d1bd
00000070: 3331 e13a e7f1 6bbc 5439 643c 3656 e43c
00000080: dcbc 963d c843 6b3d 7013 6ebd 02d7 193e
00000090: 459b 8ebd 6675 953d 9d20 6fbd fd1c 7a3d
000000a0: 4b1b c43c 67ee 11bc 77a9 813b 2bf5 523d
000000b0: ea3c 5e3d e149 b83c 7909 0dbc d4e2 d0bc
000000c0: 85c5 b6bb 90e6 4bbd 6949 123d 06ee 07ba
000000d0: 324b bc3c f580 f3bc d477 383c fbbc d9bc
000000e0: a25c 99bb ee20 a0bb d52f 903c b55f 023c
000000f0: 1461 2cbc 5b6e b03b 99a8 f33b 4221 ff3b
-0.13034655 -0.015052197 -0.06395473 0.11871516 -0.021437733 0.045275014 -0.049359642 -0.03860141
-0.013359052 0.02311426 -0.027815804 0.008109226 -0.03145595 0.004125261 -0.0343891 0.009456801
0.1862296 -0.061320975 0.12216535 -0.12920313 0.09972051 -0.057113476 0.14636241 0.014062873
0.04624651 -0.016682783 0.009247478 -0.10231224 0.00171808 -0.014400936 0.013929684 0.02787314
0.07360241 0.057437688 -0.058124006 0.15023425 -0.06963209 0.072977826 -0.05838071 0.0610628
0.023938796 -0.008906937 0.0039569694 0.05150334 0.05425731 0.022496166 -0.0086082155 -0.025498785
-0.0055777454 -0.04978043 0.03571454 -0.00051853096 0.022985075 -0.029724577 0.011259038 -0.02657937
-0.004680232 -0.004886738 0.017600933 0.007957389 -0.010521192 0.005384249 0.00743587 0.007785947

class_counts_projection.weight f4 [8, 5]
00000000: 0115 89be ad88 393e c618 bcbd e840 103f
00000010: c5f7 2c3c 2d27 283f c79b a3bd 14a4 2abf
00000020: 984d b03e 3f54 18bf 89eb e03e df90 743d
00000030: aae2 e63e 77ff 7e3e 05e2 a5be ba35 253e
00000040: 465d babe 9c05 bf3e 98cb 4cbe 6e4b 1e3f
00000050: 4055 a8bd 8c17 9ebe 2e86 a9bb 298b 6f3e
00000060: e968 51be 315d fa3e 0164 bb3e 5d3e a43d
00000070: c85c dfbe a5f5 183f b4ab a5be 9833 263d
00000080: 6147 a3be 0126 b9bc dbcd 243f df9d 4e3c
00000090: a206 b33d cd3b e43e d9ef f8bd 98e8 bf3e
-0.26773837 0.18118544 -0.09184413 0.5634904 0.01055712 0.6568478 -0.079886965 -0.66656613
0.344342 -0.5950355 0.439297 0.059708472 0.45094806 0.2490214 -0.32399002 0.16133776
-0.36399287 0.37308967 -0.1999954 0.61833847 -0.08219385 -0.3087734 -0.005173466 0.23392929
-0.20450176 0.48899224 0.36599734 0.08019707 -0.43625474 0.59749824 -0.32357562 0.040576547
-0.31890395 -0.02260113 0.6437661 0.012610882 0.087414995 0.44576874 -0.12155122 0.37482142

class_counts_projection.bias f4 [8]
00000000: 2d6c 53bd c4e9 e63c 7f71 f0bc 777b 54bd
00000010: 6dfe aabc 5901 a53c 5fb8 cdbc 0267 3abd
-0.051616836 0.02818764 -0.029350994 -0.051875558 -0.020873273 0.020142244 -0.025112329 -0.045508392

layer_norm.weight f4 [21]
00000000: 2fc0 863f 1cef 833f bf11 863f 7fba 883f
00000010: 8840 853f 6cb5 813f dfdd 823f 3911 813f
00000020: 6a1e 823f 3650 8a3f ef5a 833f a8ba 863f
00000030: c2ce 823f 43b1 823f 7b0d 893f 5b76 813f
00000040: 177f 843f 0e48 803f 4d65 823f a34b 813f
00000050: 68dd 863f
1.05274 1.0307345 1.0474166 1.0681914 1.0410318 1.013349 1.022396 1.0083381
1.0165532 1.0805728 1.0262126 1.0525713 1.0219347 1.0210346 1.0707239 1.0114244
1.0351285 1.0021989 1.0187165 1.0101207 1.0536318

layer_norm.bias f4 [21]
00000000: 6c49 c13c fd10 8abc 3867 37bb 62fe db3c
00000010: 86ce e73b efd1 f53b cfd5 8c3b 6e6c 8c3b
00000020: 8094 e33b affd 8039 51bf 543c 5f07 97bc
00000030: bf50 5d3b 20b6 4c3c e615 1b3c a643 bfb9
00000040: 700f 223c a004 02bc eca8 6e3c 6cd1 2abb
00000050: 1aca 853a
0.02359458 -0.016853804 -0.0027985107 0.026854698 0.00707418 0.0075018327 0.004297949 0.0042853868
0.006945193 0.00024603072 0.0129850665 -0.018436132 0.0033770052 0.012494594 0.00946567 -0.0003648076
0.009891376 -0.007935673 0.014566641 -0.0026064767 0.0010207326

gru.weight_ih_l0 f4 [384, 21]
00000000: 820a dcbd c3bc 76bd 0e9d 1dbe 999a a43d
00000010: c867 b0bd c206 04bd 6323 5abd 0494 a23d
00000020: 6c26 d33c bbfa 073e 3080 063e 2a75 d53d
00000030: 2567 01bd f282 5abd 5ab4 1c3e 72c0 f73d
00000040: cf40 d93d 73ab 9cb9 631c 573d 1524 743d
00000050: 3fd0 2bbd 16b3 93bd 0ab7 c6bd 1675 06be
00000060: abbe 88bb 93ee b6bd b542 e53c dea2 eebd
00000070: 260d 9f3d a429 aabd 7b8b f53d 023b 733d
00000080: 48e7 b8bd 7d72 76bd 33ab 1e3d 00dd 95bd
00000090: c3b3 003c 33e2 283d 1532 eabb e802 273c
000000a0: 4768 f73d 1933 5ebc 5c64 0bbd 74b4 d4bd
000000b0: d21c 043d 98e8 2b3d 6567 09bd 8ef8 02bd
000000c0: 267a 613d c4be 36bd 83ca 803d e2e6 803d
000000d0: fba8 783d 36dd a93d 79cf 5ebc 5a90 edbd
000000e0: bc5f dbbd eaa3 aabd bbb8 ba3b c1d6 05bd
000000f0: ebea f43d 8899 bebd bb85 943d 455c b4bd
00000100: 98b1 8cbc 9e40 d5bd 2bc6 c5bd 13fb 91bb
00000110: 0c0b 03bd 86b9 e5bd 0cc4 1cbd 3d97 073e
00000120: a5ed d1bc 722f 79bd 2739 d6bd 3a95 a63d
00000130: a26b 7d3c 7b10 bbbd 1946 bc3d bc8c 4e3d
00000140: c9cd 9cbd 0cca d43d 45a0 06bc 0297 023c
00000150: 3043 013d 680c dcbd fcc4 90bd 57c2 60bc
00000160: ed8a b2bb aa4b e03d bf8d 363d 56fe cd3d
00000170: 74cd b5bd 05d8 023e c1f7 39bd 6c63 fe3d
00000180: 8ed0 8fbc f49d a7bd e331 e93d 0f45 b5bc
00000190: 2fde 3cbd 3efb 8fbd 633b c6bd caec d33d
000001a0: d965 15be a188 b4bd cba3 48bd c991 d1bc
000001b0: dd23 e9bd a0bb 12be 3bfa edbd 130b 95bd
000001c0: e967 dcbd 9bfe 043c 5cee 423e 2358 13be
000001d0: 7cd1 003c 9712 9b3d 1ab5 eebd f836 833d
000001e0: 0bf1 293e 06fa 013e af29 18bc f801 dc3d
000001f0: 9f48 6bbd b386 fd3d 0757 66bd b0ab 853c
00000200: f05f 17bd 92db 96bd a9e8 f7bd 6a8d 8bbc
00000210: acd0 8a3d 7a2d 513d fb85 aa3d 7c86 b43d
00000220: a507 debd ea0e e93d 8010 a63d ce9a 01be
00000230: 5682 9f3d 18bb 9b3b 1b71 a3bd 929c b23b
00000240: 68d7 ee3d 65fa c6bd 48af 9abb 9ac1 cc3d
00000250: 7649 233d 570e 0839 3350 fe3c a0d2 0e3c
00000260: 15a8 aebd 0e48 1c3d a276 c13d 4c92 053e
00000270: b649 0d3d 82bb 9ebd afe8 3e3d 6e77 37bd
00000280: f91a fd3c 4c74 40be 12e0 53bc a3ca 5d3d
00000290: 8a7b 1dbd 2269 af3c 6381 9f3d fd3a e23a
000002a0: 3cd3 2cbd 363f 323d 0018 743d 217e 893d
000002b0: 7c4a 203d c00e a0bd 5516 813d c0b8 91bd
000002c0: 16f5 713d d49f 703c 3ca2 cebd fd5f 923d
000002d0: 1fcd d83d 7df1 cdbd db97 12be ec23 e3bd
000002e0: 8f7b 103d 42a2 033d 13bd cbbd 9338 4fbc
000002f0: df7d 04bc b1c3 b9bc 3ee2 a1bd a692 e7bd
00000300: ee7b 0dbe 9d8a 31bd 1af0 7cbd 1282 a0bd
00000310: 94c3 ad3d 33c3 593c 5920 af3d eb82 cd3d
00000320: c412 743d 4907 243e 4aa9 23be d3d1 173d
00000330: 2e8d ae3d 34c5 d3bb 49f1 d83c c310 dc3d
00000340: 42ab 30be 5e7b 183d e558 f13c 00f7 7ebc
00000350: 141e 073d 1ba1 273e 7427 37bd b628 2fbd
00000360: 285b e5bc b7b5 87bd adaa 68bd 2a96 0f3e
00000370: aad6 e1bb 970f 9fbc df14 9c3c 612b e63d
00000380: 09ca 053c e42a 03bd 2c77 3ebd 3688 973c
00000390: 6455 85bd f09b ce3d 3202 9f3c 9d04 89bd
000003a0: bbb1 8ebd e5f9 8dbd 1e04 e7bc c89f 203c
000003b0: 9ea6 2b3b 8ae6 1d3d b5ad ccbd 1d65 e2bb
000003c0: b47a b13d 0c32 aa3d 268f b4bb 85f5 e33d
000003d0: 488d b0bd 42cb 00be 63da 2c3d fc6c 003e
000003e0: 44ff 9b3d ffb5 933c c138 213d 5279 343e
000003f0: 2648 5ebd c69f e3bd 7b68 29be e26a d9bd
-0.10744192 -0.06023861 -0.15391943 0.080373 -0.08613545 -0.032233007 -0.053256404 0.07938388
0.025775157 0.1327924 0.13134837 0.10422738 -0.031592507 -0.053347535 0.15303174 0.12097253
0.106080644 -0.00029882378 0.052517306 0.059604723 -0.041946646 -0.07211892 -0.09702881 -0.13130602
-0.00417312 -0.08932223 0.02798591 -0.11652158 0.0776618 -0.083087236 0.119894944 0.059382446
-0.090284884 -0.06016778 0.038737487 -0.07317543 0.0078553585 0.041231345 -0.0071470835 0.010193564
0.12080436 -0.013561987 -0.034031257 -0.10385981 0.032254048 0.041969866 -0.03354587 -0.03197532
0.05504813 -0.044615522 0.06288626 0.062940374 0.060708027 0.08294146 -0.01359927 -0.115997985
-0.10711619 -0.083320454 0.005698291 -0.03267551 0.119588695 -0.093066275 0.072520696 -0.088066615
-0.017174527 -0.104127154 -0.09656938 -0.004454979 -0.031992957 -0.112170264 -0.038272902 0.13241287
-0.025626013 -0.060836263 -0.1046012 0.081339315 0.015467556 -0.09134003 0.091930576 0.050427184
-0.07656438 0.103901 -0.008216922 0.007970573 0.031558216 -0.10744554 -0.07068822 -0.013718209
-0.00544869 0.10951932 0.044568773 0.10058276 -0.08877078 0.12777717 -0.045402292 0.12421307
-0.017555501 -0.08184424 0.11386468 -0.022127656 -0.04611033 -0.070303425 -0.09679296 0.10347898
-0.14589633 -0.088151224 -0.04898433 -0.025582211 -0.113837935 -0.14329386 -0.11619993 -0.07277503
-0.10762007 0.008117343 0.1903624 -0.1438909 0.007862445 0.07571905 -0.11655636 0.06406969
0.16595857 0.12693033 -0.009287282 0.10742563 -0.057442304 0.123792075 -0.05623534 0.016317219
-0.036956728 -0.073660985 -0.12104923 -0.017035205 0.06778082 0.05106876 0.08326336 0.08814713
-0.10841302 0.11379798 0.08108616 -0.1265671 0.077885315 0.004752528 -0.079805575 0.0054507935
0.11662179 -0.09715728 -0.004720602 0.09997864 0.03986498 0.00012975313 0.031044101 0.008717209
-0.08528153 0.038154654 0.094464555 0.13044089 0.034494124 -0.07750608 0.046608623 -0.04479163
0.03089665 -0.18794364 -0.0129318405 0.054148328 -0.038447894 0.021412436 0.077883504 0.0017260012
-0.042193636 0.043517314 0.0595932 0.0671351 0.039133534 -0.07815313 0.063030876 -0.071153164
0.059071623 0.0146865435 -0.100895375 0.071472146 0.10585999 -0.10055826 -0.14315741 -0.11090836
0.035274085 0.032137163 -0.099481724 -0.012647766 -0.008086651 -0.02267632 -0.079044804 -0.11307268
-0.13816807 -0.043345083 -0.061752416 -0.07837309 0.08484569 0.013291168 0.08551092 0.10034736
0.05958821 0.16018404 -0.15982547 0.03706534 0.08523022 -0.0064627174 0.026482241 0.107453845
-0.1725283 0.037227027 0.029461334 -0.015561819 0.03298767 0.1637005 -0.04471536 -0.042763434
-0.027997568 -0.06626456 -0.056803394 0.14022127 -0.006892045 -0.019416614 0.01905292 0.112387426
0.008165845 -0.032023326 -0.04650037 0.018497568 -0.065104276 0.100883365 0.019410226 -0.06690333
-0.06967493 -0.06932429 -0.028200205 0.00980372 0.002619184 0.038549937 -0.099940695 -0.0069090263
0.08665982 0.08310327 -0.0055102287 0.111308135 -0.08620697 -0.12577537 0.042200457 0.12541574
0.076170474 0.018031118 0.039360765 0.17624405 -0.054268025 -0.11114459 -0.16543762 -0.106160894

gru.weight_hh_l0 f4 [384, 128]
00000000: 1fe7 50bd f6a4 da3c a512 583c a92a e33d
00000010: f8a0 44bc cd53 80bd ed7e ddbd 9343 21bd
00000020: 2901 813d 824c 8a3d 4cbc 84bd c105 ad3d
00000030: 6a3b da3d a4c5 a9bb 6738 db3d 9133 eebd
00000040: 5ff7 9dbd 7412 213e 0f81 873d 29b6 4cbe
00000050: 08ab 13be 29da c93d 0693 503d c8fc d03d
00000060: d187 dc3d 057e ebbd d941 b6bd 03b6 d43c
00000070: 713f 1c3d c7c9 723d 4dcf 2bbd f198 6c3d
00000080: 0b3a 233d 1a24 613d 422a 893d 7625 8a3c
00000090: 4145 c0bd 245a 1bbb f68e eb3d 24bd 163d
000000a0: 8f53 d6bd a862 bebb f2e6 fe3d 669e 4ebe
000000b0: 2557 2ebd 24ce 6dbc 8b0f d23d 4616 68bd
000000c0: 979a e63d f4f8 be3d 35bb 09be 0084 00bd
000000d0: 6a51 563d ed80 833d 0d18 cebd 442f 923b
000000e0: 355a 90bc 0897 9ebd 3e1c 55bd 7c4a 09be
000000f0: 8ecc 6cbd abd2 c6bd 11e4 0abd c38d 3a3d
00000100: 5337 5b3d d629 cabb 81d6 023d a3ea 013e
00000110: 8dd4 a0bd 758f 0f3e a7a0 7f3d b97c 1c3a
00000120: d74b 633d 7ca5 443d c900 93bd c1c2 b1b9
00000130: 2db3 883c a2ff 91bd 4cf9 1b3d eb91 953d
00000140: 4641 bebd ab0a febc c67b 393b 938e d2bd
00000150: e887 c2bd a2b7 083e 0b8d d1bd aec8 0cbe
00000160: 3b8c 68bd 0cc0 483d a525 fdbc 6a23 14bc
00000170: 428b 3c3d 9535 9ebd d4b4 9ebc 3ff3 abbd
00000180: 167f 213d 0bd7 8f3d e8c0 053d 7239 9f3d
00000190: 0d2d c53d c3f0 0bbe daee 233c fdb9 4b3d
000001a0: 6875 9fbd 8697 2abd 1086 15be b4a4 703c
000001b0: 1ac0 09bc f823 973c ca0f 26bd 945d cdbd
000001c0: 665e 16bc 943c 1d3e 0c97 213d 296d 77bd
000001d0: 81c0 10bd 3f8d b03a 6c58 393d f4c9 563d
000001e0: f139 f6bc 5d55 a23d c47b 78bd c3e3 4c3d
000001f0: 5a86 bebc 8c8b dcbd e966 273d bd0f a4bd
00000200: 3727 56bd 924d 6dbc 79d1 133e e484 00bd
00000210: d643 b03c 7a5a 333d 54da 723d d6b2 acbd
00000220: bdd4 07bb df63 7c3d d6e6 dabc 1217 1fbd
00000230: 83d8 703d 3c90 913d a4cc 593c 56b1 d63c
00000240: 2b71 273d 507d 1c3e 7e73 8d3c 654e 58bd
00000250: acee babc a3d0 f8bb fce1 8a3d 54dd e03c
00000260: bf90 81bb 8071 453e 0c6b ad3d 238d 7e3b
00000270: 6a4f 0a3d 360a 23bd 30bc 85bb 9eb9 5abb
00000280: cbb7 b23a 5447 863d 023d 73bc b349 6cbd
00000290: 1129 56bc 9bae 8fbd 59ad b5bc ae46 16bc
000002a0: 4652 cebd 4012 9e3c 2ab8 af3c 194c 1ebe
000002b0: 9ebb a03d 8be1 0abe 1a99 f33a a831 af3b
000002c0: d5a5 66bc 4178 473d 5c4f bdbd 33db 423d
000002d0: 8a05 f43c 715f 00bd 9fb6 2ebd 676d 803d
000002e0: 282c 713d e4da 573b 41ef f9bd 09db 9fbd
000002f0: d199 333d 1781 f1bc aa59 a73c cd5a 483b
00000300: fd8c 7d3d 840d 833d f8c2 da3d c53e 453c
00000310: d28f 7bbd ac19 803d af5e 12bc 9b60 3ebb
00000320: 1bbc 1c3c 38e6 2f3d f76b ceba a6f3 fabc
00000330: 504f e0bc c1fa 573c 03d8 0f3d 9eee 33bd
00000340: 6c00 efbc 0b53 fd3b 5405 923c a333 203d
00000350: 71a3 28bd 0a15 933d 2334 17bd a270 d93c
00000360: 3c97 d1bd e095 f63c 33da bebd 104b 84bd
00000370: eb2e b33d dfe5 ec3c d836 07bd 2b21 f4bd
00000380: 5c92 1a3c 324d 8e3d 22e8 f23d eab4 d73a
00000390: 2ee5 683d a483 32bd fe6b f7bc 8638 a43c
000003a0: 7d1c a43d 58b2 b63c 53ae a53c 9453 373d
000003b0: bce2 b5bc 0060 a8bc d118 503d 20f2 5ebb
000003c0: c4ab a63d 9634 183d 66d8 0dbd 11c2 adbd
000003d0: 5cc5 61bd f6bb 073b 789c 7b3c fd2d 553d
000003e0: 936a aabc bdcc d63b af57 173d fd3a c83d
000003f0: 737e e9bc 9b63 b2bc 7624 2bbd afc4 703d
-0.051001664 0.026689988 0.013188039 0.11092121 -0.012001269 -0.06265984 -0.10815225 -0.039371084
0.062990494 0.06752874 -0.06481227 0.08448363 0.106558636 -0.0051810313 0.10704117 -0.11630929
-0.07713198 0.15729696 0.06616413 -0.19991364 -0.14420712 0.09856064 0.050921462 0.10204464
0.107680924 -0.11498646 -0.08899278 0.025965696 0.03814644 0.05927446 -0.041945744 0.057763044
0.039850276 0.05496607 0.06697513 0.016863566 -0.09388209 -0.002370485 0.11501877 0.036801472
-0.10465156 -0.0058101006 0.12446393 -0.20177612 -0.042563576 -0.01451448 0.10256871 -0.056661867
0.112599544 0.09324828 -0.1345032 -0.031375885 0.052323736 0.06421075 -0.10063181 0.004461201
-0.017621139 -0.07743651 -0.052028887 -0.1340732 -0.057812266 -0.097081505 -0.033908907 0.04554535
0.05351956 -0.006169538 0.031942848 0.12687163 -0.07853041 0.14019568 0.06240907 0.0005969513
0.05549225 0.04800938 -0.07177884 -0.00033905174 0.016687 -0.07128836 0.038079545 0.07303222
-0.09289794 -0.031010946 0.0028302534 -0.102811 -0.09498578 0.133513 -0.1023198 -0.13748428
-0.05677436 0.049011275 -0.03090174 -0.0090416465 0.046031244 -0.07725064 -0.019373335 -0.08396005
0.03942784 0.07023438 0.032654673 0.07774629 0.096277334 -0.13666062 0.010005677 0.04973792
-0.07786065 -0.04164841 -0.14601922 0.014687706 -0.008407617 0.018449768 -0.0405424 -0.10027614
-0.00917778 0.1535514 0.03945069 -0.060406838 -0.035339836 0.0013469829 0.04525034 0.05243869
-0.030056925 0.07926438 -0.060664907 0.050021898 -0.023257423 -0.10768804 0.040869627 -0.08010814
-0.052283492 -0.014483826 0.14435376 -0.031376734 0.021516722 0.043787457 0.059290245 -0.08432548
-0.0020726167 0.061618682 -0.0267214 -0.03884036 0.05880023 0.07107589 0.013293419 0.026207607
0.04087941 0.15282178 0.017266985 -0.052809138 -0.022818886 -0.007593231 0.06781384 0.027449287
-0.0039540227 0.19281578 0.08467683 0.0038841448 0.03376714 -0.03980466 -0.0040812716 -0.0033374797
0.0013635097 0.065565735 -0.014846088 -0.057687473 -0.013071314 -0.07015725 -0.022177385 -0.009172125
-0.10074286 0.019295812 0.021450121 -0.15458716 0.07848285 -0.135626 0.0018585057 0.0053464957
-0.014077623 0.048698667 -0.09243652 0.047572326 0.029787797 -0.03134102 -0.04265463 0.06270867
0.05888 0.0032936865 -0.12203837 -0.078054495 0.043847863 -0.0294805 0.020428497 0.00305717
0.061902035 0.06399062 0.106817186 0.012038891 -0.061416455 0.062548965 -0.008933707 -0.002904928
0.009566332 0.042944163 -0.0015748729 -0.030633759 -0.02738157 0.013182343 0.035118114 -0.043928735
-0.029175006 0.0077308468 0.017824806 0.039111745 -0.041171495 0.07181747 -0.036914956 0.026542965
-0.10233924 0.030100763 -0.09318962 -0.064596295 0.08749183 0.028918205 -0.033011287 -0.11920389
0.009434309 0.069483176 0.11860682 0.0016457115 0.056859188 -0.043582574 -0.030202862 0.020046484
0.08013246 0.022301838 0.020224726 0.04475744 -0.022202842 -0.020553589 0.050804917 -0.003401883
0.081382304 0.037159525 -0.0346302 -0.08484281 -0.055119857 0.0020711399 0.015357129 0.05204581
-0.020802772 0.0065551684 0.036948856 0.09776876 -0.028502678 -0.021776011 -0.04178282 0.058781322

gru.bias_ih_l0 f4 [384]
00000000: 9da7 e93c fd0a 143c 65d9 933b 9594 953c
00000010: 9d9f 35bc 1ab0 9e3c 74db d23c 0214 bc3c
00000020: b1fb d23b d0a5 0b3d 8668 873c 905f b83c
00000030: e0dc aa3c e0ef 053d df26 23bc 30e1 043b
00000040: c76e bdbc c423 a7bc abd5 153c fa3c f63c
00000050: 5d3b d53a a2b5 f53c 7405 993c 5684 ba3b
00000060: bac5 2b3c 97ff 963c cee0 013d e0fc 93bb
00000070: 775e b63c f69c b93b d8ea 423c b12b ff3c
00000080: e47b f53a e95d a23c ca8e 3f3c 616c ce3c
00000090: 4f39 ad3c d3a5 de3c c4f6 d63c 00d7 fd3b
000000a0: 816b 7d3c 69a6 d43c 205d 4dbb 1a24 f43c
000000b0: 818f 0a3d 895e dc3c 5fe0 933c 8b88 3dba
000000c0: 5b80 0dbc b8cc f03a f349 023d 4673 303c
000000d0: 8ac9 bd3c 6dc0 9f3c b441 c2bc 3926 fc3c
000000e0: aaf9 8cbc 080f 8a3c 8ba4 ad3c bd98 f1bb
000000f0: 376e aa3c 166d 7abb 7062 f53c 1e4d d1ba
00000100: b6e5 543d a583 b9bc 8095 4abb db04 f63b
00000110: 4f9c bf3c 91cc 23bc ec9f 84ba 706a 903c
00000120: b379 2bbc 4aa7 9abc 8f2d 623c 4e64 04bd
00000130: 3492 423c c443 eb3a d6e2 d33c 90fe 3f3b
00000140: 8ee6 a83c 62e4 4dbc c610 103c d504 983c
00000150: bdbd c13c 7804 f7bb c36a a73c 6653 d63c
00000160: 9330 473c ec49 553c 3b12 023c 2fb2 ae3c
00000170: 0753 c33b df45 373d 2c49 42bb cf50 653c
00000180: 22e9 c7bb 94c7 3f3c 4b4b 823c 803d 4c3b
00000190: 766b 9a3c e60c 30bb 7ede 183d 3622 7f3c
000001a0: 098f f43b 44cb b53b a0ee ca3c af52 ca3c
000001b0: bb28 2e3c 627c c93c 3839 903c 9e80 6dbb
000001c0: 3fa1 9a3c 3805 dc3c ecef e33b ab9c e83b
000001d0: 08c2 92bc c5ff 40bb c0e5 ecbb a521 8b3c
000001e0: ad46 6ebc 9d7d cc3c 88e9 4a3d 4429 573c
000001f0: 065f a7ba 7b6c 00bc 8c9c 353c fa79 e53c
00000200: f50f c3bc a8ab d3bc f76b 90bc ed2d 883a
00000210: 045b 213b 1dd2 e6bc d4a6 7dbb e9a6 0d3d
00000220: 8122 e03b d22f 3c3b 4ce1 0abd 4ab1 133d
00000230: 68d4 8bbc 2744 d73c 25d7 f83c 3b7c 963c
00000240: 4b6a 6b3b 331f 09bd 1b1a 6f3c 9b0c 64bd
00000250: 60f3 fdbc aedd 363c c0b9 9a39 765a 01bc
00000260: 00fc 17bb 7f66 013d 05a8 20bd e636 bd3c
00000270: 614d 6a3c fd6f 2b3d 1350 5ebc 70f3 c8bc
00000280: 0120 8abc 637d b1bc 0e4a 3b3c abd3 95bc
00000290: 56c9 78bc 18a9 45bd 23d9 5cbd 74cc 3abc
000002a0: f8c0 d5bc 2f5a 81bd 1365 88bc 7690 f13c
000002b0: f0f4 04bd 3d5d 1f3c f6a1 05bd 34ca 1dbd
000002c0: 706a 07bc 3f67 2fbd 2c37 81bd 3c68 38bc
000002d0: 074f 94ba b3e0 5abc c787 d23c fa30 273c
000002e0: 3af4 66ba cc58 30bc d73a 46bd 91bb 13be
000002f0: 0d6e 6fbc 4db2 0c3d 860f 96bd 1fb6 e03b
00000300: 5cbd 06bb 7651 e3bc b400 40bb bbcc 4ebc
00000310: 47cb ec3b 4deb 81bd 7c0d e83b 7fea 10bd
00000320: b485 5a3a d800 e43c 59d1 5dbc 7f08 9cbb
00000330: 0a3c 0fbc acaa 86bc d9bf 1aba c13f 083d
00000340: a628 fc3c 4088 ae3a 0c3d e8bb d40b 2bbd
00000350: 3fa9 64bb f90b d8bc 98f1 eebb 9476 8b3c
00000360: 5343 e7bc b65b a4bc 8555 4a3b fc0d 8fbc
00000370: 46b6 10bd 1641 b1bb f5cb 613c 8870 99bc
00000380: 4f95 a5bb 6b8d 0a3d 31df 18bd edca 8e3b
00000390: 2b37 2ebd bb2b 2cbd d01c 9538 2bf3 a3bc
000003a0: 047b 1d3b 6b63 4e3c 297f 8ebc 5867 2dbd
000003b0: 047e 2fbd 6904 13bc 9de0 873c fc11 56bc
000003c0: 399d 98bc d3f5 1e3c f307 e3bb b8ea f3bc
000003d0: ed34 ae3c 01d3 0d3c 6bcb 633a f3cd 483c
000003e0: 9f3e 663a edd3 1d3d 8dbd 0fbb 00c5 b5bc
000003f0: d1e8 443c 121c 8cbc bd38 013c 1df3 f4bc
0.028522307 0.009035823 0.0045119994 0.018259326 -0.011085418 0.019371081 0.025739409 0.02295876
0.0064386954 0.034093678 0.016529333 0.022506505 0.020857275 0.032699466 -0.009957998 0.0020275824
-0.023124112 -0.020402797 0.009145181 0.030058373 0.0016268302 0.029993836 0.018679358 0.005692045
0.010484153 0.018432422 0.03170853 -0.004516229 0.022261841 0.005664463 0.011896811 0.031148763
0.0018728939 0.01982017 0.011691758 0.025198163 0.02114549 0.02717868 0.026240714 0.0077465773
0.015467525 0.025958257 -0.0031336024 0.02980237 0.033828262 0.026900547 0.018051324 -0.00072301243
-0.008636559 0.0018371558 0.031808805 0.010769671 0.02316739 0.019500935 -0.02371297 0.030779945
-0.017208893 0.01685287 0.021196624 -0.007372944 0.020804508 -0.0038211993 0.029954165 -0.0015968417
0.051976882 -0.02264578 -0.0030911863 0.007507903 0.023389963 -0.009997503 -0.0010118461 0.017628878
-0.010466027 -0.018878598 0.013804807 -0.03232222 0.011875678 0.0017949273 0.025865 0.0029296018
0.02061775 -0.012566658 0.008793062 0.018556992 0.023650045 -0.0075383745 0.02043665 0.026162814
0.012157577 0.013018113 0.007938917 0.021325199 0.0059608254 0.04474437 -0.0029645665 0.013996317
-0.0061007896 0.011705298 0.015905043 0.0031164587 0.01885007 -0.0026863157 0.03732156 0.015572121
0.00746334 0.005547913 0.024771988 0.02469763 0.010629828 0.024595443 0.017605409 -0.0036239992
0.018875716 0.026857957 0.006956091 0.0070987544 -0.017914787 -0.0029449326 -0.007229537 0.016983816
-0.014543218 0.02496224 0.04953912 0.013132397 -0.0012769408 -0.007838364 0.011084687 0.028012265
-0.02381132 -0.025838688 -0.017629607 0.0010389664 0.00246209 -0.028176362 -0.0038704174 0.034583006
0.0068400507 0.0028715027 -0.033906266 0.036057748 -0.017069057 0.026277615 0.030376026 0.018369785
0.003592151 -0.03347702 0.014593626 -0.055676084 -0.03099984 0.011161251 0.00029511563 -0.007895103
-0.0023190975 0.03159189 -0.039222736 0.023097467 0.014300675 0.041854847 -0.013568896 -0.024530143
-0.016860964 -0.021666234 0.01143123 -0.018289408 -0.015184721 -0.048256963 -0.053918015 -0.0114012845
-0.026092991 -0.06316029 -0.016649758 0.02948783 -0.032460153 0.00972682 -0.03262516 -0.038522914
-0.008265123 -0.042823073 -0.06309351 -0.01125532 -0.0011315056 -0.0133592365 0.02569951 0.010204548
-0.00088101963 -0.010763358 -0.048395958 -0.1442702 -0.0146136405 0.03434973 -0.073271796 0.006857648
-0.0020559644 -0.027748805 -0.0029297294 -0.012622054 0.007226381 -0.06343708 0.0070816856 -0.035379883
0.00083359634 0.027832434 -0.013538682 -0.004761755 -0.008742342 -0.016438805 -0.00059032213 0.033263925
0.030781101 0.0013315752 -0.0070873555 -0.041759327 -0.0034890918 -0.026372897 -0.007291984 0.017024316
-0.028230345 -0.020063262 0.0030873728 -0.017462723 -0.03533008 -0.00540937 0.013781537 -0.018730417
-0.0050531994 0.033826273 -0.037322227 0.0043576867 -0.04253308 -0.042033892 7.1102404e-05 -0.020013412
0.0024029622 0.012596945 -0.017394619 -0.042334884 -0.042844787 -0.008973219 0.016586596 -0.013065811
-0.018629657 0.009702164 -0.006928438 -0.029775009 0.021265471 0.008656264 0.00086896744 0.012256133
0.0008783135 0.038532186 -0.002193305 -0.022188663 0.012018398 -0.017103229 0.007887063 -0.029901082

gru.bias_hh_l0 f4 [384]
00000000: 9da7 e93c fd0a 143c 65d9 933b 9594 953c
00000010: 9d9f 35bc 1ab0 9e3c 74db d23c 0214 bc3c
00000020: b1fb d23b d0a5 0b3d 8668 873c 905f b83c
00000030: e0dc aa3c e0ef 053d df26 23bc 30e1 043b
00000040: c76e bdbc c423 a7bc abd5 153c fa3c f63c
00000050: 5d3b d53a a2b5 f53c 7405 993c 5684 ba3b
00000060: bac5 2b3c 97ff 963c cee0 013d e0fc 93bb
00000070: 775e b63c f69c b93b d8ea 423c b12b ff3c
00000080: e47b f53a e95d a23c ca8e 3f3c 616c ce3c
00000090: 4f39 ad3c d3a5 de3c c4f6 d63c 00d7 fd3b
000000a0: 816b 7d3c 69a6 d43c 205d 4dbb 1a24 f43c
000000b0: 818f 0a3d 895e dc3c 5fe0 933c 8b88 3dba
000000c0: 5b80 0dbc b8cc f03a f349 023d 4673 303c
000000d0: 8ac9 bd3c 6dc0 9f3c b441 c2bc 3926 fc3c
000000e0: aaf9 8cbc 080f 8a3c 8ba4 ad3c bd98 f1bb
000000f0: 376e aa3c 166d 7abb 7062 f53c 1e4d d1ba
00000100: b6e5 543d a583 b9bc 8095 4abb db04 f63b
00000110: 4f9c bf3c 91cc 23bc ec9f 84ba 706a 903c
00000120: b379 2bbc 4aa7 9abc 8f2d 623c 4e64 04bd
00000130: 3492 423c c443 eb3a d6e2 d33c 90fe 3f3b
00000140: 8ee6 a83c 62e4 4dbc c610 103c d504 983c
00000150: bdbd c13c 7804 f7bb c36a a73c 6653 d63c
00000160: 9330 473c ec49 553c 3b12 023c 2fb2 ae3c
00000170: 0753 c33b df45 373d 2c49 42bb cf50 653c
00000180: 22e9 c7bb 94c7 3f3c 4b4b 823c 803d 4c3b
00000190: 766b 9a3c e60c 30bb 7ede 183d 3622 7f3c
000001a0: 098f f43b 44cb b53b a0ee ca3c af52 ca3c
000001b0: bb28 2e3c 627c c93c 3839 903c 9e80 6dbb
000001c0: 3fa1 9a3c 3805 dc3c ecef e33b ab9c e83b
000001d0: 08c2 92bc c5ff 40bb c0e5 ecbb a521 8b3c
000001e0: ad46 6ebc 9d7d cc3c 88e9 4a3d 4429 573c
000001f0: 065f a7ba 7b6c 00bc 8c9c 353c fa79 e53c
00000200: f50f c3bc a8ab d3bc f76b 90bc ed2d 883a
00000210: 045b 213b 1dd2 e6bc d4a6 7dbb e9a6 0d3d
00000220: 8122 e03b d22f 3c3b 4ce1 0abd 4ab1 133d
00000230: 68d4 8bbc 2744 d73c 25d7 f83c 3b7c 963c
00000240: 4b6a 6b3b 331f 09bd 1b1a 6f3c 9b0c 64bd
00000250: 60f3 fdbc aedd 363c c0b9 9a39 765a 01bc
00000260: 00fc 17bb 7f66 013d 05a8 20bd e636 bd3c
00000270: 614d 6a3c fd6f 2b3d 1350 5ebc 70f3 c8bc
00000280: 0120 8abc 637d b1bc 0e4a 3b3c abd3 95bc
00000290: 56c9 78bc 18a9 45bd 23d9 5cbd 74cc 3abc
000002a0: f8c0 d5bc 2f5a 81bd 1365 88bc 7690 f13c
000002b0: f0f4 04bd 3d5d 1f3c f6a1 05bd 34ca 1dbd
000002c0: 706a 07bc 3f67 2fbd 2c37 81bd 3c68 38bc
000002d0: 074f 94ba b3e0 5abc c787 d23c fa30 273c
000002e0: 3af4 66ba cc58 30bc d73a 46bd 91bb 13be
000002f0: 0d6e 6fbc 4db2 0c3d 860f 96bd 1fb6 e03b
00000300: 5cbd 06bb 7651 e3bc b400 40bb bbcc 4ebc
00000310: 47cb ec3b 4deb 81bd 7c0d e83b 7fea 10bd
00000320: b485 5a3a d800 e43c 59d1 5dbc 7f08 9cbb
00000330: 0a3c 0fbc acaa 86bc d9bf 1aba c13f 083d
00000340: a628 fc3c 4088 ae3a 0c3d e8bb d40b 2bbd
00000350: 3fa9 64bb f90b d8bc 98f1 eebb 9476 8b3c
00000360: 5343 e7bc b65b a4bc 8555 4a3b fc0d 8fbc
00000370: 46b6 10bd 1641 b1bb f5cb 613c 8870 99bc
00000380: 4f95 a5bb 6b8d 0a3d 31df 18bd edca 8e3b
00000390: 2b37 2ebd bb2b 2cbd d01c 9538 2bf3 a3bc
000003a0: 047b 1d3b 6b63 4e3c 297f 8ebc 5867 2dbd
000003b0: 047e 2fbd 6904 13bc 9de0 873c fc11 56bc
000003c0: 399d 98bc d3f5 1e3c f307 e3bb b8ea f3bc
000003d0: ed34 ae3c 01d3 0d3c 6bcb 633a f3cd 483c
000003e0: 9f3e 663a edd3 1d3d 8dbd 0fbb 00c5 b5bc
000003f0: d1e8 443c 121c 8cbc bd38 013c 1df3 f4bc
0.028522307 0.009035823 0.0045119994 0.018259326 -0.011085418 0.019371081 0.025739409 0.02295876
0.0064386954 0.034093678 0.016529333 0.022506505 0.020857275 0.032699466 -0.009957998 0.0020275824
-0.023124112 -0.020402797 0.009145181 0.030058373 0.0016268302 0.029993836 0.018679358 0.005692045
0.010484153 0.018432422 0.03170853 -0.004516229 0.022261841 0.005664463 0.011896811 0.031148763
0.0018728939 0.01982017 0.011691758 0.025198163 0.02114549 0.02717868 0.026240714 0.0077465773
0.015467525 0.025958257 -0.0031336024 0.02980237 0.033828262 0.026900547 0.018051324 -0.00072301243
-0.008636559 0.0018371558 0.031808805 0.010769671 0.02316739 0.019500935 -0.02371297 0.030779945
-0.017208893 0.01685287 0.021196624 -0.007372944 0.020804508 -0.0038211993 0.029954165 -0.0015968417
0.051976882 -0.02264578 -0.0030911863 0.007507903 0.023389963 -0.009997503 -0.0010118461 0.017628878
-0.010466027 -0.018878598 0.013804807 -0.03232222 0.011875678 0.0017949273 0.025865 0.0029296018
0.02061775 -0.012566658 0.008793062 0.018556992 0.023650045 -0.0075383745 0.02043665 0.026162814
0.012157577 0.013018113 0.007938917 0.021325199 0.0059608254 0.04474437 -0.0029645665 0.013996317
-0.0061007896 0.011705298 0.015905043 0.0031164587 0.01885007 -0.0026863157 0.03732156 0.015572121
0.00746334 0.005547913 0.024771988 0.02469763 0.010629828 0.024595443 0.017605409 -0.0036239992
0.018875716 0.026857957 0.006956091 0.0070987544 -0.017914787 -0.0029449326 -0.007229537 0.016983816
-0.014543218 0.02496224 0.04953912 0.013132397 -0.0012769408 -0.007838364 0.011084687 0.028012265
-0.02381132 -0.025838688 -0.017629607 0.0010389664 0.00246209 -0.028176362 -0.0038704174 0.034583006
0.0068400507 0.0028715027 -0.033906266 0.036057748 -0.017069057 0.026277615 0.030376026 0.018369785
0.003592151 -0.03347702 0.014593626 -0.055676084 -0.03099984 0.011161251 0.00029511563 -0.007895103
-0.0023190975 0.03159189 -0.039222736 0.023097467 0.014300675 0.041854847 -0.013568896 -0.024530143
-0.016860964 -0.021666234 0.01143123 -0.018289408 -0.015184721 -0.048256963 -0.053918015 -0.0114012845
-0.026092991 -0.06316029 -0.016649758 0.02948783 -0.032460153 0.00972682 -0.03262516 -0.038522914
-0.008265123 -0.042823073 -0.06309351 -0.01125532 -0.0011315056 -0.0133592365 0.02569951 0.010204548
-0.00088101963 -0.010763358 -0.048395958 -0.1442702 -0.0146136405 0.03434973 -0.073271796 0.006857648
-0.0020559644 -0.027748805 -0.0029297294 -0.012622054 0.007226381 -0.06343708 0.0070816856 -0.035379883
0.00083359634 0.027832434 -0.013538682 -0.004761755 -0.008742342 -0.016438805 -0.00059032213 0.033263925
0.030781101 0.0013315752 -0.0070873555 -0.041759327 -0.0034890918 -0.026372897 -0.007291984 0.017024316
-0.028230345 -0.020063262 0.0030873728 -0.017462723 -0.03533008 -0.00540937 0.013781537 -0.018730417
-0.0050531994 0.033826273 -0.037322227 0.0043576867 -0.04253308 -0.042033892 7.1102404e-05 -0.020013412
0.0024029622 0.012596945 -0.017394619 -0.042334884 -0.042844787 -0.008973219 0.016586596 -0.013065811
-0.018629657 0.009702164 -0.006928438 -0.029775009 0.021265471 0.008656264 0.00086896744 0.012256133
0.0008783135 0.038532186 -0.002193305 -0.022188663 0.012018398 -0.017103229 0.007887063 -0.029901082

gru.weight_ih_l0_reverse f4 [384, 21]
00000000: 6358 aebd 6ea4 c13c 203a fb3c 1d18 3d3d
00000010: 6a62 45bd cf0b da3d c4a9 01be 762e b1bd
00000020: 5f65 18bd a4ca 18bd 2b32 02bd c9b8 123d
00000030: 8b6d e2bd fe3c bbbd 0d38 e83d 8992 213d
00000040: 80a0 ad3c 56ff c83c 877e 973d dc02 e33c
00000050: 1827 a03d 4e66 82bd b989 343e 5f13 a63b
00000060: 4578 16bc ace8 b2bd 1e83 1a3e 2927 9f3d
00000070: 1d3c 27bd 648c 3f3d 2e73 193d 3798 223e
00000080: 7ef7 e83d 64d9 81bb 13c2 0dbe 26ae 0fbd
00000090: 8ac9 bfbd 5d03 a7bd 4eb3 d33d c9c9 b0bc
000000a0: ea60 c5bd 08d5 c2bd 3c16 bf3d d735 c2bd
000000b0: 4ba7 59bd 6d83 2b3d bc0d 103e 025f 363d
000000c0: cc05 2e3d f647 373d 6ac3 dc3d 31c2 b73d
000000d0: b7c1 bebd 6ee5 f6bd 58b7 933d 8ad1 cdbd
000000e0: 320f 4dbd 8caa d53d aee8 963d 9a9d a23d
000000f0: bf8f cf3d fbea f43c 79be d73d 83c5 ac3d
00000100: 3c86 723d 1df8 923d b084 0fbd a0a6 b63d
00000110: 2824 2bbc ba32 0a3e f671 273d 42ce 0e3e
00000120: f860 043c 2eea 63bd 0ee0 90bc 0fb0 1abc
00000130: 298c d5bc c69a ab3d 4d62 b6bc 066d 03bd
00000140: f6f9 acbd d008 523d 991d a4bd 0e4d c83d
00000150: 9ead 103c c31e f6bd 9bbe 88bd 18f3 a53d
00000160: 9126 123e b264 313d e848 6b3d cb3d c13d
00000170: 85c7 aa3d 96ac f8bd 445a 93ba fc38 c73d
00000180: a752 30bd fc8f 30bd 005f 51bd 8b76 abbd
00000190: 14ca 0abe f18f d33d d9e0 09bd f39c 15bd
000001a0: d3b7 40bd 67a0 afbd a2c0 bfbd 8efa e63d
000001b0: 893b d1bd 64f6 5a3c 45e3 cdbd 81bf fb3d
000001c0: 65a5 55bd 90ab 9c3d 0865 11bd dad9 7cbd
000001d0: 713e d9b9 338e bf3d af63 993d 944a 8f3d
000001e0: 5502 04be 350a 7e3d 21e2 e73b 8593 863d
000001f0: 86be a93d eede b1bd 622c f13d dba1 a6bd
00000200: 7f99 6cbd 05d6 243c 35a4 79bc 2719 d23d
00000210: ceb1 1bbd 55ba b5bd ad36 883c e65a d9bb
00000220: cf13 543a 41c4 1bbd c1a9 2abd 078a bf3d
00000230: 20a4 54bc 7822 7dbd 0995 f6ba d5af d73c
00000240: 5826 ac3d 61dc 8a3d 0c77 e53d 1b54 a43d
00000250: eaa9 10be f99e 07be f7ec adbc 713b 3dbc
00000260: 107b 18be 326d 71bd 6c31 f5bd 5aca d3bc
00000270: 73cf f1bd f50a e8bd 9a92 90bd ebed 46bd
00000280: 45db 4fbd 758d 3fbd e8fd c33d 7128 91bd
00000290: 8c23 343d a30a 4cbd 9f9d 4ebd 25dd 0dbd
000002a0: 5701 1cbd cf6e e83d f27a f9bc c1e2 a3bd
000002b0: 8980 ebbd 98ab 7fbd 1e97 c1bd f291 983d
000002c0: cc90 e7bd 0253 96bd 39c3 753d c1ce b43d
000002d0: 7a0e b1bd ccd5 b53d 1fae 963d cbd3 a83c
000002e0: 1da5 11be 7c2a ee3d a27b c43d eeef cd3d
000002f0: 5767 1dbd 04e4 843c 3d0e b73d 41c7 1dbd
00000300: 1333 c83c 9696 91bd 1f52 e03d 4f84 87bd
00000310: 48ef bebc 433d 8dbd a1f0 243d f22a c1ba
00000320: f5f0 d5bd 90a9 f7bd 2e0e 8f3d 481a 1f3e
00000330: 7cba b23c 1d09 07be e800 223d 01ee d1bd
00000340: c3e9 dc3a a9dc 11be d209 d43d f0da 6f3d
00000350: a63f 8f3d 0075 dc3d 3d96 4bbd f69a a7bc
00000360: 4b9b 96bd d19d 093e e568 073e 067f 71bd
00000370: 8606 163d 1173 3c3d 832a d93d c620 94bd
00000380: 1305 943d bd97 c9bd b776 9e3d 0961 98bd
00000390: afad 493d 0f08 4f3d 90da 063d bdde da3d
000003a0: 9108 95bc 3c17 5dbd 47ad aabd c2c1 a03d
000003b0: 8fbb 0bbd c1d1 153d 0958 4b3d b62c 8cbd
000003c0: 4821 a6bd 080e 093d 54a6 dc3d 7e2a 10bd
000003d0: 092a a0bd 3216 08be 2c76 b33d 7f5d a03d
000003e0: 22ad 24bd d444 04bd 3ff2 943d 71c5 e93d
000003f0: 9192 a0bd fdea e3bd 2d69 dfbd fe40 063d
-0.08512952 0.023637976 0.030667365 0.046165574 -0.048189558 0.106467836 -0.12662417 -0.0865144
-0.03720605 -0.03730263 -0.031786125 0.035820756 -0.1105605 -0.09142493 0.11338816 0.039446387
0.021194696 0.024535816 0.0739718 0.027711324 0.078199565 -0.06367169 0.17630662 0.005068227
-0.009183948 -0.08735785 0.1508908 0.07771141 -0.040828813 0.046764746 0.03746336 0.15878378
0.113753304 -0.0039626826 -0.13843565 -0.03507819 -0.093646124 -0.08154938 0.10336934 -0.021580594
-0.096376255 -0.09513289 0.09330413 -0.094829254 -0.05313806 0.041873384 0.14067739 0.0445242
0.042485997 0.04474636 0.1077946 0.08972586 -0.09314292 -0.12055479 0.072127044 -0.10049732
-0.05006332 0.1043292 0.07368599 0.07940216 0.10134839 0.029897204 0.10534377 0.0843611
0.059210047 0.0717623 -0.03503865 0.089185 -0.010445632 0.13495913 0.040880166 0.13945869
0.00807976 -0.055643253 -0.017684963 -0.00944139 -0.02606781 0.0837913 -0.02226367 -0.032086395
-0.08446114 0.051277936 -0.08013458 0.09780322 0.008830456 -0.12017586 -0.0667698 0.08103007
0.14272524 0.04330892 0.057442576 0.09435614 0.083388366 -0.12142293 -0.0011242111 0.09727666
-0.043047573 -0.043106064 -0.05111599 -0.0837222 -0.13553649 0.10330189 -0.033661697 -0.03652663
-0.04705031 -0.08575516 -0.09362914 0.11278258 -0.102164336 0.013364408 -0.10053114 0.12292386
-0.052159686 0.076499104 -0.03549674 -0.061731197 -0.00041435988 0.09353294 0.07489716 0.069966465
-0.12891515 0.062021453 0.007076517 0.06571106 0.082882926 -0.086850986 0.117760435 -0.0813634
-0.057763573 0.010060792 -0.015236904 0.10258704 -0.038011365 -0.08873431 0.016627634 -0.0066331504
0.000809011 -0.03802896 -0.041665796 0.093524985 -0.012978584 -0.06180045 -0.0018812726 0.02632896
0.08405751 0.06780315 0.11204347 0.08023854 -0.14127317 -0.13244237 -0.021231158 -0.0115498165
-0.14890695 -0.058942027 -0.11972317 -0.025853325 -0.11807146 -0.11330215 -0.07059212 -0.04856674
-0.05074622 -0.046765763 0.09569913 -0.07087792 0.043979213 -0.04981483 -0.050443288 -0.034634728
-0.038087215 0.1134926 -0.030454133 -0.08002234 -0.114991255 -0.062419504 -0.094526514 0.07449712
-0.11306915 -0.07340051 0.060000632 0.08828498 -0.08645339 0.08878669 0.0735743 0.020608803
-0.14223142 0.11629197 0.095938936 0.100555286 -0.03842863 0.016222008 0.089382626 -0.0385201
0.024438417 -0.071088 0.10953163 -0.06617033 -0.023307458 -0.0689645 0.040268544 -0.001473753
-0.104463495 -0.12092888 0.069851264 0.15537369 0.021817438 -0.1318707 0.039551646 -0.10250474
0.0016854334 -0.14244331 0.103534356 0.058558404 0.06994562 0.107645035 -0.049703825 -0.020459633
-0.073538385 0.13439108 0.13223608 -0.05895903 0.036627315 0.046008173 0.106038116 -0.072328135
0.0722753 -0.09843395 0.07737487 -0.07440383 0.049237903 0.050544795 0.03292328 0.10687015
-0.018192561 -0.053977236 -0.08333831 0.07849456 -0.034114417 0.03657699 0.049644504 -0.068444654
-0.08111817 0.033460647 0.10773912 -0.035196774 -0.078205176 -0.13289717 0.08762774 0.07830333
-0.040204175 -0.032292202 0.07272767 0.11414612 -0.07840455 -0.11128805 -0.109087326 0.032776825

gru.weight_hh_l0_reverse f4 [384, 128]
00000000: 0077 02bc 94d8 e83c a722 0dbd 4a4c 843c
00000010: 009f 76bc a4fd cbbc 84ed d03c 2cdc 793d
00000020: c89f 03be 93fd dfbc 8102 b73d a00a 99bc
00000030: 4818 573c b0af 0e3c 2db3 963d a1fc 213d
00000040: 78db 6bbd 032d 38bd 8ecf 62bd 0e16 9fbc
00000050: 824c e8bc a66a 5abd 006f ef3a 003b 573b
00000060: 135f 42bd 437a dcbd 6883 71bc 3ee4 e1bc
00000070: aea1 b9bc 7cc4 1c3d 82ca da3c 07d1 c23c
00000080: 447e e23c c4fb c4bd 68c4 a73d 4ea2 f83c
00000090: bc43 163d d24d 7bbc 2561 cf3b 81f4 3dbd
000000a0: d1cf 833d d0dd 703d 7eaa 663b 403e f4bd
000000b0: 83d1 a83d 996c 71bd b5d1 be3b ae67 393d
000000c0: 54e2 3d3d 10a0 1e3c 1be7 1e3d ace4 5b3d
000000d0: 4c0d fdbd cef1 c2bc 7a38 edbc e9c5 463d
000000e0: 244c f93c 2758 1bbd d721 c23b 0a78 5cbd
000000f0: 9f1f 473d eef6 35bd 2da9 92bc 04ee 773d
00000100: 116a 8fbd 102c cc3c 1604 993d 9486 94ba
00000110: 39d6 1e3e 4361 84bd 25df cfbc 1433 953c
00000120: 7305 633c 9df8 213d fc07 94bd 76a2 7cbc
00000130: b81a 19bd 8ec6 603d 0e3d 65bc 03d3 ffbb
00000140: 3b46 12bb 9806 9cbd c804 913d 4853 91bc
00000150: 57af b8bc 794e 863d 3543 babc 7adf 2dbd
00000160: 1b85 b0bd cee8 543d 1834 933c 1e3b 493d
00000170: 5141 93bd 0b34 123c 8155 0dbd 6d03 cabb
00000180: d707 d73d c58f e63c b87b cebc bbf2 6cbc
00000190: 7f9b 763d 35ff 063d 8cda 80bd c009 16bc
000001a0: 3500 963d 1710 48bc 087e 1c3d 845a 11bd
000001b0: 508d cb3d b4ca 89bd 762b a0bc a62e 0b3d
000001c0: ee72 c03b dc17 253d 25ec c63c 5c96 4fbd
000001d0: 9eda 02bd 9c57 9e3d a88a ea3c 0505 ab39
000001e0: 792e c93c f988 9abc c64e 97bd bd6f 6ebd
000001f0: 6268 2ebd dbd5 67bd e345 85bc 408c 833d
00000200: e008 443c 1063 d9bd 99d7 58bd f64b c6bc
00000210: 3d3d bb3b 8f46 213c d951 a4bc 8b74 20bd
00000220: 0c68 033e 81d6 82bd 1043 9cbd 460c 823d
00000230: 8cfe 1e3c b41a 6ebd ea0f 2c3d c3a3 90bd
00000240: 8e53 77bd 8f58 933a 7031 373d 544b 8b3d
00000250: a9ee b83d 0add 593c 8658 ea3d 1ea2 9b3d
00000260: 979e 08bd 0faf dd3b 0c3c 293c a2cb 18bd
00000270: 7a41 77bd a22c 2bbd 4fe7 7bbd 1f37 b43d
00000280: 5bbe 593d d634 debc 1d7a 07bd 1e7d 54bc
00000290: 9a6c a33d 42b7 aebc 62fd 3d3c c6a0 b93c
000002a0: f28c b9bd 25ee 26bd b632 2f3c d626 afbd
000002b0: 46f9 9fbd f09b c5bc be62 4a3d 68c1 8d3d
000002c0: 58a2 703d c8b2 933d d736 bdbc ddd1 943b
000002d0: c6ea 4b3b e51b 43bd 8ccc 2bbd dcaa 993d
000002e0: 698e 7abc d6c5 3a3d 9349 98bd d6da 7d3d
000002f0: 7bf6 14bd ca64 94bc 1659 923d d6b7 27bb
00000300: 506c 86bd f927 67bd 4821 2ebb 675c 1f3d
00000310: eb73 c83a ee0f 2fbd c3bb 32bc 8f15 d1bb
00000320: 3dca 1dbd 7328 63bc e061 273b ea5a 08bd
00000330: 2e5b 8dbd 7fff f9bc e733 b6bc 41f1 cdbc
00000340: 6073 ebbc e695 5abd 4525 debc 807a c9bc
00000350: f93d dc3d c3bd 5cbd 5e21 f5bc 725e bcbb
00000360: 2153 b23d 09fe 773d 6ebc 70bd 6114 9a3d
00000370: 1679 8c3d f434 f0bd 7b41 363d d2db f23c
00000380: f726 d83c 5c5c 1f3d 5c6e d23c 3ea4 4f3c
00000390: bf84 29bd b703 7fbd 42c9 d53a b3ae 82bc
000003a0: 5314 7c3d 4b91 a23c bc71 ac3c d753 4abd
000003b0: 511f 263c 718d 8ebc e4bf 003d bbe2 84bd
000003c0: e25c db3b cf92 033d 9e21 a1bc bfb2 7bbd
000003d0: 31be 93bd 874d 733c db91 3dbd 909d 6d3d
000003e0: 20e5 fcbd d0e4 f5ba 5fe9 8b3d 7d8a 023c
000003f0: e026 3d3d 22b8 f13c ded4 223a 7c9d 23bd
-0.007962942 0.028423585 -0.034456875 0.016149659 -0.015052557 -0.024901219 0.025503881 0.061000988
-0.1285392 -0.027342593 0.089360245 -0.018681824 0.013128348 0.008708879 0.07358394 0.039547566
-0.05758235 -0.0449648 -0.05537372 -0.019419696 -0.028356794 -0.053324364 0.0018267334 0.0032841563
-0.04745395 -0.10765507 -0.014740802 -0.027574655 -0.022660103 0.03827332 0.026707891 0.023781313
0.027648099 -0.09618333 0.081917584 0.03035083 0.03668569 -0.015338378 0.006328719 -0.046375755
0.06436122 0.058805287 0.0035196836 -0.11925936 0.08243086 -0.058941457 0.005823339 0.045264892
0.04635842 0.009681717 0.038794618 0.053684875 -0.12356052 -0.023796942 -0.028957594 0.048528586
0.030431814 -0.037925866 0.005924444 -0.053825416 0.04861414 -0.044424944 -0.017902935 0.060529724
-0.070026524 0.024923354 0.074714825 -0.0011331611 0.15511407 -0.06463864 -0.025374958 0.018212833
0.01385628 0.039543737 -0.072280854 -0.015419593 -0.037378997 0.054876857 -0.013991607 -0.007807137
-0.0022319693 -0.07618445 0.0708099 -0.017739907 -0.022544546 0.06557936 -0.022737125 -0.042449452
-0.08619138 0.051979832 0.017969176 0.049128644 -0.071901925 0.008923541 -0.03450537 -0.006164959
0.10499542 0.028144727 -0.025205478 -0.014462168 0.060206886 0.03295823 -0.062916845 -0.009157598
0.07324258 -0.012210867 0.03820613 -0.035486713 0.099390626 -0.06728116 -0.019551974 0.033980034
0.0058730757 0.040305957 0.024282524 -0.050680503 -0.03194677 0.07731554 0.02863057 0.00032619401
0.024558293 -0.018864142 -0.07388072 -0.05821203 -0.042580016 -0.056600433 -0.016268676 0.06423235
0.011965007 -0.10614598 -0.052939985 -0.024206143 0.0057140873 0.009843483 -0.02005856 -0.039173644
0.1283266 -0.063885696 -0.07629979 0.06349997 0.009704243 -0.058130935 0.042007364 -0.07062485
-0.06038242 0.0011241602 0.04472488 0.06801477 0.09029896 0.013297329 0.11442666 0.07599281
-0.033354368 0.0067652534 0.010329258 -0.037303574 -0.060365178 -0.041790612 -0.06149989 0.08799576
0.053160053 -0.027124804 -0.03307544 -0.012969283 0.079796985 -0.021327619 0.011596056 0.02265967
-0.09060086 -0.040754456 0.010693243 -0.08552329 -0.07811217 -0.024122208 0.049410574 0.06921655
0.058748573 0.07211834 -0.023097439 0.004541619 0.0031115278 -0.047634024 -0.041943118 0.07503292
-0.015292742 0.045598827 -0.07435908 0.061976276 -0.036367875 -0.018114466 0.07145898 -0.0025591752
-0.06563628 -0.056434605 -0.002657013 0.03890648 0.0015293335 -0.0427398 -0.010909024 -0.006380744
-0.038522948 -0.013864624 0.0025540516 -0.033289827 -0.06902157 -0.030517338 -0.022241546 -0.025139453
-0.028741539 -0.05336561 -0.02711738 -0.024594545 0.10754008 -0.05389191 -0.029923137 -0.0057485634
0.08707262 0.060545 -0.05877345 0.07523418 0.06859033 -0.1172885 0.04449604 0.029645834
0.026385767 0.03890644 0.02568739 0.012673436 -0.041386362 -0.062259402 0.001631059 -0.015952444
0.06154282 0.019844672 0.021050327 -0.049396362 0.010139302 -0.017401429 0.031433 -0.06488558
0.006694422 0.03212243 -0.01966935 -0.061449762 -0.072140105 0.014850027 -0.046281677 0.05801159
-0.123483896 -0.0018760208 0.068316214 0.0079675885 0.046179652 0.029506747 0.0006211529 -0.03994511

gru.bias_ih_l0_reverse f4 [384]
00000000: cc89 a53b 01a5 9fbd 986b 8b3c 5c47 b5bc
00000010: ab3d 89bc 74cd 77bc a340 b1ba 7d71 293c
00000020: d48c 83bc 3340 a13c 2b30 92bc 2dac a2bc
00000030: 8767 323c 7ab9 423c 7a7a 7d3c 2047 de3c
00000040: 3386 4dbc 6302 fcbb 05b6 8ebc 16d5 8ebc
00000050: fc74 f93a 8c89 013a 549b 323b 8ade f4bb
00000060: f802 9a3c 05d7 95bd ed78 91bb 5098 72bc
00000070: 5010 4b3c ed72 de3b d019 55bd 26ac 58bb
00000080: 39e1 e7bc 4490 81bc dddd eebb 9a68 653b
00000090: 15c5 cdbc 879b 23bd 56b1 bb3c 66f5 1cbc
000000a0: af2a 76bc fc91 31bc d2c4 e9bc ab12 f2bc
000000b0: 74a5 b9bc bdd1 67bb 4c7d d0bc adfa a8bc
000000c0: 551d b33b 5058 483c c08f b4bc 7b3b cabc
000000d0: 7492 f4ba 928c 2ebd 92f4 18bc 2050 c0bc
000000e0: c33e 84bd faab 3339 ec5a 893c fd01 a03c
000000f0: 2830 04bd a1e5 4fbc c73e a03b 0fe1 5cbc
00000100: 534b 813b 54a1 993c 9484 d5bc 1c0b 0ebd
00000110: 36e7 a5bc 23f4 693c 03b0 183c ebc9 103c
00000120: 0a08 2dbd 9d3e ba3b a565 09ba df27 0a3b
00000130: a63b f23b 533c 66bc d6de 543c 0024 ab3c
00000140: a0b1 9a3c 2a50 64bd 253b 293c 35bb 403c
00000150: b3c6 46bb afbb 343c 811b 90bb da84 bebc
00000160: 1fea eabc 2f95 403b 7b5d a03b 942a ddba
00000170: f723 ab3c 604b c5bc 49d9 b5ba c9f2 49bc
00000180: 0192 77ba 2a6e 11bc 9c7c 5fbd c2d5 783b
00000190: 4c93 233c 4731 a3bc 75bb af3b 50ec d6bb
000001a0: a2b9 02bd 4c27 6fbc 73f3 08bd 2088 f83b
000001b0: dd63 97bb acfc 1bbd fbc7 b7bc 6f82 82bc
000001c0: 4122 723c bc75 223c 96da 63bc 792e 673c
000001d0: f94f 09bd 4c84 8fba 49c1 903b 0040 8b3b
000001e0: 36d1 833b 2909 563c c97c 013b a3b3 393c
000001f0: 87f8 883c 4d8e 173c 6811 6dbd 4203 6cbc
00000200: de06 853c c3e9 79bb aafa 733c 48b4 19ba
00000210: d480 efbc 7b4f d6bb 780a b9bc b15c 0abd
00000220: 8ecc b13c 4563 08bd bb77 703b 3626 ca3c
00000230: e841 17bd fab4 49bd ae97 a0bc e483 a1bc
00000240: a8f2 e7ba 1a88 2b3b ce20 0bbd 5d1e b73c
00000250: 6c70 51bd 7e3d 7e3c 7ba5 12bd 928f bd3a
00000260: 950c bebc bfc4 05bd b73f 33ba 19c5 62bc
00000270: 8162 f7bc ace5 753a 98e3 4c3b e0b3 f9bc
00000280: 92e5 f1bb 1394 e1ba 4478 30bc 6d7c 91bc
00000290: 8b9e 63bc 8d32 dabb c9fb 2cbc 2a56 3b3c
000002a0: 6796 4cbd 29f8 59bd d051 093b 706b 7cbd
000002b0: c62d 903c ad67 06bd 2b37 383b 8226 d5bc
000002c0: 5efe 763c 32f8 84bc e02c 4ebd c35f 12bd
000002d0: f789 29bd 14b0 26bc 8918 8cbc 7e44 303c
000002e0: f3a3 b53b 03a5 e9bc 51e8 66bc 73d2 adbb
000002f0: 59d1 0bbc 8960 10bd d91a bc3c a0be c1bc
00000300: 877e 043c 53b3 ad3b cfa4 79bb a58d d7bc
00000310: 0486 c2bb e6e0 0c3c 81d3 f2bb d35d 0f3a
00000320: 5052 1cbd 4ba9 7c3c b3bc 06bb 8a63 1bbc
00000330: da5b 6bbc d58e 7fbb b5df 6d3c 6a35 aebc
00000340: 8dc8 1fbd b1bf 9cbc e8d1 dbbc cc4f 67bb
00000350: 81ae a43c 102d ae3c 8ce1 6abc e352 0ebd
00000360: b5bb 04bd 775c d93c aeb0 743c 60b7 16bd
00000370: 5d30 403b 998a 01bb bd0f 473c 8c47 d13c
00000380: 76ca debc b0ee edbc a95a 30bd 2282 9bbc
00000390: e13e a7b9 61ea f1bc a6e2 97bb 7b8d 29bd
000003a0: 223d 57bc fe79 42bd 31bc 26bd 1980 14bb
000003b0: 2613 d4bb 751b b1bc a246 b6bc 2375 ac3c
000003c0: 185f b33c 46ce 63bc 87f1 c0bc 62bd e9bc
000003d0: 3478 ba3b dbba a4bc 5631 debc 65db 373c
000003e0: 7dbc 45bd 6477 78bd 237b 0d3c 6ea9 5bbd
000003f0: 69e5 83bc 584b b3bc 0a06 d0bc a28a 11bc
0.005051827 -0.07795144 0.017019078 -0.022128753 -0.016753038 -0.015124667 -0.0013523292 0.010341999
-0.016058363 0.019683933 -0.017845234 -0.01985749 0.010888941 0.011885041 0.015471095 0.027133524
-0.012544203 -0.007690714 -0.017420778 -0.017435592 0.0019032056 0.00049414556 0.0027253227 -0.007472818
0.018800244 -0.07316402 -0.0044394643 -0.014806822 0.012394026 0.0067886026 -0.05202657 -0.0033061593
-0.028305637 -0.015815862 -0.0072896318 0.0035004974 -0.02511839 -0.039943244 0.022911709 -0.009579992
-0.015024825 -0.010838028 -0.028536234 -0.029549917 -0.022661902 -0.0035372816 -0.025450371 -0.020627344
0.005466143 0.012228087 -0.022041202 -0.024686566 -0.0018659369 -0.042614527 -0.009335654 -0.023475707
-0.06457283 0.00017134837 0.016766988 0.019532198 -0.032272488 -0.012689025 0.004890296 -0.0134813925
0.003945747 0.018753685 -0.026064195 -0.034678563 -0.020251852 0.014279398 0.009319308 0.0088372035
-0.042243995 0.0056837336 -0.00052412815 0.0021080894 0.0073923646 -0.014052468 0.012992581 0.02089119
0.018883526 -0.055740513 0.010329043 0.011763384 -0.0030330836 0.011031075 -0.00439781 -0.023256708
-0.02867609 0.0029385795 0.0048939562 -0.0016873651 0.020891173 -0.024083793 -0.001387396 -0.012325951
-0.00094440585 -0.008876363 -0.054562196 0.0037969206 0.009983849 -0.019920958 0.005362923 -0.0065589324
-0.031915314 -0.014596771 -0.033435296 0.0075845867 -0.004620059 -0.038082764 -0.022434225 -0.015931336
0.014778675 0.009915765 -0.013907095 0.014110201 -0.033523533 -0.0010949462 0.0044175726 0.0042495728
0.0040227426 0.013063707 0.0019758216 0.011334333 0.01672007 0.009250236 -0.057877928 -0.014405074
0.016238626 -0.0038133718 0.014891306 -0.0005863351 -0.029236235 -0.0065402365 -0.022588 -0.033779804
0.021703985 -0.033297796 0.0036692459 0.024676424 -0.036928087 -0.04924486 -0.019603577 -0.01971621
-0.0017696219 0.0026173652 -0.033966832 0.022353346 -0.051132604 0.015517591 -0.035802346 0.0014462343
-0.023199359 -0.032658335 -0.00068378024 -0.013840937 -0.030198338 0.0009380232 0.0031263586 -0.030481279
-0.0073821032 -0.0017210267 -0.010770861 -0.017759526 -0.01389278 -0.006658858 -0.010558077 0.011434117
-0.049948122 -0.05321518 0.0020953305 -0.061625898 0.017599951 -0.032813717 0.0028109055 -0.026019339
0.015075294 -0.01623163 -0.050335765 -0.035735857 -0.04139134 -0.010173816 -0.017101543 0.010758517
0.005543226 -0.028521067 -0.0140934745 -0.0053046285 -0.008533799 -0.035248313 0.02296202 -0.023650467
0.008086807 0.005300918 -0.0038092618 -0.026312659 -0.005936386 0.008598542 -0.007410467 0.0005468998
-0.038164437 0.015421222 -0.002055925 -0.009484181 -0.014365161 -0.0038995047 0.014518668 -0.021265704
-0.03900962 -0.019134374 -0.02683349 -0.0035295365 0.020102741 0.021261722 -0.014336001 -0.034747016
-0.032405574 0.026533348 0.014934702 -0.036795974 0.0029325702 -0.0019766449 0.012149748 0.025546812
-0.02719615 -0.02904448 -0.04305521 -0.01898295 -0.0003189957 -0.029530706 -0.004635173 -0.041394692
-0.013137134 -0.047479622 -0.040706817 -0.002265936 -0.0064720092 -0.021619538 -0.022250477 0.021051949
0.02189593 -0.01390416 -0.02355267 -0.028532688 0.005690599 -0.02010863 -0.027123135 0.011221741
-0.04827546 -0.060660735 0.008635315 -0.053628378 -0.016100602 -0.021886513 -0.025393505 -0.00888315
