ckpt/model_lr_0.001_emb_16_hid_64_layers_2.pth (torch, 550674 bytes, 26 tensors)

class_embedding.weight f4 [8, 16]
-0.02920597 -0.012377181 -0.0024289633 0.044433292 -0.0043572416 0.05895091 0.053621348 0.019017052
-0.021743814 -0.029243967 0.015136412 0.06930084 0.005138047 -0.038237575 0.038610477 -0.03359396
-0.038091086 0.025564361 -0.0010811272 0.02381034 -0.032704122 -0.004657527 0.014261869 0.009824421
-0.02910968 -0.01533785 0.019426046 0.019215584 0.02309659 -0.012943087 0.028843638 0.020905362
0.10573044 0.03867572 -0.02665556 -0.08906648 0.037515417 -0.24888246 -0.112765566 -0.033053327
0.09934405 0.09750142 -0.08160868 -0.16141912 -0.078855395 0.13718823 -0.06366899 0.08915162
0.034029208 0.024925219 -0.05574291 -0.008443215 0.023693856 -0.024341209 -0.008126027 0.11795007
0.029988602 0.0077432194 -0.0023806058 0.0036742557 -0.0032285058 -0.01392569 -0.018659404 -0.023659745
-0.032388683 -0.04264897 0.04307863 0.030370852 -0.052410856 -0.079488374 -0.020250298 -0.038570996
-0.045721866 -0.029259475 0.026605722 -0.03803208 0.028769294 0.02590432 0.050448697 0.12142212
0.028349768 -0.009135061 -0.041384127 -0.013467676 0.033856742 0.020735862 0.043304734 -0.015298947
0.021040924 0.013518058 -0.01561634 0.016815184 -0.016957117 -0.010311611 0.009420838 -0.0042620418
0.034421593 0.007848838 -0.02893146 -0.03972697 0.016593382 -0.019456703 -0.017870367 -0.006789053
0.045324605 0.036129393 -0.038419288 -0.024575004 -0.030691726 0.029032828 -0.026219556 0.0005172417
0.00053685496 -0.0050209803 0.008876458 0.0073669725 0.010993575 0.0076698554 -0.0051724277 -0.008549156
0.0025459537 0.016807383 0.002898389 0.013912115 0.017267399 0.0010288954 -0.007077488 -0.0049630282
00000000: 5c41 efbc a9c9 4abc 3e2f 1fbb afff 353d
00000010: 31c7 8ebb 8276 713d 0fa2 5b3d a6c9 9b3c
00000020: 1520 b2bc 0b91 efbc b7fe 773c 99ed 8d3d
00000030: 105d a83b 019f 1cbd 0526 1e3d d299 09bd
00000040: 6605 1cbd 5a6c d13c 9cb4 8dba e70d c33c
00000050: c2f4 05bd 2b9e 98bb 9daa 693c 9cf6 203c
00000060: 6c77 eebc 9b4b 7bbc 5f23 9f3c 006a 9d3c
00000070: 0f35 bd3c 3e0f 54bc 7e49 ec3c b941 ab3c
00000080: 3389 d83d 6f6a 1e3d c35c dabc 7d68 b6bd
00000090: c4a9 193d 0bdb 7ebe a2f1 e6bd ed62 07bd
000000a0: e574 cb3d d3ae c73d 7422 a7bd 0e4b 25be
000000b0: f07e a1bd 127b 0c3e e364 82bd 2095 b63d
000000c0: 3662 0b3d f92f cc3c ad52 64bd 6955 0abc
000000d0: 9e19 c23c 3767 c7bc 0723 05bc ce8f f13d
000000e0: a8aa f53c d5ba fd3b f003 1cbb c8cb 703b
000000f0: 5795 53bb 9428 64bc 9bdb 98bc 15d2 c1bc
00000100: ffa9 04bd b0b0 2ebd 3873 303d 4bcc f83c
00000110: c4ac 56bd cdca a2bd f4e3 a5bc 9ffc 1dbd
00000120: da46 3bbd 91b1 efbc 3ef4 d93c 87c7 1bbd
00000130: 95ad eb3c 4c35 d43c 4ba3 4e3d 29ac f83d
00000140: c63d e83c 39ab 15bc 6782 29bd 87a7 5cbc
00000150: 5ead 0a3d 41de a93c 4e60 313d 6fa8 7abc
00000160: 045e ac3c d87a 5d3c addb 7fbc ffbf 893c
00000170: a7e9 8abc 08f2 28bc dc59 1a3c 99a8 8bbb
00000180: a8fd 0c3d 6a98 003c ab01 edbc bfb8 22bd
00000190: d8ee 873c aa63 9fbc e064 92bc b476 debb
000001a0: 4ba6 393d 6afc 133d 8b5d 1dbd 8551 c9bc
000001b0: 376d fbbc 41d6 ed3c 65ca d6bc 8197 073a
000001c0: babb 0c3a 0987 a4bb 906e 113c a566 f13b
000001d0: 651e 343c 6953 fb3b 787d a9bb c211 0cbc
000001e0: 04da 263b a3af 893c e6f2 3d3b a4ef 633c
000001f0: 5c74 8d3c 00dc 863a 46ea e7bb e6a0 a2bb

class_counts_projection.weight f4 [8, 5]
0.6355775 0.07394576 -0.26400506 0.57257634 -0.1330618 -0.5455294 0.452022 0.007219115
-0.629743 -0.21433564 -0.34794453 -0.1350793 0.5870345 -0.16359407 0.055590842 0.38971508
0.64979106 -0.5699689 0.23899478 0.5443014 0.28486097 -0.019705312 0.091193914 0.015594653
-0.7047535 -0.48721516 -0.17100479 0.53226465 0.42452165 0.053270362 0.46466792 0.36197186
0.1794281 0.4958817 -0.54778016 0.49185944 0.46622887 0.2191469 -0.60009515 -0.16877328
00000000: 35b5 223f e070 973d ac2b 87be 5d94 123f
00000010: 5a41 08be d1a7 0bbf 6d6f e73e 538e ec3b
00000020: d636 21bf cd7a 5bbe c925 b2be 3a52 0abe
00000030: e547 163f 3485 27be 39b3 633d bc88 c73e
00000040: b558 263f 7be9 11bf 0cbb 743e 5657 0b3f
00000050: 4cd9 913e 096d a1bc e0c3 ba3d b780 7f3c
00000060: ba6a 34bf 4474 f9be e11b 2fbe 7f42 083f
00000070: e75a d93e 0632 5a3d f4e8 ed3e 6054 b93e
00000080: 00bc 373e 35e4 fd3e 523b 0cbf 00d5 fb3e
00000090: 8db5 ee3e 0c68 603e d69f 19bf e7d2 2cbe

class_counts_projection.bias f4 [8]
-0.0077194856 -0.03163856 -0.0034494696 0.014437716 -0.012914326 -0.012047733 0.003656734 0.024178216
00000000: bdf3 fcbb 6f97 01bd 7f10 62bb 2c8c 6c3c
00000010: 9c96 53bc db63 45bc d1a5 6f3b 6511 c63c

layer_norm.weight f4 [29]
1.0453259 0.9561073 1.012843 1.0193064 1.0281857 1.0314195 1.0139999 0.96883416
1.0359765 1.0473979 1.0139976 1.015157 1.0155796 1.0213608 0.9934371 0.9732031
0.9839218 1.0478842 1.0204285 1.0224775 1.0073644 1.0235891 0.92332965 1.0514833
1.0308548 1.0229998 1.0261159 1.0084676 1.0153168
00000000: 3dcd 853f 73c3 743f d7a4 813f a278 823f
00000010: 979b 833f 8e05 843f c0ca 813f 8405 783f
00000020: e19a 843f 2211 863f acca 813f aaf0 813f
00000030: 83fe 813f f3bb 823f e551 7e3f d723 793f
00000040: 4de2 7b3f 1221 863f 679d 823f 8be0 823f
00000050: 51f1 803f f804 833f 555f 6c3f 0197 863f
00000060: 0df3 833f a8f1 823f c457 833f 7715 813f
00000070: e7f5 813f

layer_norm.bias f4 [29]
0.021993872 0.043058768 -0.009244247 0.0064642313 0.027104326 0.016017279 0.011154879 0.029386273
0.018767275 0.019319257 0.0013597398 0.0136199 -0.0073823156 0.011358059 0.022222545 0.060697816
-0.037446253 0.01176058 0.009047176 -0.004058741 -0.0183436 -0.0001874691 0.014838945 0.003714924
0.012522909 0.013892623 -0.00778406 0.011576251 0.016073905
00000000: 7e2c b43c 645e 303d 2f75 17bc e7d1 d33b
00000010: e409 de3c ab36 833c f4c2 363c 7bbb f03c
00000020: d4bd 993c 6b43 9e3c 4c39 b23a 0026 5f3c
00000030: 5ae7 f1bb 2717 3a3c 0e0c b63c 469e 783d
00000040: 3e61 19bd 73af 403c 9b3a 143c 30ff 84bb
00000050: 5145 96bc 5a93 44b9 0c1f 733c 1576 733b
00000060: e32c 4d3c e29d 633c 6e11 ffbb 51aa 3d3c
00000070: 6cad 833c

gru.weight_ih_l0 f4 [192, 29]
0.14976592 -0.019835416 0.16640683 -0.1473911 0.03029403 0.040473763 -0.08421169 0.1383585
0.047048863 -0.023890965 -0.014363536 -0.0008099931 0.107540905 0.15416804 0.16334288 -0.017751787
0.0094550215 -0.10520997 -0.09775067 -0.022712816 0.038387757 0.05392677 -0.10540158 -0.11524551
0.104324475 -0.10485127 -0.17099631 0.08081631 -0.087421946 0.15083617 -0.045074023 0.0911235
-0.050346464 0.052240096 -0.15880816 -0.16088882 -0.1793353 -0.040457103 0.05974376 0.11017079
-0.08390274 -0.069470786 0.094629996 -0.0022003506 -0.079971306 -0.06563081 0.09973126 0.17123501
0.13026468 -0.025604198 -0.02821447 0.13932075 0.035780255 0.055101432 -0.16630529 0.15612946
0.08112641 -0.011543841 0.1233149 0.049021803 -0.105616055 0.042261437 0.11719933 0.10641482
-0.07451065 0.10668233 0.15688016 -0.0234805 0.011198367 0.11701041 -0.08530023 0.12252781
0.13416435 -0.15859388 -0.114417344 -0.021449959 -0.06895497 0.13296318 -0.014757335 0.059404206
-0.078546524 0.030774532 0.04654763 0.04366276 0.122907914 0.063734904 0.17587836 -0.19134882
-0.1407427 -0.20546089 0.02404587 -0.10275979 0.0069189714 -0.058798544 0.024308328 -0.08527234
0.065794155 0.13751347 -0.021305393 -0.13924244 -0.036400728 0.06123745 -0.09480085 0.08401691
-0.07769885 -0.05055711 0.05339173 0.064082384 0.15836152 -0.023033392 0.068437256 0.112609215
-0.17260593 -0.1482715 -0.073788494 -0.12552492 0.018952414 -0.0119205415 0.011792217 0.030929806
0.061439097 0.14564908 -0.10121265 0.072852455 0.12691228 0.015378697 -0.18232116 -0.07810411
-0.15927266 0.06333461 -0.13806503 -0.08835099 0.011807435 0.024228875 -0.05565159 -0.039133262
-0.0019280135 0.14377508 -0.0070225387 -0.11447731 -0.10639126 0.07840299 -0.13390762 0.18567167
-0.0091660805 0.07272448 0.113751456 0.048846863 0.0054721166 -0.14385775 0.1283179 0.014205236
-0.076701745 -0.029436711 0.036417585 0.11735796 0.064245984 0.13314474 -0.010999908 -0.061615124
-0.14977959 0.0399131 0.1450588 0.09702411 0.042267084 0.12490922 0.08963751 -0.06591438
-0.01763688 -0.023815213 -0.009182899 0.053141274 0.11100026 0.039225195 0.038070902 0.10506012
-0.07524249 -0.024765294 -0.115950905 -0.15589097 0.16442294 0.14385849 0.19721341 0.1658942
0.07674741 -0.15737604 0.07969552 -0.02928889 0.025063222 0.14733048 0.0054302574 -0.08496286
0.13491084 0.065004796 -0.16404694 -0.09472692 -0.07255394 -0.057905152 -0.11492612 0.01934978
0.1977303 0.01970759 -0.049989115 0.16090663 -0.13152005 -0.13451076 -0.09786972 -0.046653997
0.028235534 -0.061836652 0.051469844 -0.08257436 0.114006616 -0.03529005 -0.0058103744 0.078634344
-0.07322671 -0.009282014 -0.030686436 0.06664976 -0.09374849 -0.012573966 0.17093799 0.06816723
0.021960456 -0.17190441 0.14832945 0.07327603 0.0007483419 -0.13622777 -0.02253854 -0.04107805
-0.060914546 0.14971273 0.073036954 0.03779227 -0.08718886 0.074998625 -0.1590349 0.1145861
-0.041062977 0.020232178 -0.18101606 0.05142225 -0.1639462 0.17320271 0.02081269 0.06561987
0.1074199 0.044596195 0.067224406 0.007898268 0.072128214 0.14959297 -0.09199035 -0.1370364
00000000: 3d5c 193e e27d a2bc 8d66 2a3e b1ed 16be
00000010: 302b f83c d1c7 253d 2e77 acbd daad 0d3e
00000020: 4fb6 403d fcb6 c3bc 0955 6bbc b755 54ba
00000030: 683e dc3d 3ade 1d3e 5b43 273e 326c 91bc
00000040: 3ce9 1a3c 5378 d7bd 8131 c8bd 3a10 babc
00000050: 7b3c 1d3d 51e2 5c3d c9dc d7bd d705 ecbd
00000060: 12a8 d53d 43bc d6bd a819 2fbe 0683 a53d
00000070: 470a b3bd cc74 1a3e 8a9f 38bd f59e ba3d
00000080: 1838 4ebd b6f9 553d 9b9e 22be 0ac0 24be
00000090: aca3 37be 59b6 25bd dfb5 743d 39a1 e13d
000000a0: 33d5 abbd b346 8ebd 5fcd c13d c233 10bb
000000b0: ffc7 a3bd 7269 86bd e73f cc3d 3b58 2f3e
000000c0: 1b64 053e e5bf d1bc 0822 e7bc 19aa 0e3e
000000d0: 518e 123d 0ab2 613d ef4b 2abe 67e0 1f3e
000000e0: 9a25 a63d 6122 3dbc 868c fc3d 16cb 483d
000000f0: 3b4d d8bd 541a 2d3d 3406 f03d 03f0 d93d
00000100: 0a99 98bd 447c da3d 31a5 203e 2d5a c0bc
00000110: 5b79 373c 27a3 ef3d e3b1 aebd dcef fa3d
00000120: 6162 093e 6f66 22be a453 eabd d3b7 afbc
00000130: 4338 8dbd 8027 083e c0c8 71bc d351 733d
00000140: 00dd a0bd df1a fc3c baa8 3e3d b9d7 323d
00000150: 25b7 fb3d 7287 823d 7519 343e f2f0 43be
00000160: db1e 10be 5764 52be d8fb c43c ba73 d2bd
00000170: 8ab8 e23b bed6 70bd 4222 c73c 44a3 aebd
00000180: 16bf 863d 55d0 0c3e a688 aebc 9295 0ebe
00000190: ee18 15bd 1fd4 7a3d f326 c2bd 0f11 ac3d
000001a0: 9320 9fbd f914 4fbd 49b1 5a3d a03d 833d
000001b0: 8629 223e 86b0 bcbc d528 8c3d a99f e63d
000001c0: 9cbf 30be 7cd4 17be 6c1e 97bd 9b89 00be
000001d0: 1842 9b3c 604e 43bc 2534 413c 8160 fd3c
000001e0: 90a7 7b3d 0825 153e 9448 cfbd ab33 953d
000001f0: 4bf5 013e eef6 7b3c 66b2 3abe 0cf5 9fbd
00000200: 5f18 23be 93b5 813d eb60 0dbe 5df1 b4bd
00000210: f973 413c a27b c63c ecf2 63bd 334a 20bd
00000220: 66b5 fcba c639 133e 531d e6bb 1473 eabd
00000230: a9e3 d9bd bf91 a03d 141f 09be b720 3e3e
00000240: 542d 16bc 92f0 943d 86f6 e83d a613 483d
00000250: 714f b33b 724f 13be c465 033e 14bd 683c
00000260: ce15 9dbd 4225 f1bc 9b2a 153d 5f59 f03d
00000270: 6693 833d 1857 083e f538 34bc 2460 7cbd
00000280: d25f 19be eb7b 233d 4b8a 143e 94b4 c63d
00000290: 4020 2d3d 68d0 ff3d df93 b73d 1efe 86bd
000002a0: 387b 90bc 1f18 c3bc df73 16bc aaaa 593d
000002b0: 1b54 e33d 99aa 203d 3cf0 1b3d c329 d73d
000002c0: bc18 9abd 96e0 cabc ab77 edbd e2a1 1fbe
000002d0: 7d5e 283e a44f 133e 50f2 493e 2be0 293e
000002e0: bf2d 9d3d 2f27 21be 6837 a33d 41ef efbc
000002f0: 6351 cd3c cddd 163e 4df0 b13b 0201 aebd
00000300: 1126 0a3e 3c21 853d ecfb 27be 3000 c2bd
00000310: 2997 94bd f42d 6dbd 635e ebbd 6e83 9e3c
00000320: d079 4a3e d071 a13c 63c1 4cbd b5c4 243e
00000330: 31ad 06be 30bd 09be eb6f c8bd 4318 3fbd
00000340: 354e e73c 6e48 7dbd 0bd2 523d bf1c a9bd
00000350: 4d7c e93d 4d8c 10bd f464 bebb 0b0b a13d
00000360: e3f7 95bd 9713 18bc 1f62 fbbc ab7f 883d
00000370: 35ff bfbd 0903 4ebc 5e0a 2f3e 439b 8b3d
00000380: 6ae6 b33c b607 30be ade3 173e be11 963d
00000390: 602c 443a 4b7f 0bbe bfa2 b8bc 7541 28bd
000003a0: 8881 79bd 4b4e 193e 6694 953d 11cc 1a3d
000003b0: 1390 b2bd e198 993d 0bda 22be 1eac ea3d
000003c0: a731 28bd f4bd a53c 465c 39be 23a0 523d
000003d0: 83e1 27be 0d5c 313e 607f aa3c b663 863d
000003e0: f7fe db3d 80aa 363d f3ac 893d bd67 013c
000003f0: f5b7 933d e62e 193e 7065 bcbd 4553 0cbe

gru.weight_hh_l0 f4 [192, 64]
0.043220397 -0.0009834087 -0.22611302 0.02359883 -0.14209327 -0.0860247 -0.011360024 -0.10987635
0.005572436 -0.054543685 -0.037846938 -0.0444794 0.008878426 0.04612778 -0.07436178 -0.046557568
0.055008188 0.027865974 -0.117683396 0.13992776 0.03888732 -0.14024334 -0.11148939 0.06293315
0.04861933 0.05501068 0.011404135 0.012525388 0.07751852 -0.024474569 -0.06183458 0.002674022
0.040260658 0.01605933 -0.0048539867 0.06555168 -0.009657993 -0.08565619 0.007747349 0.04226881
0.021732831 -0.029615624 -0.023105957 0.023357064 0.018793147 0.032654192 0.10457599 -0.053420104
0.03172847 -0.12104185 0.061983723 0.087625474 -0.085352756 -0.059360016 0.03973916 -0.0625373
0.036774863 -0.014048904 0.11054134 0.010796835 0.10162975 0.07244113 0.055914912 0.070779294
-0.063442126 0.002098481 0.06698698 -0.038659126 0.0270477 0.024861794 -0.008890151 0.084174134
-0.034424007 0.06748516 -0.08590749 -0.008962862 -0.113882095 0.045355484 -0.10302078 0.065964386
-0.12625584 -0.010098574 0.08276368 0.07634783 0.11735854 -0.007923847 -0.026663689 0.03770911
0.026717834 -0.005948165 -0.041238483 -0.058306795 -0.07925091 0.016842065 0.020699028 -0.10119551
-0.11640575 0.038085576 0.19500361 -0.035459097 0.079028115 -0.09350583 -0.063751385 -0.011193231
-0.028819364 0.0010724693 0.12952366 0.06336725 0.006393274 -0.10948293 0.18444821 0.0032662328
0.02586995 -0.021152006 0.019858373 -0.15272655 0.030554805 0.06327189 -0.119467065 0.0114738345
-0.12251068 -0.03075701 0.027777124 0.0829388 -0.016749153 -0.006656296 0.031721663 0.056303475
0.063191764 -0.05629716 -0.033649456 -0.063230336 0.14546527 0.0819685 -0.02431307 0.041387744
-0.05292655 0.10767682 -0.012775142 0.005883673 -0.010080958 0.11861777 0.06439795 0.03664787
-0.130326 0.05177036 -0.0010076155 -0.08846251 0.050343625 0.026017573 -0.11775626 -0.06107544
0.048715767 -0.050739966 0.05463338 -0.06474457 0.100997604 -0.046998817 -0.09584861 0.014401169
-0.052337747 0.022295138 0.08944752 0.0775532 -0.006803783 0.009930991 0.036548518 -0.084306605
0.06109944 -0.011028535 -0.0077616265 0.0648493 -0.050674353 -0.07040616 0.07020458 0.08562989
-0.012373468 0.061099336 -0.030301431 -0.005344827 0.031566706 0.21473712 -0.072063975 -0.066934116
-0.05412165 -0.12077132 0.041593187 -0.041563988 -0.05577846 0.100200996 -0.0026246163 -0.033171862
0.032139298 -0.11064249 0.049366135 0.012676533 0.07833838 0.029570356 -0.00053845457 -0.12259189
0.0925189 0.019244466 0.019481601 -0.032091945 0.035469573 -0.10187233 -0.012701387 0.03355652
-0.06933625 -0.002175379 0.1285446 -0.0070587625 0.0804939 0.14328404 -0.017580124 -0.14959547
0.04434591 -0.023357164 -0.11711299 -0.0047104377 -0.07146336 0.10663183 0.123230964 0.0199763
0.015521626 0.12690629 0.103746854 0.0073392405 -0.048091013 0.039063085 -0.036203682 -0.03864449
-0.11908228 0.086464174 0.020808404 0.033260297 -0.052818667 0.058256537 0.039557345 -0.11187107
0.07154193 0.077697255 -0.030977655 0.051225614 -0.07184196 -0.0042965934 0.090642884 -0.13412696
-0.13741829 -0.0079728775 0.039407168 0.07701052 -0.06482887 -0.10122263 -0.024401953 0.0055003297
00000000: df07 313d b8e5 80ba 2c8a 67be 5552 c13c
00000010: e680 11be b82d b0bd 651f 3abc da06 e1bd
00000020: fb98 b63b 3369 5fbd 6405 1bbd 0830 36bd
00000030: d176 113c 7cf0 3c3d fd4a 98bd 26b3 3ebd
00000040: 4450 613d 2f47 e43c fe03 f1bd 3949 0f3e
00000050: 4f48 1f3d f39b 0fbe 8d54 e4bd 18e3 803d
00000060: 1025 473d e152 613d 69d8 3a3c 4937 4d3c
00000070: 08c2 9e3d e47e c8bc 4246 7dbd a53e 2f3b
00000080: 5ce8 243d db8e 833c 310e 9fbb f63f 863d
00000090: 8f3c 1ebc 836c afbd 79dd fd3b 0f22 2d3d
000000a0: 0d09 b23c 779c f2bc b448 bdbc 5057 bf3c
000000b0: 16f4 993c 67c0 053d f02b d63d 0acf 5abd
000000c0: b6f5 013d cae4 f7bd a5e2 7d3d fc74 b33d
000000d0: 6dcd aebd 7d23 73bd 88c5 223d 8e13 80bd
000000e0: 3da1 163d 602d 66bc 8063 e23d 35e5 303c
000000f0: 4223 d03d 045c 943d 0907 653d bcf4 903d
00000100: f2ed 81bd ab86 093b 7830 893d 0859 1ebd
00000110: 2393 dd3c f6aa cb3c ffa7 11bc 7d63 ac3d
00000120: 3000 0dbd a935 8a3d 44f0 afbd f8d8 12bc
00000130: 043b e9bd acc6 393d 8ffc d2bd 5618 873d
00000140: 3649 01be 7d74 25bc 0180 a93d 405c 9c3d
00000150: ad59 f03d 06d3 01bc cf6d dabc de74 1a3d
00000160: 5cdf da3c d3e8 c2bb afe9 28bd 1bd3 6ebd
00000170: 4d4e a2bd 5ff8 893c 0291 a93c 973f cfbd
00000180: 2366 eebd 9fff 1b3d 07af 473e 8f3d 11bd
00000190: 7ed9 a13d fc7f bfbd 1690 82bd d063 37bc
000001a0: 9616 ecbc 1992 8c3a daa1 043e b0c6 813d
000001b0: ab7e d13b 9638 e0bd fedf 3c3e 4b0e 563b
000001c0: 38ed d33c f946 adbc 07ae a23c 5964 1cbe
000001d0: 124e fa3c b194 813d 26ab f4bd c0fc 3b3c
000001e0: e1e6 fabd 20f6 fbbc da8c e33c d1db a93d
000001f0: 8535 89bc 0f1d dabb 93ee 013d 799e 663d
00000200: af6a 813d da97 66bd 03d4 09bd e87e 81bd
00000210: d9f4 143e 1adf a73d 342c c7bc 3286 293d
00000220: 83c9 58bd aa85 dc3d d44e 51bc d4cb c03b
00000230: 9a2a 25bc e0ed f23d 13e3 833d 141c 163d
00000240: 2e74 05be 280d 543d f711 84ba d52b b5bd
00000250: 1e35 4e3d ce22 d53c 322a f1bd 3e2a 7abd
00000260: 2f8a 473d b6d4 4fbd 40c7 5f3d cd98 84bd
00000270: d5d7 ce3d d581 40bd 474c c4bd e1f2 6b3c
00000280: 1b60 56bd 4ba4 b63c 4330 b73d 36d4 9e3d
00000290: 45f2 debb 98b5 223c e6b3 153d f1a8 acbd
000002a0: 6843 7a3d 07b1 34bc 3e55 febb b6cf 843d
000002b0: e98f 4fbd 1b31 90bd 6bc7 8f3d b95e af3d
000002c0: 16ba 4abc 4c43 7a3d b53a f8bc a923 afbb
000002d0: 174c 013d 0ce4 5b3e 4796 93bd c114 89bd
000002e0: aaae 5dbd f456 f7bd 9e5d 2a3d 003f 2abd
000002f0: f477 64bd 2e36 cd3d c101 2cbb 38df 07bd
00000300: 7fa4 033d 8898 e2bd 2534 4a3d 3cb1 4f3c
00000310: df6f a03d 883d f23c 1327 0dba 7511 fbbd
00000320: 8d7a bd3d 92a6 9d3c e197 9f3c d872 03bd
00000330: 8b48 113d 71a2 d0bd 7a19 50bc 9072 093d
00000340: 2a00 8ebd ce90 0ebb 32a1 033e 314d e7bb
00000350: fcd9 a43d 0db9 123e 3104 90bc 8e2f 19be
00000360: 0fa4 353d 8657 bfbc efd8 efbd 045a 9abb
00000370: 625b 92bd ca61 da3d 8460 fc3d 56a5 a33c
00000380: 6b4e 7e3c b9f3 013e 3b79 d43d 037e f03b
00000390: 15fb 44bd 9d00 203d 504a 14bd af49 1ebd
000003a0: 69e1 f3bd 2114 b13d 6376 aa3c f33b 083d
000003b0: 6358 58bd 689e 6e3d e206 223d a91c e5bd
000003c0: 9384 923d bd1f 9f3d dac4 fdbc f3d1 513d
000003d0: e121 93bd 70ca 8cbb faa2 b93d 9458 09be
000003e0: 61b7 0cbe aca0 02bc 6969 213d b1b7 9d3d
000003f0: 00c5 84bd cf4d cfbd 9be6 c7bc 1c3c b43b

gru.bias_ih_l0 f4 [192]
-0.00991586 0.027184483 0.01797101 0.03718539 0.031249221 0.007883665 -0.0070665465 0.017124765
0.028865322 0.032489136 0.011148342 0.0006573869 0.029682798 0.03621179 -0.020281699 0.032140426
0.04124674 0.009007825 0.017172132 0.0039276388 -0.00644188 0.030122789 0.0016141675 0.033986963
0.029087432 0.03577511 0.03644923 0.031373665 0.02377243 0.009111348 0.015926506 0.035839774
0.013210632 0.038528956 0.033943668 0.03072839 0.018803557 0.010541357 0.006630876 0.027926272
0.018507276 -0.0014341095 -0.0248033 0.0059396876 0.00948184 0.014155536 0.014930171 0.023026738
0.018632058 0.03147067 0.015325631 0.020804899 0.02432604 -0.041481674 0.034701817 -0.014999055
0.02295658 0.026312158 0.0006381617 -0.0012345954 -0.021666113 -0.024418248 0.031498563 0.0043985327
0.040969256 0.019264093 0.031439643 0.0010280332 -0.050464857 -0.0028930572 0.010255377 -0.02981285
-0.017317703 0.018462112 -0.02472093 -0.010540182 -0.016631313 -0.044434734 -0.012647339 -0.0023857597
-0.009697799 0.029191922 0.022748822 0.020240378 -0.014093516 -0.042916525 -0.021899305 0.022236593
-0.0062919743 0.014771888 -0.0013818459 -0.030471222 0.037251923 0.034550916 0.006505095 -0.038572438
-0.031040113 -0.008999503 -0.03763404 -0.029843338 -0.0023326038 -0.039163068 -0.0129856495 0.005195419
0.029368509 0.01235881 0.020521922 -0.019704038 0.03979245 -0.0060683847 0.039972764 0.037955593
0.013619848 0.00797156 0.038763404 0.035869204 -0.020527845 -0.01966362 0.015421116 -0.04503957
0.01567402 0.040249158 0.021895487 0.032128893 0.06099497 0.017080778 0.054788254 0.0074712406
-0.0032419572 -0.011390335 0.0033342727 -0.0025804706 -0.016639762 -0.0030862442 0.011026442 -0.010501851
-0.0064428914 -0.015067644 0.007369696 -0.017899279 -0.029170115 0.008588416 -0.009521659 0.008240395
-0.031884763 -0.010085264 0.0036870146 -0.0037065311 0.011931864 -0.0072077955 0.04740962 -0.00027679614
0.01197175 -0.007834311 -0.012539497 -0.009059938 -0.0043212245 0.0026746953 -0.011195163 -0.018947247
0.006884056 0.009839049 -0.004591834 0.012063061 -0.011680471 0.0008254314 0.027382871 -0.0030666126
0.0057567083 0.024904408 0.0063015954 0.00066093507 -0.01731466 -0.010304723 0.0009858274 0.013554861
-0.0018300682 -0.028147317 -0.011255711 -0.0049614995 -0.006847103 -0.02047064 0.008464925 0.00041151186
0.012746589 -0.011278989 -0.015750583 0.0008214128 -0.015577668 -0.008811872 0.007336686 0.010952506
00000000: 2276 22bc feb1 de3c f137 933c b54f 183d
00000010: 5efe ff3c 7d2a 013c 7d8e e7bb 3c49 8c3c
00000020: f876 ec3c 5413 053d 89a7 363c 7d54 2c3a
00000030: 5729 f33c d052 143d ce25 a6bc aea5 033d
00000040: 57f2 283d 8e95 133c 92ac 8c3c 6cb3 803b
00000050: 6816 d3bb 11c4 f63c 7992 d33a ea35 0b3d
00000060: c448 ee3c ec88 123d ca4b 153d ac81 003d
00000070: 66be c23c c347 153c 4e78 823c bacc 123d
00000080: 6871 583c 8ad0 1d3d 8408 0b3d 1bba fb3c
00000090: eb09 9a3c a8b5 2c3c d247 d93b a3c5 e43c
000000a0: 929c 973c bbf8 bbba 4a30 cbbc b6a1 c23b
000000b0: b859 1b3c 9fec 673c ad9d 743c 92a2 bc3c
000000c0: 42a2 983c 64e7 003d 5b18 7b3c 096f aa3c
000000d0: 6747 c73c b0e8 29bd 7e23 0e3d 99be 75bc
000000e0: 700f bc3c 988c d73c 4f4a 273a 26d2 a1ba
000000f0: 227d b1bc c708 c8bc a304 013d 9121 903b
00000100: 61cf 273d bbcf 9d3c dbc6 003d 12bf 863a
00000110: 3db4 4ebd 7299 3dbb 2b06 283c 143a f4bc
00000120: dbdd 8dbc db3d 973c 8c83 cabc bab0 2cbc
00000130: 643e 88bc 3201 36bd c936 4fbc 685a 1cbb
00000140: 84e3 1ebc e623 ef3c bd5b ba3c 26cf a53c
00000150: 7ee8 66bc 3dc9 2fbd 2c66 b3bc 8429 b63c
00000160: e82c cebb ca05 723c 0e1f b5ba c99e f9bc
00000170: 7995 183d 4385 0d3d b128 d53b 22fe 1dbd
00000180: d647 febc a772 13bc 2726 1abd 047a f4bc
00000190: 99de 18bb 7469 20bd c3c1 54bc 553e aa3b
000001a0: 3a96 f03c 9b7c 4a3c 971d a83c 5d6a a1bc
000001b0: 68fd 223d 4dd9 c6bb 7bba 233d 5377 1b3d
000001c0: c825 5f3c 259b 023c 60c6 1e3d 96eb 123d
000001d0: 032a a8bc 9a15 a1bc d9a8 7c3c 6a7b 38bd
000001e0: cd66 803c 4ddc 243d 2a5e b33c 9699 033d
000001f0: ddd5 793d fdec 8b3c a669 603d 4fd1 f43b
00000200: 0477 54bb 879e 3abc d083 5a3b 1d1d 29bb
00000210: 1c50 88bc 9642 4abb 40a8 343c f50f 2cbc
00000220: e41e d3bb 48de 76bc 7e7d f13b 82a1 92bc
00000230: 2af6 eebc 6db6 0c3c bc00 1cbc b902 073c
00000240: 9999 02bd aa3c 25bc d7a1 713b 46e9 72bb
00000250: dd7d 433c 5f2f ecbb 9730 423d f31e 91b9
00000260: 2925 443c 7b5b 00bc 7672 4dbc 2270 14bc
00000270: 0f99 8dbb f149 2f3b eb6b 37bc 4237 9bbc
00000280: a693 e13b f633 213c 1877 96bb 25a4 453c
00000290: 725f 3fbc c361 583a 0b52 e03c 39f9 48bb
000002a0: c5a2 bc3b 5404 cc3c 9d7d ce3b 9a42 2d3a
000002b0: 79d7 8dbc 24d5 28bc e136 813a 3515 5e3c
000002c0: e6de efba 3495 e6bc e069 38bc 1394 a2bb
000002d0: aa5d e0bb 0bb2 a7bc 78b0 0a3c 30c0 d739
000002e0: 12d7 503c 82cb 38bc 5e07 81bc 1454 573a
000002f0: 7a39 7fbc ac5f 10bc 9568 f03b 2472 333c

gru.bias_hh_l0 f4 [192]
-0.00991586 0.027184483 0.01797101 0.03718539 0.031249221 0.007883665 -0.0070665465 0.017124765
0.028865322 0.032489136 0.011148342 0.0006573869 0.029682798 0.03621179 -0.020281699 0.032140426
0.04124674 0.009007825 0.017172132 0.0039276388 -0.00644188 0.030122789 0.0016141675 0.033986963
0.029087432 0.03577511 0.03644923 0.031373665 0.02377243 0.009111348 0.015926506 0.035839774
0.013210632 0.038528956 0.033943668 0.03072839 0.018803557 0.010541357 0.006630876 0.027926272
0.018507276 -0.0014341095 -0.0248033 0.0059396876 0.00948184 0.014155536 0.014930171 0.023026738
0.018632058 0.03147067 0.015325631 0.020804899 0.02432604 -0.041481674 0.034701817 -0.014999055
0.02295658 0.026312158 0.0006381617 -0.0012345954 -0.021666113 -0.024418248 0.031498563 0.0043985327
0.040969256 0.019264093 0.031439643 0.0010280332 -0.050464857 -0.0028930572 0.010255377 -0.02981285
-0.017317703 0.018462112 -0.02472093 -0.010540182 -0.016631313 -0.044434734 -0.012647339 -0.0023857597
-0.009697799 0.029191922 0.022748822 0.020240378 -0.014093516 -0.042916525 -0.021899305 0.022236593
-0.0062919743 0.014771888 -0.0013818459 -0.030471222 0.037251923 0.034550916 0.006505095 -0.038572438
-0.031040113 -0.008999503 -0.03763404 -0.029843338 -0.0023326038 -0.039163068 -0.0129856495 0.005195419
0.029368509 0.01235881 0.020521922 -0.019704038 0.03979245 -0.0060683847 0.039972764 0.037955593
0.013619848 0.00797156 0.038763404 0.035869204 -0.020527845 -0.01966362 0.015421116 -0.04503957
0.01567402 0.040249158 0.021895487 0.032128893 0.06099497 0.017080778 0.054788254 0.0074712406
-0.005290891 -0.010709856 0.0068683387 -0.004944517 -0.011523991 -0.0042381613 0.0064972234 -0.007694202
-0.0066992408 -0.015269187 0.013146607 -0.020042533 -0.021582186 0.007137901 -0.008819809 0.014057508
-0.032503437 -0.010266568 0.004216611 -0.0027635437 0.016773472 -0.003207075 0.051361833 -0.009957935
0.008687067 -0.01257196 -0.010642472 -0.0072620446 -0.004490246 0.0044038626 -0.008448076 -0.020379487
-0.0061022234 0.01217656 -0.009299927 0.009408337 -0.02070622 0.015181519 0.024544626 -0.00027496344
0.0060745524 0.024672577 0.003879176 -0.0038699715 -0.012969387 -0.009372753 0.0055216393 0.016070303
-0.0051882514 -0.034718383 -0.01629662 -0.011119563 -0.0021655173 -0.015757103 0.0031430435 -0.00217154
0.008382502 -0.008742534 -0.015850946 -0.005548243 -0.0102865165 -0.0066474793 0.004234682 0.0012677887
00000000: 2276 22bc feb1 de3c f137 933c b54f 183d
00000010: 5efe ff3c 7d2a 013c 7d8e e7bb 3c49 8c3c
00000020: f876 ec3c 5413 053d 89a7 363c 7d54 2c3a
00000030: 5729 f33c d052 143d ce25 a6bc aea5 033d
00000040: 57f2 283d 8e95 133c 92ac 8c3c 6cb3 803b
00000050: 6816 d3bb 11c4 f63c 7992 d33a ea35 0b3d
00000060: c448 ee3c ec88 123d ca4b 153d ac81 003d
00000070: 66be c23c c347 153c 4e78 823c bacc 123d
00000080: 6871 583c 8ad0 1d3d 8408 0b3d 1bba fb3c
00000090: eb09 9a3c a8b5 2c3c d247 d93b a3c5 e43c
000000a0: 929c 973c bbf8 bbba 4a30 cbbc b6a1 c23b
000000b0: b859 1b3c 9fec 673c ad9d 743c 92a2 bc3c
000000c0: 42a2 983c 64e7 003d 5b18 7b3c 096f aa3c
000000d0: 6747 c73c b0e8 29bd 7e23 0e3d 99be 75bc
000000e0: 700f bc3c 988c d73c 4f4a 273a 26d2 a1ba
000000f0: 227d b1bc c708 c8bc a304 013d 9121 903b
00000100: 61cf 273d bbcf 9d3c dbc6 003d 12bf 863a
00000110: 3db4 4ebd 7299 3dbb 2b06 283c 143a f4bc
00000120: dbdd 8dbc db3d 973c 8c83 cabc bab0 2cbc
00000130: 643e 88bc 3201 36bd c936 4fbc 685a 1cbb
00000140: 84e3 1ebc e623 ef3c bd5b ba3c 26cf a53c
00000150: 7ee8 66bc 3dc9 2fbd 2c66 b3bc 8429 b63c
00000160: e82c cebb ca05 723c 0e1f b5ba c99e f9bc
00000170: 7995 183d 4385 0d3d b128 d53b 22fe 1dbd
00000180: d647 febc a772 13bc 2726 1abd 047a f4bc
00000190: 99de 18bb 7469 20bd c3c1 54bc 553e aa3b
000001a0: 3a96 f03c 9b7c 4a3c 971d a83c 5d6a a1bc
000001b0: 68fd 223d 4dd9 c6bb 7bba 233d 5377 1b3d
000001c0: c825 5f3c 259b 023c 60c6 1e3d 96eb 123d
000001d0: 032a a8bc 9a15 a1bc d9a8 7c3c 6a7b 38bd
000001e0: cd66 803c 4ddc 243d 2a5e b33c 9699 033d
000001f0: ddd5 793d fdec 8b3c a669 603d 4fd1 f43b
00000200: 365f adbb 6478 2fbc cd0f e13b 9d05 a2bb
00000210: 1fcf 3cbc 46e0 8abb a9e6 d43b a51f fcbb
00000220: 4e85 dbbb 9d2b 7abc de64 573c 3d30 a4bc
00000230: 20cd b0bc 0ee5 e93b f680 10bc 7651 663c
00000240: 5322 05bd 1b35 28bc 7f2b 8a3b 921c 35bb
00000250: 8568 893c ca2d 52bb c960 523d 9b26 23bc
00000260: 3354 0e3c 9ffa 4dbc c35d 2ebc 72f6 edbb
00000270: ea22 93bb 474e 903b cd69 0abc e2f2 a6bc
00000280: 29f5 c7bb 3280 473c b95e 18bc 6d25 1a3c
00000290: 17a0 a9bc e8bb 783c d011 c93c f828 90b9
000002a0: 0a0d c73b 251e ca3c c639 7e3b 599f 7dbb
000002b0: 8d7d 54bc 2d90 19bc deee b43b dea5 833c
000002c0: 3502 aabb dd34 0ebd 7d80 85bc d42e 36bc
000002d0: 5aeb 0dbb 0a15 81bc 85fb 4d3b 6550 0ebb
000002e0: c356 093c d83c 0fbc d8d9 81bc 09ce b5bb
000002f0: c788 28bc 19d3 d9bb 16c3 8a3b ee2b a63a

gru.weight_ih_l0_reverse f4 [192, 29]
-0.09378805 0.0966684 -0.19966133 -0.19211859 -0.0044520968 -0.18934892 -9.829889e-05 -0.09405183
0.07195454 0.021422552 0.010312134 -0.11466165 -0.18146305 -0.0202661 0.03200342 0.03307662
0.036603883 0.010556806 0.021164166 0.108120196 0.20656191 -0.05878617 -0.2237137 -0.095144875
-0.100062095 -0.2326091 -0.08635911 0.04316244 -0.104613654 -0.04270785 -0.13935222 -0.221163
-0.0721414 -0.0076653245 0.09625773 0.06225897 0.11191045 -0.118655585 -0.108899705 0.06263934
0.09720279 -0.13691686 -0.045142952 -0.17024855 -0.0063535566 0.12604979 0.020745756 0.1478192
0.09697535 0.17167214 -0.12933497 -0.1974924 0.03000793 0.17230451 0.07731696 0.11852208
-0.061077576 0.044976316 0.16305213 0.026176855 -0.00010129374 0.053336553 0.0808679 -0.095842175
0.09176403 -0.0832399 0.15586247 -0.00028105275 -0.1760563 0.07883952 -0.06721089 0.021004908
-0.15449253 -0.11405453 0.05547563 0.122696035 -0.11430117 0.045309115 0.106615715 -0.085054256
0.102869086 -0.13986115 -0.082500234 -0.1922178 -0.045183938 -0.102666706 -0.0018023982 0.072835565
-0.007839626 -0.111551434 -0.15328744 0.047422122 -0.1494417 -0.13077527 -0.011609347 0.14422014
-0.030443776 -0.07336672 0.065985546 0.07454865 -0.056040447 -0.07272402 -0.030225301 0.14612934
-0.023427442 0.12908876 -0.159053 0.18743543 -0.014328105 0.007329424 0.060873363 0.16110693
-0.14119643 0.056112114 -0.07734777 0.07921179 0.017274115 -0.14798912 -0.18106936 0.05219566
-0.06683649 0.14303096 0.15570286 0.15814978 -0.122715764 -0.03258899 0.1331301 -0.1431421
0.059321657 -0.013684029 -0.12164342 -0.079168476 -0.012006034 0.16540931 -0.13259572 -0.06825956
0.10187342 0.0313761 0.07811697 -0.061965715 -0.023537852 -0.06473262 -0.041112524 0.033129573
-0.14985733 0.13460775 0.034934316 -0.024676032 -0.0071971617 0.039282512 0.13211156 0.07651058
0.17069308 -0.15665424 0.14607088 0.060240373 -0.03457584 0.044964753 -0.13074358 0.0012260511
0.07152134 0.20173295 0.08448942 0.14349994 -0.1109626 0.049337782 0.13416675 -0.07543687
-0.025758792 0.0010367157 -0.07094743 -0.079866745 -0.10327211 -0.09072421 0.12361726 0.14118221
-0.022445407 -0.07716926 -0.0035572567 -0.121992126 -0.13462244 -0.1283049 0.11488015 -0.12766631
0.09051915 -0.07014907 -0.058342554 0.14086688 0.10058804 0.048353393 0.24758561 0.0035487833
0.09708851 0.07580933 0.1740397 0.062061664 -0.15395296 -0.055725075 0.05056106 0.03831984
0.20325631 0.121085525 -0.015941933 0.06991464 -0.14405566 0.07785904 -0.11442378 -0.03523316
-0.0149984 0.15192443 -0.019241638 -0.053999964 0.104853 -0.031075794 -0.04891283 0.1393591
-0.20103078 -0.10518786 -0.082885705 0.0073325946 0.12949196 0.0119430665 -0.11141638 -0.03032825
0.21502602 -0.096243076 -0.12496383 -0.047927745 -0.07797898 0.17550826 -0.057843965 -0.025698818
0.21173427 -0.09824721 0.05236649 -0.16401416 -0.036595725 0.017982893 -0.033350337 0.16957545
-0.005867763 0.14955184 0.08031914 0.0380647 0.03486993 0.078446545 0.11658953 0.1307929
-0.09217185 -0.16420266 -0.0670232 0.15292716 0.011969759 -0.029128049 0.03596715 -0.054670878
00000000: f313 c0bd 15fa c53d 0574 4cbe bcba 44be
00000010: e5e2 91bb afe4 41be d125 ceb8 3f9e c0bd
00000020: e75c 933d 597e af3c 3af4 283c bad3 eabd
00000030: 73d1 39be 1805 a6bc 0516 033d 5a7b 073d
00000040: f4ed 153d 74f6 2c3c 7960 ad3c 1f6e dd3d
00000050: f784 533e c4c9 70bd 3415 65be 51db c2bd
00000060: 5bed ccbd 1431 6ebe 0cdd b0bd 19cb 303d
00000070: af3f d6bd 6dee 2ebd 59b2 0ebe 8e78 62be
00000080: dfbe 93bd 672d fbbb c622 c53d 4303 7f3d
00000090: 4e31 e53d b301 f3bd cf06 dfbd 0e49 803d
000000a0: 4212 c73d ef33 0cbe d1e7 38bd a355 2ebe
000000b0: 7f31 d0bb 3213 013e 01f3 a93c eb5d 173e
000000c0: 039b c63d d2ca 2f3e 6370 04be 733b 4abe
000000d0: 31d3 f53c 9870 303e 5b58 9e3d b4bb f23d
000000e0: 7b2c 7abd 1639 383d 23f7 263e d870 d63c
000000f0: aa6d d4b8 6e77 5a3d 129e a53d e748 c4bd
00000100: c8ee bb3d ae79 aabd 699a 1f3e 435a 93b9
00000110: 1a48 34be 9d76 a13d dda5 89bd 7c12 ac3c
00000120: 4a33 1ebe 6c95 e9bd 6a3a 633d 0f48 fb3d
00000130: bb16 eabd 0d96 393d 5759 da3d ed30 aebd
00000140: 07ad d23d c337 0fbe e2f5 a8bd bed4 44be
00000150: cb12 39bd ec42 d2bd 733e ecba d02a 953d
00000160: c671 00bc 1475 e4bd 62f7 1cbe b33d 423d
00000170: 3f07 19be f4e9 05be 2135 3ebc 72ae 133e
00000180: 3a65 f9bc 4a41 96bd 6e23 873d f6ac 983d
00000190: ab8a 65bd 55f0 94bd 0d9b f7bc eea2 153e
000001a0: e8ea bfbc d82f 043e cade 22be 13ef 3f3e
000001b0: 6ec0 6abc aa2b f03b 5956 793d 37f9 243e
000001c0: cc95 10be d1d5 653d 8268 9ebd ca39 a23d
000001d0: 7282 8d3c 768a 17be 3f6a 39be 1ecb 553d
000001e0: 92e1 88bd b576 123e 9270 1f3e 04f2 213e
000001f0: 6752 fbbd 087c 05bd 4253 083e d893 12be
00000200: 44fb 723d fa32 60bc 2f20 f9bd 1523 a2bd
00000210: f5b4 44bc 0f61 293e 2cc7 07be abcb 8bbd
00000220: 03a3 d03d 3a84 003d cafb 9f3d c3cf 7dbd
00000230: 74d2 c0bc 8992 84bd 9b65 28bd e0b2 073d
00000240: 3374 19be 9dd6 093e 4917 0f3d 6425 cabc
00000250: 2bd6 ebbb b3e6 203d 4148 073e 94b1 9c3d
00000260: 2bca 2e3e f869 20be 9b93 153e 9cbe 763d
00000270: 659f 0dbd f62c 383d a5e1 05be 73b3 a03a
00000280: c879 923d 1593 4e3e ca08 ad3d a6f1 123e
00000290: 5c40 e3bd 6a16 4a3d 0263 093e a57e 9abd
000002a0: 1a04 d3bc 68e2 873a e34c 91bd 2d91 a3bd
000002b0: 5480 d3bd 9dcd b9bd 0c2b fd3d 1292 103e
000002c0: 6edf b7bc eb0a 9ebd dd20 69bb 02d7 f9bd
000002d0: 77da 09be 5c62 03be 4946 eb3d f5ba 02be
000002e0: 1b62 b93d 51aa 8fbd 9af8 6ebd 683f 103e
000002f0: 1a01 ce3d 350e 463d 1587 7d3e b492 683b
00000300: 57d6 c63d ec41 9b3d 7737 323e 5f34 7e3d
00000310: d8a5 1dbe fa3f 64bd 1d19 4f3d 44f5 1c3d
00000320: 6c22 503e b0fb f73d a898 82bc 682f 8f3d
00000330: 5483 13be 8f74 9f3d 0457 eabd a550 10bd
00000340: d9bb 75bc 1492 1b3e a4a0 9dbc 112f 5dbd
00000350: 2bbd d63d aa92 febc d258 48bd 27b4 0e3e
00000360: 03db 4dbe bc6c d7bd fbbf a9bd 4346 f03b
00000370: 8a99 043e daac 433c 452e e4bd f372 f8bc
00000380: c82f 5c3e 171b c5bd 09ed ffbd e24f 44bd
00000390: 72b3 9fbd 70b8 333e cbed 6cbd 5486 d2bc
000003a0: ded0 583e d535 c9bd 3f7e 563d 54f3 27be
000003b0: 66e5 15bd dc50 933c 5d9a 08bd 30a5 2d3e
000003c0: 5d46 c0bb 1e24 193e 5c7e a43d bbe9 1b3d
000003d0: c6d3 0e3d 95a8 a03d 7ec6 ee3d 93ee 053e
000003e0: 98c4 bcbd be24 28be 7643 89bd f098 1c3e
000003f0: cf1c 443c f29d eebc 4a52 133d 92ee 5fbd

gru.weight_hh_l0_reverse f4 [192, 64]
0.115277685 -0.12037846 0.06943897 0.18785203 -0.092589274 -0.08845189 -0.04835888 0.16404516
-0.048822094 0.031097934 0.00065596186 0.006043457 0.09121303 0.13993654 0.06059666 0.03983426
-0.08485825 0.005344892 -0.04898521 -0.1679902 0.076165594 0.12152855 0.043378603 -0.046620227
0.048047625 -0.13071628 -0.0022106655 -0.054891627 0.1355644 -0.01918696 -0.110117346 0.013814237
0.11865216 -0.16241775 0.053967927 -0.012930275 0.06731274 -0.043798894 0.06790308 0.03996742
-0.05660371 -0.081059895 0.1868609 0.10202171 -0.059853878 0.1204379 -0.005304949 0.0773378
-0.23642887 0.07684421 0.033376545 0.032362796 0.1022819 -0.06617205 -0.10749201 -0.037767198
0.015326074 -0.017205214 0.04781456 -0.074760675 -0.03033398 -0.0055170194 0.054786652 -0.1356834
0.19669442 0.007819573 0.045756113 0.07452695 -0.08468083 -0.2792137 -0.15073131 -0.012264574
0.10530004 0.02244941 0.21933176 0.030325174 -0.0400168 -0.012089662 0.11089145 -0.04597849
-0.050624657 0.007067273 -0.003880843 -0.07126742 0.10874476 0.035955388 0.08281299 -0.042770866
0.15803033 -0.012864625 0.009917825 0.027401851 0.064295106 0.09332199 0.08335598 0.116153196
0.13516445 0.025676139 0.098060526 -0.0785872 -0.0025101355 0.011782225 -0.08068733 -0.030061819
-0.075653 -0.24583417 0.1970367 0.06772039 -0.09086175 -0.005869253 -0.08826188 -0.11985926
-0.032102924 0.009214579 -0.0049077664 0.007899395 0.08881911 -0.005258753 -0.18608479 -0.085122205
-0.034913823 -0.013768914 0.04398431 -0.14479063 -0.17086048 0.11625915 -0.037394315 0.096304335
-0.035102565 -0.005575994 0.07461337 -0.23702331 0.042581473 -0.1620887 -0.061255638 -0.043530993
-0.046247352 -0.005557019 0.0087563265 -0.04842317 0.0026761421 0.030286312 0.10029058 0.15399341
0.031935964 -0.118826084 0.07396713 -0.031618547 -0.04867773 -0.13311037 0.09015346 0.009594255
-0.029637981 0.0004539244 0.026582815 -0.10830352 0.050088737 -0.06371299 -0.0787202 0.029364882
0.050551508 0.07744706 -0.05340092 0.024998555 0.014886359 0.006557136 0.029708548 -0.07244029
-0.07334568 -0.098595195 0.13742617 -0.1541707 0.09031381 -0.013276145 -0.09319053 -0.03282203
-0.0002889129 0.05465462 0.1662201 0.110544905 -0.046638843 0.06377339 -0.030032948 -0.14092836
0.084545456 -0.0747618 -0.0046140417 0.074105635 0.01418984 -0.0934111 0.13157949 -0.012406398
0.05607667 -0.04597061 0.03864489 -0.033012804 -0.058825918 -0.0066670463 -0.049864184 0.069816105
0.09580379 -0.08663691 0.09188473 -0.2136727 -0.22371583 -0.08159928 0.051404916 0.054618206
-0.17438547 -0.0108564515 0.018348567 0.079048075 0.09159981 0.06946747 0.13946791 -0.0042166226
0.042577244 0.015224496 0.17271407 -0.049223382 0.1002889 0.040588614 0.039729834 0.16867271
0.11806286 0.010679704 0.09050914 0.047176573 -0.027862541 -0.03875119 0.022452336 -0.115946874
-0.13776165 -0.03613013 0.07037746 -0.03720505 -0.114060685 -0.02272657 -0.17572734 -0.24271776
-0.20284344 -0.005369904 0.19865839 -0.14982696 0.27505022 0.10171601 -0.08369798 -0.09683968
0.046661247 -0.058913924 -0.0204545 -0.048516538 -0.03438465 0.019380383 0.050358493 -0.037819117
00000000: b516 ec3d fb88 f6bd 0536 8e3d 485c 403e
00000010: 729f bdbd 4426 b5bd f613 46bd 74fb 273e
00000020: adf9 47bd 18c1 fe3c dbf4 2b3a 3108 c63b
00000030: e6cd ba3d 864b 0f3e 3434 783d 4029 233d
00000040: 2aca adbd 3424 af3b b7a4 48bd 9f05 2cbe
00000050: b5fc 9b3d f6e3 f83d c3ad 313d daf4 3ebd
00000060: 96cd 443d 7dda 05be d0e0 10bb 0bd6 60bd
00000070: 65d1 0a3e f92d 9dbc 3485 e1bd 1c55 623c
00000080: e7ff f23d d750 26be 790d 5d3d 81d9 53bc
00000090: 43db 893d 7866 33bd c510 8b3d e1b4 233d
000000a0: 4bd9 67bd bb02 a6bd 7758 3f3e c2f0 d03d
000000b0: 5729 75bd 25a8 f63d 23d5 adbb 4863 9e3d
000000c0: 691a 72be 7f60 9d3d d8b5 083d da8e 043d
000000d0: 2c79 d13d 3685 87bd c524 dcbd c7b1 1abd
000000e0: 371a 7b3c f3f1 8cbc 33d9 433d 201c 99bd
000000f0: f87e f8bc 1dc8 b4bb f867 603d 97f0 0abe
00000100: 436a 493e ab1d 003c c36a 3b3d 96a1 983d
00000110: 256d adbd 19f5 8ebe 4f59 1abe 5af1 48bc
00000120: 8ca7 d73d d3e7 b73c 8198 603e 806c f83c
00000130: a8e8 23bd b813 46bc 0e1b e33d f153 3cbd
00000140: cd5b 4fbd 9594 e73b be55 7ebb a7f4 91bd
00000150: 93b5 de3d f545 133d db99 a93d 8130 2fbd
00000160: b4d2 213e 26c6 52bc 607e 223c d979 e03c
00000170: 27ad 833d 991f bf3d 8ab6 aa3d bae1 ed3d
00000180: 8d68 0a3e c456 d23c f5d3 c83d 53f2 a0bd
00000190: 1681 24bb 3c0a 413c 663f a5bd 3444 f6bc
000001a0: f6ef 9abd f4bb 7bbe fdc3 493e fdb0 8a3d
000001b0: ba15 babd dd52 c0bb a5c2 b4bd c678 f5bd
000001c0: 5b7e 03bd bff8 163c 54d1 a0bb 776c 013c
000001d0: cbe6 b53d 9e51 acbb 038d 3ebe 8d54 aebd
000001e0: cc01 0fbd 0397 61bc e428 343d ff43 14be
000001f0: 0df6 2ebe 4719 ee3d c82a 19bd 353b c53d
00000200: b5c7 0fbd d4b6 b6bb e5ce 983d 3db6 72be
00000210: e969 2e3d 95fa 25be 31e7 7abd 8e4d 32bd
00000220: dd6d 3dbd a717 b6bb b276 0f3c 6057 46bd
00000230: 3762 2f3b 001b f83c 2665 cd3d 73b0 1d3e
00000240: 49cf 023d 175b f3bd 147c 973d 7382 01bd
00000250: 4d62 47bd 164e 08be 61a2 b83d 3931 1d3c
00000260: 5acb f2bc b4fc ed39 34c4 d93c 3cce ddbd
00000270: d929 4d3d f57b 82bd 0e38 a1bd 9f8e f03c
00000280: 190f 4f3d 909c 9e3d ecba 5abd c5c9 cc3c
00000290: eae5 733c 3edd d63b 575f f33c 935b 94bd
000002a0: 4336 96bd 47ec c9bd 72b9 0c3e edde 1dbe
000002b0: 72f6 b83d 3084 59bc adda bebd 6570 06bd
000002c0: 3c79 97b9 86dd 5f3d 9a35 2a3e 5e65 e23d
000002d0: 5f08 3fbd a09b 823d a807 f6bc 864f 10be
000002e0: 2b26 ad3d b71c 99bd 6331 97bb b2c4 973d
000002f0: 817c 683c 524e bfbd c6bc 063e 3444 4bbc
00000300: a6b0 653d ae4b 3cbd 1b4a 1e3d 6f38 07bd
00000310: 72f3 70bd 3d77 dabb 633e 4cbd bffb 8e3d
00000320: c734 c43d b16e b1bd 102e bc3d 04cd 5abe
00000330: c315 65be 861d a7bd f68d 523d 57b7 5f3d
00000340: 1b92 32be 42df 31bc bc4f 963c f5e3 a13d
00000350: ae98 bb3d f644 8e3d add0 0e3e 982b 8abb
00000360: 7a65 2e3d 2a70 793c f5db 303e 759e 49bd
00000370: 4464 cd3d 3f40 263d c0bb 223d 8ab8 2c3e
00000380: f1ca f13d edf9 2e3c db5c b93d 393c 413d
00000390: fc3f e4bc 91b9 1ebd f6ed b73c 8e75 edbd
000003a0: 6411 0dbe 30fd 13bd 0f22 903d 5364 18bd
000003b0: a698 e9bd 122d babc def1 33be 018b 78be
000003c0: 31b6 4fbe 05f6 afbb 1b6d 4b3e 3d6c 19be
000003d0: 62d3 8c3e 7c50 d03d d969 abbd e253 c6bd
000003e0: dd1f 3f3d ba4f 71bd 3290 a7bc 47b9 46bd
000003f0: ebd6 0cbd 9cc3 9e3c b544 4e3d 38e8 1abd

gru.bias_ih_l0_reverse f4 [192]
0.07557005 0.058726 0.03815037 0.06743818 0.016284814 0.030285707 0.052259095 0.0032739798
0.0008222361 0.020827252 0.0139784245 -0.025176473 -0.029526629 0.055166427 0.05721432 -0.0037659237
0.0033054017 0.119002014 0.049814146 0.022668356 0.061906554 0.027179217 0.033350524 0.08956556
-0.0059150415 -0.025154455 0.031165203 0.031960636 -0.00015131487 -0.031327575 -0.013326838 0.007890313
0.06230383 -0.047347732 0.04690593 -0.025995748 -0.005571699 -0.007899989 0.07284647 0.037554674
0.05496631 0.002577828 0.0005816265 0.09214092 0.03108983 0.016540019 0.019967604 0.015973767
-0.019195255 0.05208192 0.041984856 0.025470199 0.013984591 0.016117126 0.04578186 -0.0016796564
-0.008748082 0.03732767 0.049574073 0.02774234 0.013067823 0.03430481 -0.015029665 0.059129875
-0.057226505 0.01492543 0.015146033 -0.018990371 0.01260936 0.0045832177 -0.039150607 -0.026191857
-0.014363309 -0.004633342 -0.019547274 0.0031855197 -0.01825432 -0.038070776 -0.05271141 -0.027677083
-0.011856718 -0.024968956 -0.028485928 -0.030413598 0.007192632 -0.01010576 -0.007328667 -0.03521468
0.025355235 0.0066177016 -0.014532079 0.006327088 0.01773383 -0.034613915 -0.01995616 -0.025419097
-0.056006458 -0.0049515637 0.015077307 0.035726286 0.0010266348 0.006221072 0.0015617433 -0.0035299566
-0.0024332448 0.0072337682 -0.03758326 -0.023934523 -0.010546517 -0.0130526535 0.0015211371 -0.023942703
0.026980098 -0.03728651 -0.016134689 0.01274808 0.00674486 0.023646483 0.01656827 0.028401809
-0.022033872 0.013882954 -0.03593448 -0.0268351 -0.035394732 -0.022080062 -0.0118572125 -0.035001416
-0.012059792 0.00096884085 0.011372207 0.013867815 0.0011517763 0.0053687696 -0.0026145782 0.004383529
0.00033683967 -0.017476521 -0.009078407 0.021547839 -4.116317e-05 0.0070513543 0.00025329535 0.01022086
-0.015325402 0.00010363691 -0.0074780374 -0.0047265296 -0.019177772 -0.007191765 -0.0143496515 0.007852443
0.022546342 0.0057354867 -0.0026705589 0.0005422767 0.01555825 0.009505876 -0.0070246337 0.009726901
-0.010650566 0.012552236 0.0094484985 0.033646353 -0.022145808 0.0015247664 -0.019231515 0.021244856
-0.012774453 0.02696407 0.015752163 -0.006688611 -0.00260581 -0.013917697 -0.00030470136 -0.0074578975
0.00017049321 1.6861408e-05 0.009600482 -0.028491938 0.019583939 -0.0064994902 0.013445323 -0.01707511
0.010223131 0.017092837 0.019441338 0.010289544 0.013742647 -0.04492739 -0.01061068 -0.013278926
00000000: 78c4 9a3d ad8a 703d 9043 1c3d 071d 8a3d
00000010: bb67 853c bb19 f83c a20d 563d 4490 563b
00000020: 558b 573a ea9d aa3c c305 653c e43e cebc
00000030: d4e1 f1bc 31f6 613d 9059 6a3d b7cd 76bb
00000040: 709f 583b 54b7 f33d eb09 4c3d fdb2 b93c
00000050: ba91 7d3d f3a6 de3c 8f9a 083d 266e b73d
00000060: f7d2 c1bb b710 cebc 2b4e ff3c 28e9 023d
00000070: 47aa 1eb9 5851 00bd cf58 5abc 5f46 013c
00000080: 4d32 7f3d b2ef 41bd 6f20 403d 09f5 d4bc
00000090: cc92 b6bb f56e 01bc 8830 953d eed2 193d
000000a0: 5a24 613d c7f0 283b 4b78 183a 61b4 bc3d
000000b0: 19b0 fe3c ef7e 873c 1a93 a33c 6bdb 823c
000000c0: 5e3f 9dbc da53 553d 50f8 2b3d e1a6 d03c
000000d0: a01f 653c 1008 843c c285 3b3d eb27 dcba
000000e0: 1e54 0fbc e6e4 183d 2f0e 4b3d e743 e33c
000000f0: 6c1a 563c 3383 0c3d fc3e 76bc 2b32 723d
00000100: 5766 6abd ca89 743c 1127 783c b291 9bbc
00000110: 7d97 4e3c d12e 963b 635c 20bd 4e90 d6bc
00000120: 1654 6bbc 4ad3 97bb 9b21 a0bc 27c4 503b
00000130: 158a 95bc 1af0 1bbd ebe7 57bd 0dbb e2bc
00000140: ae42 42bc b28b ccbc 525b e9bc f025 f9bc
00000150: 2cb0 eb3b a192 25bc 5125 f0bb 453d 10bd
00000160: c8b5 cf3c 4ed9 d83b f517 6ebc 7653 cf3b
00000170: 8946 913c 52c7 0dbd 1a7b a3bc b63b d0bc
00000180: 0767 65bd ba40 a2bb cf06 773c ba55 123d
00000190: 2690 863a 22da cb3b 69b3 cc3a d856 67bb
000001a0: 1377 1fbb 3f09 ed3b e8f0 19bd 5512 c4bc
000001b0: 4ccb 2cbc ccda 55bc e460 c73a 7d23 c4bc
000001c0: 5e05 dd3c bdb9 18bd e52c 84bc 53dd 503c
000001d0: fd03 dd3b 45b6 c13c 2eba 873c e9aa e83c
000001e0: 6180 b4bc 5475 633c 0930 13bd 49d5 dbbc
000001f0: 11fa 10bd 3fe1 b4bc c144 42bc a55d 0fbd
00000200: 6f96 45bc cff9 7d3a 7e52 3a3c d535 633c
00000210: 33f7 963a 81ec af3b 5859 2bbb b5a3 8f3b
00000220: db99 b039 ec2a 8fbc 99bd 14bc 1885 b03c
00000230: 9ea6 2cb8 0c0f e73b bacc 8439 6575 273c
00000240: 6517 7bbc a457 d938 530a f5bb 01e1 9abb
00000250: b41a 9dbc e6a8 ebbb cd1a 6bbc 88a7 003c
00000260: 1bb3 b83c c0f0 bb3b 8b04 2fbb 9327 0e3a
00000270: 08e8 7e3c 89be 1b3c e62e e6bb 945d 1f3c
00000280: b67f 2ebc e5a7 4d3c e0cd 1a3c c2d0 093d
00000290: 206b b5bc acda c73a 698b 9dbc b109 ae3c
000002a0: f04b 51bc c1e3 dc3c ae0a 813c 232c dbbb
000002b0: 3dc6 2abb 0d07 64bc 53c0 9fb9 6161 f4bb
000002c0: 6cc6 3239 9971 8d37 574b 1d3c ed67 e9bc
000002d0: 7f6e a03c adf9 d4bb c649 5c3c 1ae1 8bbc
000002e0: eb7e 273c 4706 8c3c 7143 9f3c 7a95 283c
000002f0: d728 613c c805 38bd 6bd8 2dbc da8f 59bc

gru.bias_hh_l0_reverse f4 [192]
0.07557005 0.058726 0.03815037 0.06743818 0.016284814 0.030285707 0.052259095 0.0032739798
0.0008222361 0.020827252 0.0139784245 -0.025176473 -0.029526629 0.055166427 0.05721432 -0.0037659237
0.0033054017 0.119002014 0.049814146 0.022668356 0.061906554 0.027179217 0.033350524 0.08956556
-0.0059150415 -0.025154455 0.031165203 0.031960636 -0.00015131487 -0.031327575 -0.013326838 0.007890313
0.06230383 -0.047347732 0.04690593 -0.025995748 -0.005571699 -0.007899989 0.07284647 0.037554674
0.05496631 0.002577828 0.0005816265 0.09214092 0.03108983 0.016540019 0.019967604 0.015973767
-0.019195255 0.05208192 0.041984856 0.025470199 0.013984591 0.016117126 0.04578186 -0.0016796564
-0.008748082 0.03732767 0.049574073 0.02774234 0.013067823 0.03430481 -0.015029665 0.059129875
-0.057226505 0.01492543 0.015146033 -0.018990371 0.01260936 0.0045832177 -0.039150607 -0.026191857
-0.014363309 -0.004633342 -0.019547274 0.0031855197 -0.01825432 -0.038070776 -0.05271141 -0.027677083
-0.011856718 -0.024968956 -0.028485928 -0.030413598 0.007192632 -0.01010576 -0.007328667 -0.03521468
0.025355235 0.0066177016 -0.014532079 0.006327088 0.01773383 -0.034613915 -0.01995616 -0.025419097
-0.056006458 -0.0049515637 0.015077307 0.035726286 0.0010266348 0.006221072 0.0015617433 -0.0035299566
-0.0024332448 0.0072337682 -0.03758326 -0.023934523 -0.010546517 -0.0130526535 0.0015211371 -0.023942703
0.026980098 -0.03728651 -0.016134689 0.01274808 0.00674486 0.023646483 0.01656827 0.028401809
-0.022033872 0.013882954 -0.03593448 -0.0268351 -0.035394732 -0.022080062 -0.0118572125 -0.035001416
-0.0072329864 0.00054857467 0.012827729 0.01751537 0.002743521 0.008265608 -0.0017403739 0.0034964457
-0.0041691163 -0.019695561 -0.017237823 0.017086534 -0.0061411946 0.008065671 -0.0036427334 0.011805407
-0.017724939 0.0015494125 -0.010654641 -0.010702514 -0.021990286 -0.004882656 -0.016974913 0.006399484
0.020199208 0.009987195 -0.012169174 -0.0070992275 0.0123668965 0.010135944 -0.0040011075 0.015242819
-0.007184781 0.009557609 0.0113387825 0.030922854 -0.020309817 -0.004136317 -0.01219077 0.014984939
-0.014259317 0.024869682 0.016650127 -0.0051861107 -0.008486256 -0.017486498 -0.0049963887 -0.015950674
0.0034940862 -0.00081203773 0.009866982 -0.033562325 0.026871558 -0.0052535385 0.0110141095 -0.014082052
0.008114299 0.021842794 0.021151803 0.00856197 0.010758183 -0.01986299 -0.00961649 -0.011984444
00000000: 78c4 9a3d ad8a 703d 9043 1c3d 071d 8a3d
00000010: bb67 853c bb19 f83c a20d 563d 4490 563b
00000020: 558b 573a ea9d aa3c c305 653c e43e cebc
00000030: d4e1 f1bc 31f6 613d 9059 6a3d b7cd 76bb
00000040: 709f 583b 54b7 f33d eb09 4c3d fdb2 b93c
00000050: ba91 7d3d f3a6 de3c 8f9a 083d 266e b73d
00000060: f7d2 c1bb b710 cebc 2b4e ff3c 28e9 023d
00000070: 47aa 1eb9 5851 00bd cf58 5abc 5f46 013c
00000080: 4d32 7f3d b2ef 41bd 6f20 403d 09f5 d4bc
00000090: cc92 b6bb f56e 01bc 8830 953d eed2 193d
000000a0: 5a24 613d c7f0 283b 4b78 183a 61b4 bc3d
000000b0: 19b0 fe3c ef7e 873c 1a93 a33c 6bdb 823c
000000c0: 5e3f 9dbc da53 553d 50f8 2b3d e1a6 d03c
000000d0: a01f 653c 1008 843c c285 3b3d eb27 dcba
000000e0: 1e54 0fbc e6e4 183d 2f0e 4b3d e743 e33c
000000f0: 6c1a 563c 3383 0c3d fc3e 76bc 2b32 723d
00000100: 5766 6abd ca89 743c 1127 783c b291 9bbc
00000110: 7d97 4e3c d12e 963b 635c 20bd 4e90 d6bc
00000120: 1654 6bbc 4ad3 97bb 9b21 a0bc 27c4 503b
00000130: 158a 95bc 1af0 1bbd ebe7 57bd 0dbb e2bc
00000140: ae42 42bc b28b ccbc 525b e9bc f025 f9bc
00000150: 2cb0 eb3b a192 25bc 5125 f0bb 453d 10bd
00000160: c8b5 cf3c 4ed9 d83b f517 6ebc 7653 cf3b
00000170: 8946 913c 52c7 0dbd 1a7b a3bc b63b d0bc
00000180: 0767 65bd ba40 a2bb cf06 773c ba55 123d
00000190: 2690 863a 22da cb3b 69b3 cc3a d856 67bb
000001a0: 1377 1fbb 3f09 ed3b e8f0 19bd 5512 c4bc
000001b0: 4ccb 2cbc ccda 55bc e460 c73a 7d23 c4bc
000001c0: 5e05 dd3c bdb9 18bd e52c 84bc 53dd 503c
000001d0: fd03 dd3b 45b6 c13c 2eba 873c e9aa e83c
000001e0: 6180 b4bc 5475 633c 0930 13bd 49d5 dbbc
000001f0: 11fa 10bd 3fe1 b4bc c144 42bc a55d 0fbd
00000200: b002 edbb 39ce 0f3a 652b 523c 657c 8f3c
00000210: a5cc 333b 796c 073c 421d e4ba a024 653b
00000220: 159d 88bb 9658 a1bc 5636 8dbc 0ff9 8b3c
00000230: 133c c9bb e025 043c edba 6ebb 776b 413c
00000240: e433 91bc a815 cb3a ce90 2ebc 9959 2fbc
00000250: f924 b4bc b0fe 9fbb f90e 8bbc c3b2 d13b
00000260: cf78 a53c 55a1 233c 3761 47bc a3a0 e8bb
00000270: 869e 4a3c 3b11 263c b91b 83bb 04bd 793c
00000280: 506e ebbb 8597 1c3c 4dc6 393c ed51 fd3c
00000290: c660 a6bc f189 87bb ccbb 47bc 6483 753c
000002a0: e99f 69bc 81bb cb3c d965 883c 40f0 a9bb
000002b0: f009 0bbc d83f 8fbc bfb8 a3bb fdaa 82bc
000002c0: 0afd 643b eede 54ba 1fa9 213c a678 09bd
000002d0: be21 dc3c e025 acbb 8674 343c 68b8 66bc
000002e0: d6f1 043c a9ef b23c 8c46 ad3c 8147 0c3c
000002f0: 1743 303c b6b7 a2bc 7c8e 1dbc 675a 44bc
