ckpt/model_lr_0.001_emb_16_hid_64_layers_1.pth (torch, 251922 bytes, 18 tensors)

class_embedding.weight f4 [8, 16]
0	0xbd75f2ae	-0.06004589
1	0xbd059339	-0.032611106
2	0x3d72ba06	0.059259437
3	0xbd048225	-0.032350678
4	0xbd6f3258	-0.05839762
5	0xbd289125	-0.041154046
6	0x3d4e9cfe	0.05044269
7	0x3d7b7fc8	0.06140116
8	0x3cfa45e6	0.030550908
9	0x3d5162cc	0.05111961
10	0x3ce4c01f	0.027923642
11	0xbd443bfd	-0.04790877
12	0xbd18858c	-0.037236735
13	0xbd27c2ca	-0.04095725
14	0x3d59b6bf	0.053152796
15	0x3ce7be3c	0.028288953
16	0xbcad64b5	-0.021166185
17	0xbcda304f	-0.026634363
18	0x3b8372da	0.004011494
19	0xbd22f6de	-0.039786212
20	0xbd0c6e34	-0.034284785
21	0xbcbaf810	-0.022823364
22	0x3ceaa7b5	0.028644422
23	0x3d01397c	0.031548962
24	0x3b3eb3d7	0.0029098892
25	0x3d0f18fa	0.03493593
26	0x3cfafba2	0.030637566
27	0xbd243a95	-0.04009493
28	0x3c1c6e2f	0.009547754
29	0xbd061e9f	-0.032744046
30	0x3d135f5e	0.03597962
31	0x3d270225	0.04077353
32	0x3d464b30	0.04841155
33	0x3d4d4f45	0.050124425
34	0xbd6a63b4	-0.05722399
35	0x3d21329e	0.039354913
36	0x3d9fe02b	0.078064285
37	0x3d7856fc	0.06062983
38	0xbd552d9a	-0.052045442
39	0xbd59a68e	-0.053137355
40	0xbcb3c0d5	-0.021942535
41	0xbd440b27	-0.0478622
42	0xbc66ba0e	-0.014082445
43	0x3d97096e	0.073748454
44	0x3da5e9f7	0.08101266
45	0x3d6384e5	0.05554666
46	0xbd4458c6	-0.047936223
47	0xbd5658f2	-0.05233092
48	0x3b4ee88f	0.0031571721
49	0x3d308f7d	0.04310559
50	0x3d11ee0f	0.03562742
51	0x3d2780e9	0.040894423
52	0x3baf76dd	0.005354746
53	0x3ca375ea	0.019953687
54	0xbccff911	-0.025387319
55	0xbc96af69	-0.018394189
56	0x3dce6171	0.10077179
57	0xbd437b16	-0.047724806
58	0xbcc62d00	-0.02419138
59	0x3d2cb9ad	0.04216926
60	0xbd80e85c	-0.06294319
61	0x3d788815	0.060676653
62	0xbc37167c	-0.011174794
63	0xbd369e49	-0.044584546
64	0x3d12bd0f	0.03582483
65	0x3c9c59d5	0.019085804
66	0xbce149f8	-0.027501091
67	0xbb8eed8d	-0.0043618144
68	0x3ae4304c	0.0017409413
69	0x3cab13f8	0.020883545
70	0xbbfee51f	-0.007778778
71	0xbbe13be6	-0.0068735955
72	0x3d2d17ec	0.04225914
73	0x3b0d072a	0.0021519163
74	0x3c99cbc4	0.01877392
75	0x3c9e66b5	0.019336084
76	0x3dada12a	0.08478005
77	0x3c4151f3	0.011799323
78	0xbbb80ad5	-0.0056165257
79	0xbca9f458	-0.020746395
80	0xbcf39c12	-0.029737506
81	0xbd245e63	-0.040129077
82	0x3d913398	0.07089919
83	0xbd31ef65	-0.043441195
84	0xbc9f4490	-0.019441873
85	0xbc356d8a	-0.011073479
86	0x3ccfcb32	0.025365446
87	0x3cd9b68c	0.026576303
88	0x3d6053bf	0.054767366
89	0x3be08908	0.006852273
90	0x3caaa3e9	0.020830112
91	0xbbe25896	-0.006907533
92	0xbd44ae56	-0.048017822
93	0x3b054dd0	0.002034057
94	0x3c657649	0.014005252
95	0xbc239192	-0.009983437
96	0x3c96e086	0.018417608
97	0x3c9ee409	0.019395845
98	0x3c8efa89	0.017453449
99	0x3d2ce324	0.042208806
100	0x3c6745ff	0.014115809
101	0x3cee3680	0.029078722
102	0xbd059b32	-0.03261871
103	0x3a4f48f4	0.0007907294
104	0x3cc2f3c4	0.023797877
105	0xbce352b2	-0.027749393
106	0xbcc72266	-0.024308395
107	0xbb4cd312	-0.0031253737
108	0xbb4731b7	-0.0030394623
109	0x3cbce106	0.023056518
110	0xbcc30a9a	-0.023808766
111	0xbd3b2f46	-0.04569938
112	0x3c6d8ef9	0.014499419
113	0xbc176938	-0.009241395
114	0x3ba71be4	0.0050997604
115	0x3c2c8bb7	0.0105313575
116	0xbc9bac0b	-0.019002935
117	0xba885de0	-0.0010403953
118	0xbb86711b	-0.0041028387
119	0x3c438949	0.011934587
120	0xbba12ab6	-0.0049184216
121	0xbc2f679e	-0.010705857
122	0x3b37c50f	0.002804104
123	0xbc6f0433	-0.0145884035
124	0xbc1f5ad0	-0.009726241
125	0x3c23db99	0.010001087
126	0xbb9adb99	-0.004725885
127	0xbc3b7c9c	-0.011443283

class_counts_projection.weight f4 [8, 5]
0	0xbee0ba53	-0.43892154
1	0xbe66b8e0	-0.22531462
2	0xbf2bd2cf	-0.67118543
3	0x3f035b75	0.5131143
4	0xbdd0d34c	-0.10196552
5	0xbe31f129	-0.17377152
6	0xbf02de7a	-0.5112072
7	0x3d76dfb6	0.06027194
8	0xbf137504	-0.57600427
9	0x3f2734eb	0.6531512
10	0x3eef0727	0.46685144
11	0x3ef48223	0.47755536
12	0x3f3cc6fa	0.73741114
13	0xbe3360bf	-0.17517374
14	0x3dc1a8de	0.09456037
15	0x3f15b929	0.58485657
16	0xbf1f52f8	-0.62235975
17	0x3eb7fb7d	0.35934058
18	0xbf218016	-0.6308607
19	0xbe0be20a	-0.13660446
20	0xbe0b7061	-0.13617088
21	0xbe67f293	-0.22651128
22	0xbeb13749	-0.34612492
23	0x3f0c7ebd	0.5488089
24	0x3e890ece	0.26769108
25	0x3ed8ac8f	0.42319152
26	0xbead9f7f	-0.33910748
27	0x3df4870f	0.11939823
28	0xbf07ae51	-0.5300036
29	0x3ed469f2	0.4148708
30	0x3e1d3442	0.15351966
31	0x3f248c46	0.6427654
32	0x3dd94d1c	0.106104106
33	0x3f265161	0.64967924
34	0xbe0e85df	-0.13918255
35	0xbeb25d74	-0.34836924
36	0x3beee878	0.007290896
37	0xbe43cbf1	-0.19120766
38	0xbf135692	-0.5755397
39	0xbf27df7b	-0.6557538

class_counts_projection.bias f4 [8]
0	0xbc13ebd6	-0.009028396
1	0xbb151629	-0.0022748804
2	0xbcbfe9fa	-0.023426998
3	0xbcb37736	-0.02190743
4	0x3b0695f7	0.0020536163
5	0xbc88c7d1	-0.016696842
6	0x3cd87b8a	0.026426096
7	0x3c9e52e8	0.019326642

layer_norm.weight f4 [29]
0	0x3f8516d1	1.0397588
1	0x3f8417b6	1.0319736
2	0x3f85f87d	1.0466458
3	0x3f8512f1	1.0396405
4	0x3f85002b	1.0390676
5	0x3f86e10e	1.0537431
6	0x3f81c2dd	1.0137593
7	0x3f80af45	1.0053488
8	0x3f82cced	1.0218788
9	0x3f80f442	1.0074542
10	0x3f8251a6	1.0181167
11	0x3f8251fc	1.018127
12	0x3f833f2c	1.0253654
13	0x3f851827	1.0397996
14	0x3f811983	1.008591
15	0x3f82914f	1.0200595
16	0x3f851028	1.0395555
17	0x3f80e238	1.0069036
18	0x3f8409f6	1.031554
19	0x3f810919	1.0080901
20	0x3f82e1a8	1.0225115
21	0x3f7cdb99	0.9877258
22	0x3f87337d	1.0562588
23	0x3f80f100	1.0073547
24	0x3f83d419	1.0299102
25	0x3f7f2729	0.9966913
26	0x3f856a25	1.0423018
27	0x3f87b3fa	1.06018
28	0x3f84054b	1.0314115

layer_norm.bias f4 [29]
0	0xbc7253ed	-0.014790517
1	0xbc71ab6c	-0.014750343
2	0x3cbd0f6f	0.023078648
3	0xbc548d76	-0.01297318
4	0xbc9cb2a1	-0.019128146
5	0x3b990d9e	0.0046708127
6	0x3c5c84f8	0.013459437
7	0x3ca61abd	0.020276422
8	0x3c502a98	0.012705468
9	0x3c4454a2	0.011983069
10	0x3c747538	0.014920525
11	0x3ba333e6	0.004980552
12	0xbca77674	-0.020442225
13	0x3b43d86e	0.002988364
14	0x3b91db5c	0.0044511985
15	0xbbc32356	-0.00595514
16	0xbb89ce71	-0.004205518
17	0x3c307c36	0.010771802
18	0x3b31db8a	0.0027138912
19	0xbb013b42	-0.0019719158
20	0xbbc7a56a	-0.006092717
21	0xbc44ea2f	-0.012018724
22	0xbba5b038	-0.0050564073
23	0xbcaf7926	-0.021420073
24	0x3c4be40a	0.0124445055
25	0x3cab8e1d	0.020941788
26	0x3c6ff7c9	0.014646479
27	0x3cb6f11a	0.022331763
28	0xbbd1c494	-0.0064016078

gru.weight_ih_l0 f4 [192, 29]
0	0xbad33393	-0.0016113393
1	0xbc7726a0	-0.0150848925
2	0x3de8ee76	0.11373608
3	0xbc331087	-0.010929233
4	0x3e2dce59	0.16973247
5	0xbdd9877d	-0.106215455
6	0xbdf82fb7	-0.12118476
7	0xbd75cfc1	-0.060012583
8	0x3db105c9	0.086436816
9	0x3d736fb1	0.05943269
10	0x3dbbbb3e	0.09166573
11	0x3cdf228b	0.027238151
12	0x3dde7166	0.10861473
13	0xbdc19e31	-0.09454001
14	0x3cafd05a	0.021461654
15	0xbe5a1b1e	-0.21299407
16	0xbe072970	-0.13199401
17	0xbdd8347c	-0.105568856
18	0xbe1c7fa5	-0.15283068
19	0xbda0ea76	-0.0785722
20	0x3a177d8f	0.00057789026
21	0xbd2df49d	-0.04246961
22	0x3e31a664	0.17348629
23	0x3d6d1398	0.057880014
24	0x3e0f87cd	0.14016648
25	0xbdfde421	-0.12397028
26	0x3e02dedf	0.12780331
27	0xbc386e2b	-0.011256735
28	0xbe43f62c	-0.19136876
29	0xbc9458f2	-0.018108819
30	0xbdbbc4f6	-0.09168427
31	0xbdb81f02	-0.08990289
32	0x3dbfc28c	0.09363279
33	0xbe18b1da	-0.14911595
34	0xbdc5243a	-0.0962605
35	0xbe2bae47	-0.167657
36	0xbcedf3b2	-0.029046867
37	0xbe075a88	-0.13218129
38	0xbd620ff8	-0.05519101
39	0xbb5af423	-0.0033409677
40	0xbe0b2f8b	-0.13592355
41	0x3e11dd84	0.14244658
42	0xbc09a2f6	-0.008400669
43	0x3da558bb	0.080735646
44	0xbe182a12	-0.14859799
45	0x3ce01684	0.027354486
46	0x3e0f5fd9	0.14001407
47	0xbdc413fb	-0.095741235
48	0xbd2cc85d	-0.04218327
49	0x3da9c47a	0.08289428
50	0xbe0aa099	-0.13537826
51	0x3d1b252f	0.037877258
52	0x3dbafb53	0.091299675
53	0x3dc5a39d	0.096503474
54	0x3d39e22a	0.045381702
55	0xbd257d08	-0.040402442
56	0xbdd9e3f2	-0.1063918
57	0x3ddce13d	0.10785148
58	0xbd4b0851	-0.049568478
59	0x3d133bd4	0.03594573
60	0xbe5ca795	-0.21548302
61	0x3cb16cbe	0.021658298
62	0xbe419f45	-0.18908413
63	0xbe0e6df5	-0.13909133
64	0x3db1425d	0.08655236
65	0x3c44838b	0.011994253
66	0xbdbb9375	-0.091589846
67	0xbcebd730	-0.028789133
68	0xbd8fa8f3	-0.070146464
69	0xbc85926e	-0.016305175
70	0xbd8a8e80	-0.06765461
71	0x3d55f93d	0.052239645
72	0xbb9ff1d1	-0.0048811217
73	0x3b9bf310	0.0047592
74	0xbdadd113	-0.08487143
75	0x3dd851e5	0.10562495
76	0xbc6c6cfe	-0.014430283
77	0x3bfebef2	0.0077742273
78	0x3d3d22af	0.046175655
79	0x3d1a3739	0.03765032
80	0x3e0c39a1	0.13693859
81	0x3e2e3664	0.17012936
82	0x3d8a2b6d	0.06746564
83	0x3c0c3728	0.008558072
84	0x3cb24835	0.021762947
85	0xbe280dc3	-0.164115
86	0xbe287480	-0.16450691
87	0x3d493635	0.04912396
88	0xbdd8d68a	-0.10587795
89	0xbe363c0a	-0.1779634
90	0xbe008f0c	-0.12554568
91	0xbd9cab9b	-0.07649919
92	0x3dd383b4	0.10327855
93	0x3c236ee3	0.009975168
94	0x3ceaff4d	0.02868619
95	0xbe3f3dd3	-0.18675928
96	0x3da1750b	0.07883652
97	0x3db1f707	0.08689695
98	0xbd50b0fb	-0.05095003
99	0x3cfb0681	0.03064275
100	0x3e258f33	0.16167907
101	0xbd41abb6	-0.047282897
102	0xbe0d82b8	-0.13819396
103	0x3da4ee13	0.080532216
104	0x3e3ea4bd	0.1861753
105	0x3e156189	0.14587988
106	0xbd5bc3dd	-0.053653587
107	0x3df10b5e	0.11769746
108	0xbd7fe700	-0.06247616
109	0x3c340573	0.010987627
110	0x3d40407b	0.046936493
111	0xbccb1baf	-0.024793474
112	0xbbfcdc27	-0.007716674
113	0xbdb59988	-0.088671744
114	0x3d02318f	0.031785544
115	0x3de293e8	0.11063367
116	0xbd5a096d	-0.053231645
117	0xbe1f0c0d	-0.15531941
118	0x3d18e139	0.037324164
119	0x3d1eb2d4	0.038744763
120	0xbe114376	-0.1418589
121	0x3d8f4679	0.069958635
122	0xbda6b372	-0.08139695
123	0xbe109607	-0.14119731
124	0xbe47ee58	-0.19524515
125	0x3df41899	0.11918754
126	0xbb216959	-0.0024629442
127	0xbdebe84f	-0.11518919
128	0xbd9e372f	-0.07725369
129	0xbe0b0e42	-0.13579658
130	0xbe3bfd9d	-0.18358465
131	0xbe25ed64	-0.16203839
132	0xbdc8965b	-0.09794303
133	0x3d9d4b2e	0.07680355
134	0x3e2dd46d	0.16975565
135	0x3e017c9d	0.12645192
136	0x3dbcfca6	0.09227876
137	0xbd90f34c	-0.07077655
138	0x3d50003e	0.05078148
139	0xbd07a238	-0.03311369
140	0xbd5a1317	-0.05324086
141	0xbe4aa4be	-0.19789407
142	0xbdc0501b	-0.09390279
143	0xbdb8e073	-0.09027185
144	0xbd3a4a7f	-0.0454812
145	0x3dae218d	0.08502493
146	0x3dba815e	0.09106706
147	0x3de5fd88	0.11229998
148	0xbdb53039	-0.08847088
149	0x3e241220	0.16022539
150	0x3dd620bd	0.10455463
151	0xbd7ac22b	-0.06122033
152	0x3c884287	0.016633285
153	0xbc224f18	-0.009906553
154	0x3d5f665c	0.054540977
155	0xbd1c7974	-0.038201764
156	0xbda548d7	-0.08070534
157	0x3d422d9a	0.04740677
158	0x3d158612	0.036504813
159	0xbe2f93be	-0.17146203
160	0x3c62e69b	0.013848926
161	0xbd0dbe16	-0.03460511
162	0x3dc3df59	0.095640846
163	0x3cadf2bc	0.021233909
164	0x3d71ef7f	0.059066292
165	0x3e2ea68c	0.1705572
166	0xbe0f3709	-0.13985838
167	0x3c0a8f5f	0.008457034
168	0x3d0f33cc	0.034961507
169	0x3de416e0	0.111371756
170	0xbe05c203	-0.13062291
171	0x3d361628	0.044454724
172	0x3e473a2b	0.19455783
173	0xbe2c8c46	-0.16850385
174	0xbde2c5df	-0.11072897
175	0x3d941184	0.07229903
176	0xbc4026f8	-0.011728041
177	0x3e1acdca	0.15117565
178	0x3e1183a3	0.14210372
179	0xbdef5f97	-0.11688154
180	0xbe3606df	-0.17776059
181	0x3e141fce	0.14465258
182	0x3dcf4a33	0.10121574
183	0x3d0d0af5	0.034434278
184	0xbad1b3da	-0.0015999035
185	0xbcaea63a	-0.021319497
186	0xbe05e3a1	-0.13075115
187	0x3d0b656d	0.034032274
188	0x3c255544	0.01009113
189	0x3d9ab313	0.07553687
190	0x3e336863	0.17520289
191	0xbb79d834	-0.0038123252
192	0x3c90bb08	0.017667308
193	0x3d5b073a	0.05347369
194	0x3e12c323	0.14332251
195	0xbda8dd31	-0.08245314
196	0x3e1b106a	0.1514298
197	0xbdcf42ca	-0.10120161
198	0xbdd0c1b4	-0.10193196
199	0xbe188d10	-0.14897561
200	0xbe1153d7	-0.14192139
201	0xbda8bb96	-0.08238904
202	0x3e185230	0.14875102
203	0xbe0dd4b6	-0.13850674
204	0xbe0ca382	-0.13734248
205	0xbe285259	-0.16437663
206	0xbe349be0	-0.17637587
207	0xbe0b3cdd	-0.13597436
208	0xbd2a07d9	-0.04151139
209	0x3e0df2be	0.1386213
210	0xbbedb22f	-0.007253907
211	0x3d3c615e	0.045991294
212	0xbda014db	-0.07816478
213	0x3dd7957d	0.105265595
214	0x3e1649de	0.14676616
215	0xbb70feef	-0.0036773046
216	0xbe4c4661	-0.19948722
217	0xbdf01f96	-0.117247745
218	0xbd8b15e5	-0.067912854
219	0xbca8da79	-0.020611988
220	0x3e49bf74	0.1970194
221	0xbbc8c546	-0.0061270325
222	0xbe048515	-0.12941392
223	0x3d196160	0.03744638
224	0x3da265e6	0.07929592
225	0xbd9e5073	-0.07730188
226	0xbd4f7e0c	-0.050657317
227	0xbdae4fea	-0.08511336
228	0x3e02f487	0.12788592
229	0x3dc1bcc7	0.094598345
230	0x3e05be68	0.13060915
231	0xbdc37325	-0.095434465
232	0x3b96497b	0.0045863963
233	0xbd89a488	-0.06720835
234	0xbe35d1f5	-0.17755874
235	0xbd1044e6	-0.035221957
236	0xbe3f2405	-0.18666084
237	0x3bf4706d	0.0074596913
238	0x3ce5aef1	0.02803752
239	0xbdcd1e5c	-0.10015556
240	0xbe4c9f0d	-0.19982548
241	0x3d7c4b4c	0.061595246
242	0xbd81d358	-0.06339139
243	0xbdb0e296	-0.08636968
244	0x3df270b7	0.11837905
245	0xbc68df6d	-0.014213425
246	0xbe1d2a8c	-0.15348262
247	0xbd0d4640	-0.034490824
248	0xbd8d8def	-0.06911837
249	0xbc7561f2	-0.014976965
250	0xbdda7a42	-0.1066785
251	0x3d325678	0.043539494
252	0x3e21aab8	0.1578778
253	0xbd898ee6	-0.06716709
254	0x3d503924	0.050835744
255	0x3c5204a9	0.012818494

gru.weight_hh_l0 f4 [192, 64]
0	0xbcc68428	-0.024232939
1	0x3e25c92d	0.16190024
2	0x3aa6b456	0.0012718539
3	0x3a76f2a1	0.000942031
4	0xbd2c0825	-0.041999955
5	0x3bdc4e53	0.006723204
6	0xbd5cee77	-0.053938355
7	0x3d8ffd13	0.07030692
8	0x3d775c00	0.060390472
9	0x3c084d9f	0.008319288
10	0xbe377749	-0.17916597
11	0xbdb51e49	-0.08843667
12	0x3cc22978	0.023701414
13	0xbd6c0f5f	-0.057631847
14	0xbda49021	-0.08035303
15	0x3d95fd30	0.07323682
16	0xbd877be8	-0.0661543
17	0xbe2f8691	-0.17141177
18	0x3d50ed97	0.051007833
19	0xbce871d0	-0.028374583
20	0xbddf3d8f	-0.10900413
21	0xbd94f301	-0.07272912
22	0x3dff36e3	0.12461641
23	0xbd820382	-0.06348325
24	0xbda0c444	-0.07849935
25	0xbdf65fd0	-0.120299935
26	0xbe071223	-0.13190512
27	0xbd80b6d1	-0.062848695
28	0x3dc49926	0.09599523
29	0xbe46011d	-0.19336362
30	0x3c91ab13	0.01778177
31	0x3c85e9ab	0.016346773
32	0x3db1c1e1	0.086795576
33	0x3db9fe83	0.090817474
34	0x3de1a367	0.11017495
35	0x3d140087	0.036133315
36	0xbe3119bb	-0.17294972
37	0xbd6b458b	-0.05743937
38	0x3c28a02e	0.010292096
39	0x3e0e6200	0.13904572
40	0xbc5b274c	-0.013376068
41	0x3e025854	0.12729007
42	0xbd78ccf6	-0.06074234
43	0x3d708976	0.058724843
44	0x3d8ae5af	0.0678209
45	0xbd2ba2e2	-0.041903384
46	0x3c5930e1	0.013256283
47	0xbda49f91	-0.080382474
48	0xbd7e678b	-0.062110465
49	0x3d5443d7	0.05182251
50	0xbd5d1d0f	-0.05398279
51	0xbd9b95cf	-0.07596933
52	0xbd154451	-0.036442105
53	0x3dfa64ee	0.12226282
54	0x3daf0fb2	0.085479155
55	0x3e2c470f	0.16823982
56	0x3d6e5833	0.058189582
57	0x3e24b81f	0.16085862
58	0x3e323ff2	0.17407206
59	0x3cdc56a3	0.02689678
60	0xbd887c0c	-0.06664285
61	0x3d382589	0.04495767
62	0xbc61e9f6	-0.013788691
63	0x3d85afe6	0.065276906
64	0x3ddc5f09	0.10760314
65	0xbc553939	-0.013014131
66	0xbd812e6e	-0.06307684
67	0x3bcce9d8	0.0062534623
68	0xbc9733a1	-0.018457236
69	0x3c817b51	0.015805872
70	0xbbafa11e	-0.005359783
71	0xbcbdb8d8	-0.02315943
72	0xbd8f8a80	-0.07008839
73	0x3ceb5804	0.028728493
74	0x3d11ff1a	0.035643674
75	0xbd18c127	-0.03729358
76	0xbc315115	-0.010822554
77	0x3dc0fe3f	0.094234936
78	0xbe334a5e	-0.17508838
79	0x3e2d8246	0.16944227
80	0xbd9e7681	-0.077374466
81	0xbd260bfe	-0.04053878
82	0x3cc36a4b	0.023854395
83	0xbd5df03a	-0.054184176
84	0xbdcbf50e	-0.0995885
85	0xbcd89ffe	-0.026443478
86	0x3de6c0d1	0.112672456
87	0xbdaba58f	-0.08381187
88	0x3e174392	0.1477187
89	0xbda7deef	-0.08196818
90	0x3d6189b7	0.055062976
91	0x3d49dc73	0.049282502
92	0x3e0b4be9	0.13603176
93	0xbd8ce38f	-0.06879341
94	0xbd107312	-0.03526599
95	0xbd6b3a4d	-0.057428647
96	0x3dae29b6	0.085040495
97	0x3d6003dc	0.05469118
98	0x3e36e7bf	0.17861842
99	0x3c61ab96	0.013773819
100	0x3d7c6e4c	0.061628625
101	0xbd2a2b79	-0.041545365
102	0xbd436818	-0.047706693
103	0x3e3aa33f	0.18226336
104	0xbe2a9bd2	-0.16661003
105	0x3cb47ea8	0.02203305
106	0xbe05e5f2	-0.13075998
107	0xbd0b5a8b	-0.034021895
108	0x3dfb683c	0.122757405
109	0xbd883f9c	-0.066527575
110	0xbdc67391	-0.09690011
111	0xbb4e04cb	-0.0031435962
112	0x3b1fd1fa	0.002438663
113	0xbcee6c02	-0.029104237
114	0x3d19ae13	0.037519526
115	0xbdb78921	-0.08961702
116	0xbe254962	-0.16141275
117	0x3df2f6b1	0.11863459
118	0x3d410aa3	0.047129285
119	0xbc82c073	-0.015960908
120	0x3dba2edc	0.09090969
121	0x3cfbbd4e	0.030729916
122	0x3d15f943	0.036614668
123	0xbc897e0b	-0.016783735
124	0xbd76a3c2	-0.060214765
125	0xbd11be8f	-0.03558212
126	0x3d8c0c67	0.06838303
127	0xbbd0c90e	-0.006371624
128	0x3e13e199	0.14441527
129	0x3dbbd572	0.09171571
130	0xbd4cc9f6	-0.049997292
131	0xbd9c22fe	-0.07623862
132	0xbd9894cd	-0.074502565
133	0xbc9449b3	-0.018101549
134	0x3dd25644	0.1027036
135	0x3c332282	0.01093352
136	0xbc79ac6e	-0.015238864
137	0x3d32d5c6	0.0436609
138	0xbdd604ca	-0.10450132
139	0xbd8490d1	-0.06472934
140	0xbd19ae5d	-0.0375198
141	0xbe2d75b2	-0.16939428
142	0xbd997856	-0.074936554
143	0x3d8ba5cf	0.06818735
144	0xbd5716a8	-0.05251184
145	0x3d06f2a2	0.032946236
146	0xbe0666de	-0.13125178
147	0xbcab781a	-0.020931292
148	0xbe3914ed	-0.18074389
149	0xbd92e37b	-0.07172295
150	0x3e342ef3	0.17596035
151	0x3dc50845	0.09620718
152	0xbe08134c	-0.13288611
153	0xbdecf357	-0.11569851
154	0x3d354fd7	0.044265594
155	0x3c87034f	0.01648107
156	0x3e2a6915	0.16641648
157	0xbdf34809	-0.11878974
158	0x3d164f6b	0.036696833
159	0xbc564843	-0.013078752
160	0xbcf7a7c3	-0.030231362
161	0xbd6f559d	-0.058431257
162	0x3d0fe88c	0.035133883
163	0xbd98caad	-0.07460532
164	0xbd87c798	-0.06629866
165	0xbdecc36e	-0.11560713
166	0xbd8f93e5	-0.070106305
167	0xbc087b3e	-0.0083301645
168	0xbdf498d2	-0.11943211
169	0xbd8e39fa	-0.06944652
170	0xbd00c9bb	-0.031442385
171	0x3e498090	0.19677949
172	0x3d3123a9	0.0432469
173	0xbbfa54d4	-0.007639507
174	0xbd13e5b0	-0.03610772
175	0xbd54fa47	-0.051996496
176	0x3c52bf47	0.012862987
177	0xbde6c237	-0.11267512
178	0x3cf0e61b	0.029406598
179	0x3da5f0ae	0.08102547
180	0xbd42d32e	-0.047564678
181	0x3e1d2884	0.15347487
182	0x3d89fece	0.06738053
183	0x3db8d657	0.09025257
184	0x3de9d542	0.11417629
185	0x3dd4074e	0.10352956
186	0xbe0d2fe8	-0.13787806
187	0x3e26388b	0.16232507
188	0xbd89ce20	-0.06728768
189	0xbcee9779	-0.029124962
190	0x3e02b1ce	0.1276314
191	0xbe02b4ed	-0.1276433
192	0xbd7193b9	-0.05897877
193	0x3db2d926	0.08732824
194	0x3d3a5efd	0.045500744
195	0xbc2d6081	-0.01058209
196	0xbd261315	-0.04054554
197	0xbce2b2f7	-0.027673228
198	0x3b8163ed	0.0039486797
199	0xbe16ef8c	-0.14739817
200	0xbd7317c4	-0.059348837
201	0x3d8cd5b1	0.06876696
202	0x3d7b260a	0.061315574
203	0x3aa5153b	0.0012594828
204	0xbc339ba9	-0.010962405
205	0xbe5b3343	-0.21406274
206	0xbe19351c	-0.14961666
207	0xbcd05bab	-0.025434336
208	0xbe1a4344	-0.15064722
209	0xbd696eb4	-0.05699034
210	0xbc993229	-0.018700676
211	0xbbd4ba4c	-0.006491935
212	0xbbe34dfa	-0.0069367858
213	0xbbbc078e	-0.0057382053
214	0xbd639a22	-0.055566914
215	0xbb7197ca	-0.0036864155
216	0xbb450dbf	-0.0030068008
217	0xbda52237	-0.080631666
218	0xbd752f54	-0.05985959
219	0xbcf7a5ca	-0.030230422
220	0x3e0a1c4f	0.13487361
221	0xba47b4ed	-0.00076182076
222	0x3d5f2cd3	0.054486107
223	0xbcb09962	-0.021557514
224	0x3cdb9c4e	0.02680793
225	0xbdc07f0e	-0.09399234
226	0x3d7e90bc	0.06214975
227	0xbcfabdf7	-0.03060816
228	0xbd8ee605	-0.069774665
229	0xbca73f18	-0.020415828
230	0xbe43c254	-0.19117099
231	0xbd619ea8	-0.055082947
232	0x3d044a16	0.032297216
233	0xbdca84bf	-0.098886006
234	0x3db17a6e	0.0866593
235	0x3dc7e0b5	0.09759656
236	0x3dc1dd96	0.09466092
237	0xbe00097e	-0.12503621
238	0xbd0680ba	-0.032837607
239	0xbd892be9	-0.06697828
240	0x3b3bec65	0.0028674838
241	0xbc7cd9c1	-0.015432776
242	0x3d35cfa5	0.04438748
243	0x3d4352d2	0.047686405
244	0xbde4abaf	-0.111655585
245	0x3db53a3b	0.08848997
246	0x3e14f3a1	0.14546062
247	0xbdb04d29	-0.08608467
248	0x3cb479f4	0.022030808
249	0xbbe17e17	-0.006881486
250	0xbd8d7d86	-0.06908707
251	0x3da094a8	0.07840854
252	0x3d5550cc	0.052079007
253	0xbe1bd31a	-0.15217248
254	0x3cd919ff	0.026501654
255	0xbc88070a	-0.016604919

gru.bias_ih_l0 f4 [192]
0	0x3d764796	0.060126863
1	0x3d056fef	0.03257745
2	0x3d3a524a	0.045488633
3	0x3ca45460	0.020059764
4	0x3d04910e	0.032364897
5	0x3ce43d7c	0.02786135
6	0x3c9e6115	0.019333402
7	0x3c072115	0.008247633
8	0x3cf53502	0.029932503
9	0x3c0fe2d1	0.008782105
10	0x3ca252bd	0.019814843
11	0x3ac3c8dd	0.0014937181
12	0x3c64d0a1	0.013965757
13	0xbc74ee0b	-0.014949332
14	0x3d4fc2e0	0.050722957
15	0x3c0a5554	0.008443195
16	0x3d55ba40	0.052179575
17	0x3c881891	0.016613277
18	0x3c9e4b09	0.019322889
19	0x3c18cbea	0.009325961
20	0x3d014862	0.03156317
21	0xbc47e018	-0.012199424
22	0x3c76ca05	0.015062814
23	0x3c9090e4	0.017647214
24	0x3ca07de1	0.019591274
25	0x3c06d588	0.008229621
26	0xbc7a462f	-0.015275522
27	0x3cc1a7a6	0.023639511
28	0x3d41882d	0.047249008
29	0x3bbe0b1a	0.0057996633
30	0x3c9c7677	0.019099457
31	0x3ca6ed0b	0.020376703
32	0x3d026b26	0.031840466
33	0x3c81e0a3	0.015854185
34	0x3c9ee25a	0.019395042
35	0x3ca2346c	0.019800387
36	0x3d9a427c	0.07532212
37	0x3d009e4e	0.03140097
38	0x3cb50eda	0.022101808
39	0x3cb09549	0.02155556
40	0x3bdbcc4e	0.0067077046
41	0x3d168616	0.036748968
42	0x3c83964f	0.016062884
43	0x3d0cb794	0.03435476
44	0x3c62cd3a	0.013842875
45	0x3d026c1b	0.03184138
46	0x3d3c8c97	0.046032514
47	0x3d032a44	0.03202273
48	0xbc3a8137	-0.011383346
49	0x3bb7276e	0.005589417
50	0x3db0c1d8	0.08630723
51	0x3cb8523c	0.02250015
52	0x3c3fa942	0.011698069
53	0x3c3527c8	0.011056848
54	0x3c93d64e	0.018046524
55	0x3cc43d47	0.023955
56	0x3ca5d7f6	0.02024458
57	0x3ca65015	0.020301858
58	0xbbfa61a9	-0.0076410365
59	0xbd411b98	-0.047145456
60	0xbcf3feba	-0.029784549
61	0x3ca43fad	0.020049894
62	0x3d1a41e0	0.03766048
63	0x3ce34c27	0.027746273
64	0xbd59a11c	-0.05313216
65	0x3b3dfcce	0.0028989795
66	0x3bd91506	0.0066248206
67	0x3c45205d	0.012031642
68	0xbb010f41	-0.001969293
69	0xbc84816c	-0.016174994
70	0x3d05e36b	0.032687586
71	0x3ca2c011	0.019866975
72	0x3d2e3ee1	0.042540435
73	0x3d466081	0.048431877
74	0x3ceee820	0.02916342
75	0x3b69e220	0.003568776
76	0xbd20de6a	-0.03927461
77	0x3c40f056	0.011776051
78	0xbdaa6a5e	-0.08321069
79	0x3cc116a3	0.023570364
80	0xbc83355d	-0.016016657
81	0xbd440dc5	-0.047864694
82	0x3cd6dd0e	0.026228454
83	0x3d054e22	0.032545216
84	0xbcfbab60	-0.030721366
85	0xbcc0f6dd	-0.023555214
86	0x3cf6186f	0.030040948
87	0x3c8583f6	0.016298275
88	0x3d17f312	0.037097044
89	0x3cc033d1	0.023462208
90	0x3cb7707a	0.0223925
91	0x3d27d80c	0.040977523
92	0x3d22122b	0.039568108
93	0x3bbdd244	0.005792888
94	0xbc27a8a6	-0.01023308
95	0xbd5a8126	-0.05334582
96	0xbdb12c61	-0.08651043
97	0xba8ed740	-0.001089789
98	0xbd171270	-0.036882818
99	0x3ce6015c	0.02807682
100	0xbc78aebd	-0.01517838
101	0x3d32a83d	0.043617476
102	0xbb8a8e75	-0.004228408
103	0xbc6cc694	-0.014451642
104	0x3c9205ff	0.017825125
105	0xbd4cb77c	-0.04997967
106	0xbd017b1b	-0.031611543
107	0xbd257ddc	-0.040403232
108	0x3c6dc5dc	0.014512505
109	0x3c95db70	0.018293113
110	0x3ba10743	0.0049141957
111	0xbd05bbf4	-0.03264995
112	0x3d018730	0.031623065
113	0x3cdc2a0a	0.026875515
114	0xbc7e5029	-0.015522041
115	0x3c9f83a4	0.01947195
116	0x3cf57eb7	0.029967649
117	0xbb23b108	-0.0024977345
118	0xbd11a969	-0.035561953
119	0xbd6006ca	-0.054693975
120	0xbd0fae70	-0.035078466
121	0x3c187035	0.009304096
122	0x3c57986a	0.013158897
123	0xbccf8c4d	-0.025335455
124	0xbd04fc61	-0.03246725
125	0x3b5ba084	0.0033512423
126	0xbb88d16b	-0.004175355
127	0xbdc84305	-0.09778408
128	0x3c179c82	0.009253623
129	0x3a073402	0.0005157591
130	0x3c8d4b0a	0.017247695
131	0x3c1914ce	0.009343339
132	0x3ca2db68	0.019880012
133	0xbc436cea	-0.011927823
134	0x3b669202	0.0035182242
135	0xbc0575c5	-0.008145754
136	0x3bcf4fe6	0.0063266633
137	0xbbed0424	-0.0072331596
138	0xbc1f458d	-0.009721172
139	0xbc2db686	-0.010602599
140	0xbbf84106	-0.007576111
141	0x3a8414a2	0.001007695
142	0xbce23e9e	-0.027617749
143	0x3c2ed4ba	0.010670835
144	0x3c5da8da	0.013529027
145	0x3c2a13ec	0.010380726
146	0xbb42c227	-0.0029717775
147	0xbc94ba30	-0.018155187
148	0x3b7dc763	0.003872358
149	0x3cb6605e	0.022262748
150	0x3c2b6b66	0.0104626175
151	0xbcb178ad	-0.021663988
152	0x3c0c6ba4	0.008570585
153	0xbc29d467	-0.010365582
154	0xbbf7b433	-0.007559323
155	0x3c6b4a5e	0.014360992
156	0x3c9c774f	0.01909986
157	0xbba614bc	-0.0050683897
158	0xbc9a4698	-0.01883249
159	0xbc4c4ddc	-0.012469735
160	0xbc86d115	-0.01645712
161	0xbcac87a3	-0.02106077
162	0xbc0e04e4	-0.008668158
163	0xbad515b5	-0.001625708
164	0xbc847ac5	-0.016171822
165	0xbb577e70	-0.003288176
166	0x3b893a90	0.0041878894
167	0xbcbfed65	-0.023428628
168	0xbb1fca46	-0.002438204
169	0x3c9d0637	0.019168003
170	0x3c8fec93	0.017568862
171	0xbc1fdf1e	-0.009757785
172	0xbc5d9c8c	-0.013526093
173	0x3bacff97	0.005279492
174	0xbb9c27de	-0.0047654947
175	0xbc256b44	-0.010096375
176	0xbc8a76e9	-0.016902404
177	0xbaeef9f4	-0.0018232451
178	0x3c6afa47	0.014341897
179	0xbbd7262d	-0.00656583
180	0xbbaaa65e	-0.005207821
181	0x3b83f691	0.0040271957
182	0xb991c053	-0.00027799848
183	0x3bb521db	0.0055277175
184	0x3bc6fd50	0.0060726777
185	0x3c8bed78	0.017081007
186	0xbbbbfcd3	-0.005736926
187	0xbc131cbe	-0.008979021
188	0x3cb4d72a	0.022075254
189	0xbc12524f	-0.008930757
190	0x3cf1db88	0.029523626
191	0x3c6140cd	0.01374836

gru.bias_hh_l0 f4 [192]
0	0x3d764796	0.060126863
1	0x3d056fef	0.03257745
2	0x3d3a524a	0.045488633
3	0x3ca45460	0.020059764
4	0x3d04910e	0.032364897
5	0x3ce43d7c	0.02786135
6	0x3c9e6115	0.019333402
7	0x3c072115	0.008247633
8	0x3cf53502	0.029932503
9	0x3c0fe2d1	0.008782105
10	0x3ca252bd	0.019814843
11	0x3ac3c8dd	0.0014937181
12	0x3c64d0a1	0.013965757
13	0xbc74ee0b	-0.014949332
14	0x3d4fc2e0	0.050722957
15	0x3c0a5554	0.008443195
16	0x3d55ba40	0.052179575
17	0x3c881891	0.016613277
18	0x3c9e4b09	0.019322889
19	0x3c18cbea	0.009325961
20	0x3d014862	0.03156317
21	0xbc47e018	-0.012199424
22	0x3c76ca05	0.015062814
23	0x3c9090e4	0.017647214
24	0x3ca07de1	0.019591274
25	0x3c06d588	0.008229621
26	0xbc7a462f	-0.015275522
27	0x3cc1a7a6	0.023639511
28	0x3d41882d	0.047249008
29	0x3bbe0b1a	0.0057996633
30	0x3c9c7677	0.019099457
31	0x3ca6ed0b	0.020376703
32	0x3d026b26	0.031840466
33	0x3c81e0a3	0.015854185
34	0x3c9ee25a	0.019395042
35	0x3ca2346c	0.019800387
36	0x3d9a427c	0.07532212
37	0x3d009e4e	0.03140097
38	0x3cb50eda	0.022101808
39	0x3cb09549	0.02155556
40	0x3bdbcc4e	0.0067077046
41	0x3d168616	0.036748968
42	0x3c83964f	0.016062884
43	0x3d0cb794	0.03435476
44	0x3c62cd3a	0.013842875
45	0x3d026c1b	0.03184138
46	0x3d3c8c97	0.046032514
47	0x3d032a44	0.03202273
48	0xbc3a8137	-0.011383346
49	0x3bb7276e	0.005589417
50	0x3db0c1d8	0.08630723
51	0x3cb8523c	0.02250015
52	0x3c3fa942	0.011698069
53	0x3c3527c8	0.011056848
54	0x3c93d64e	0.018046524
55	0x3cc43d47	0.023955
56	0x3ca5d7f6	0.02024458
57	0x3ca65015	0.020301858
58	0xbbfa61a9	-0.0076410365
59	0xbd411b98	-0.047145456
60	0xbcf3feba	-0.029784549
61	0x3ca43fad	0.020049894
62	0x3d1a41e0	0.03766048
63	0x3ce34c27	0.027746273
64	0xbd59a11c	-0.05313216
65	0x3b3dfcce	0.0028989795
66	0x3bd91506	0.0066248206
67	0x3c45205d	0.012031642
68	0xbb010f41	-0.001969293
69	0xbc84816c	-0.016174994
70	0x3d05e36b	0.032687586
71	0x3ca2c011	0.019866975
72	0x3d2e3ee1	0.042540435
73	0x3d466081	0.048431877
74	0x3ceee820	0.02916342
75	0x3b69e220	0.003568776
76	0xbd20de6a	-0.03927461
77	0x3c40f056	0.011776051
78	0xbdaa6a5e	-0.08321069
79	0x3cc116a3	0.023570364
80	0xbc83355d	-0.016016657
81	0xbd440dc5	-0.047864694
82	0x3cd6dd0e	0.026228454
83	0x3d054e22	0.032545216
84	0xbcfbab60	-0.030721366
85	0xbcc0f6dd	-0.023555214
86	0x3cf6186f	0.030040948
87	0x3c8583f6	0.016298275
88	0x3d17f312	0.037097044
89	0x3cc033d1	0.023462208
90	0x3cb7707a	0.0223925
91	0x3d27d80c	0.040977523
92	0x3d22122b	0.039568108
93	0x3bbdd244	0.005792888
94	0xbc27a8a6	-0.01023308
95	0xbd5a8126	-0.05334582
96	0xbdb12c61	-0.08651043
97	0xba8ed740	-0.001089789
98	0xbd171270	-0.036882818
99	0x3ce6015c	0.02807682
100	0xbc78aebd	-0.01517838
101	0x3d32a83d	0.043617476
102	0xbb8a8e75	-0.004228408
103	0xbc6cc694	-0.014451642
104	0x3c9205ff	0.017825125
105	0xbd4cb77c	-0.04997967
106	0xbd017b1b	-0.031611543
107	0xbd257ddc	-0.040403232
108	0x3c6dc5dc	0.014512505
109	0x3c95db70	0.018293113
110	0x3ba10743	0.0049141957
111	0xbd05bbf4	-0.03264995
112	0x3d018730	0.031623065
113	0x3cdc2a0a	0.026875515
114	0xbc7e5029	-0.015522041
115	0x3c9f83a4	0.01947195
116	0x3cf57eb7	0.029967649
117	0xbb23b108	-0.0024977345
118	0xbd11a969	-0.035561953
119	0xbd6006ca	-0.054693975
120	0xbd0fae70	-0.035078466
121	0x3c187035	0.009304096
122	0x3c57986a	0.013158897
123	0xbccf8c4d	-0.025335455
124	0xbd04fc61	-0.03246725
125	0x3b5ba084	0.0033512423
126	0xbb88d16b	-0.004175355
127	0xbdc84305	-0.09778408
128	0xbaaceb1e	-0.0013192629
129	0xba6737dc	-0.00088202744
130	0x3b9568ff	0.0045596357
131	0x3c8709cc	0.016484164
132	0x3c9112a9	0.017709093
133	0xbc1f9293	-0.009739536
134	0x3c661262	0.014042469
135	0xbc79803f	-0.01522833
136	0x3b968577	0.004593547
137	0xba58e19b	-0.0008273364
138	0xbc381773	-0.0112360595
139	0xbb71b4c1	-0.003688142
140	0xbbce695e	-0.006299182
141	0xb9946dcf	-0.00028310574
142	0xbcea2b41	-0.028585078
143	0x3c508bce	0.012728645
144	0x3c8f914e	0.017525341
145	0x3b95ff24	0.0045775343
146	0x39a1378c	0.000307497
147	0xbcaad74b	-0.020854613
148	0x3b768b10	0.0037619509
149	0x3ccf89ef	0.025334327
150	0x3c6202d4	0.01379462
151	0xbca7ccce	-0.0204834
152	0x3b4324f4	0.0029776664
153	0xbc15abc2	-0.009135189
154	0xbc518752	-0.0127886105
155	0x3c47dd1a	0.012198711
156	0x3c78ce56	0.015185913
157	0xbc21b1d2	-0.009869056
158	0xbcb14cb2	-0.021643016
159	0xbc75fd85	-0.015014057
160	0xbc65ea98	-0.014032982
161	0xbc82410e	-0.015900161
162	0xbba37dcb	-0.004989361
163	0xbb99453b	-0.0046774424
164	0xbc936fd7	-0.017997665
165	0xbb1305b7	-0.0022433826
166	0x3b9efeed	0.004852167
167	0xbca1d0f5	-0.019752959
168	0xbbcb587a	-0.0062056156
169	0x3c837bcd	0.016050244
170	0x3cb86efb	0.022513857
171	0xbb6180a1	-0.0034408944
172	0xbc89b4c8	-0.016809836
173	0x3b44cbda	0.0030028732
174	0xbc1e1567	-0.009648657
175	0xbc911f8e	-0.017715242
176	0xbc88fc66	-0.016721915
177	0x3b84b4b6	0.0040498627
178	0x3cf829be	0.030293342
179	0xbbd4971c	-0.00648774
180	0xbbfa8f3f	-0.007646471
181	0x3c142315	0.009041567
182	0x3b8da0e4	0.004322158
183	0x3ba35a2e	0.0049851155
184	0x3c3c860c	0.011506569
185	0x3c7fdd3e	0.015616713
186	0xbc1f83d2	-0.009736018
187	0xbc6dfb8a	-0.014525304
188	0x3cd7951e	0.026316222
189	0xbc4ecf14	-0.012622613
190	0x3cfdebab	0.030996164
191	0x3c03f945	0.008055036

gru.weight_ih_l0_reverse f4 [192, 29]
0	0xbbb8d044	-0.0056400616
1	0xbdf2936b	-0.11844524
2	0xbdb3727e	-0.08762072
3	0xbaff2c92	-0.0019468239
4	0x3e372c60	0.17888021
5	0xbd06c4de	-0.03290259
6	0x3d11536b	0.035479944
7	0x3dc8a706	0.09797482
8	0x3d58f8fb	0.05297182
9	0xbcf3fecd	-0.029784584
10	0x3d5c9fbd	0.053863276
11	0x3d4f61ca	0.05063037
12	0xbdf935dc	-0.12168476
13	0xbe074d93	-0.13213186
14	0x3d22f643	0.039785635
15	0x3de93960	0.113878965
16	0x3bd3857a	0.0064551206
17	0x3dbe43cd	0.09290276
18	0x3df8ad91	0.1214248
19	0x3d91f74f	0.071272485
20	0xbe157b59	-0.14597835
21	0x3d5bc782	0.053657062
22	0xbd506aa5	-0.050882954
23	0x3c8e471f	0.017367898
24	0x3cd4c48d	0.025972629
25	0x3c98082d	0.018558586
26	0x3de13bc6	0.10997729
27	0x3e0c8132	0.13721159
28	0x3d84fbc9	0.06493337
29	0xbd7057d1	-0.0586775
30	0x3db88e6c	0.0901154
31	0x3dccce35	0.10000268
32	0xbd3488a0	-0.04407561
33	0xbd686db3	-0.056745242
34	0x3c003743	0.007825675
35	0x3d226e76	0.039656125
36	0x3d802811	0.06257642
37	0x3dfcb509	0.12339217
38	0x3c102ef0	0.008800253
39	0x3cef23b2	0.029191826
40	0x3d5ed784	0.05440475
41	0xbdd9e700	-0.10639763
42	0x3defd1db	0.11709949
43	0x3b89a99f	0.0042011286
44	0x3dce203a	0.100647405
45	0xbddd733a	-0.10812993
46	0xbd134139	-0.035950873
47	0xbd49b49d	-0.049244512
48	0xbdfafd61	-0.122553594
49	0x3c4cd0e8	0.012500979
50	0xbde3dcb3	-0.111260794
51	0x3d806489	0.062691756
52	0x3e24f7bf	0.16110133
53	0xbd21569a	-0.03938923
54	0x3d765e89	0.06014875
55	0x3dc0fb88	0.09422976
56	0x3d494d25	0.049145836
57	0x3ca63f6a	0.02029391
58	0x3dc40edb	0.09573146
59	0xbc428f47	-0.01187498
60	0x3d1b9331	0.03798217
61	0x3de1f405	0.11032871
62	0x3daecb81	0.08534909
63	0x3e10da47	0.14145766
64	0x3de8ce20	0.1136744
65	0xbe127e6f	-0.14306043
66	0x3c7b46cf	0.015336706
67	0x3d97104b	0.073761545
68	0xbde9cefc	-0.11416432
69	0xbdf26524	-0.11835697
70	0xbcf71c20	-0.030164778
71	0xbd794450	-0.060856164
72	0x3dabe35e	0.08392976
73	0xbc28b50e	-0.010297073
74	0x3cc22c38	0.023702726
75	0xbda66632	-0.08124961
76	0xbd8f2c30	-0.0699085
77	0x3e18f258	0.14936197
78	0xbd377eaa	-0.04479853
79	0x3c227a4a	0.009916851
80	0x3d5b5a8c	0.05355315
81	0x3da788b8	0.08180374
82	0xbdf5f7ce	-0.120101556
83	0xbe04f3c6	-0.12983617
84	0xbd4f36e8	-0.050589472
85	0xbc250e7b	-0.010074253
86	0xbd27a012	-0.04092414
87	0x3d9ab429	0.07553894
88	0xbdac54d6	-0.08414619
89	0x3df65b28	0.120291054
90	0xbda3074e	-0.07960378
91	0xbd8690c1	-0.06570578
92	0xbd04c825	-0.032417435
93	0xbde1e511	-0.11030019
94	0xbb99385a	-0.004675907
95	0x3d2d7f6a	0.04235784
96	0x3e26c300	0.16285324
97	0xbd89c414	-0.06726852
98	0x3e13f453	0.14448671
99	0xbd8279c1	-0.06370879
100	0x3ce4edc6	0.02794541
101	0x3e17c9fc	0.14823145
102	0xbe1eac5d	-0.15495439
103	0x3c6190d8	0.013767444
104	0xbbb4f17b	-0.005521951
105	0xbda55974	-0.080737025
106	0x3c4fd1b1	0.012684272
107	0x3ca00a40	0.019536138
108	0xbd3607c8	-0.044441015
109	0xbe472226	-0.1944662
110	0x3d5debae	0.05417984
111	0xbca3f11e	-0.020012435
112	0x3dadea80	0.08491993
113	0xbce91dec	-0.02845665
114	0xbdcd6f00	-0.10030937
115	0xbdcb71ff	-0.099338524
116	0x3d6da5bc	0.058019385
117	0xbdfaabb0	-0.12239778
118	0x3d545919	0.051842783
119	0x3b8dda5d	0.0043290094
120	0xbcc298e3	-0.023754543
121	0xbe19c552	-0.15016678
122	0x3df0d977	0.11760228
123	0xbe27d1e8	-0.16388667
124	0xbdc7edac	-0.09762129
125	0x3b86539d	0.004099323
126	0xbe1b2fa3	-0.1515489
127	0xbdfed447	-0.124428324
128	0xbe261aaf	-0.16221116
129	0x3e01d4fc	0.12678903
130	0xbe34a140	-0.17639637
131	0x3d00104f	0.031265553
132	0x3dce7b10	0.10082066
133	0xbe0223aa	-0.12708917
134	0x3d07bc71	0.033138696
135	0x3d9b37b6	0.075789854
136	0x3dbe5c74	0.09294978
137	0xbdd209f6	-0.10255806
138	0xbddc8e97	-0.10769384
139	0xbe0389de	-0.12845561
140	0xbe0545eb	-0.13014953
141	0x3dcdc7da	0.10047884
142	0x3e1dd5fb	0.15413658
143	0x3e1597f7	0.14608751
144	0xbe352504	-0.17689902
145	0x3c18925d	0.0093122395
146	0x3d306f5b	0.043074947
147	0xbdc030e3	-0.093843244
148	0xbc14161b	-0.0090384735
149	0xbd128929	-0.035775337
150	0xbdcbf196	-0.09958188
151	0x3de7e9bb	0.113238774
152	0xbdf5fc18	-0.12010974
153	0x3e17c263	0.14820246
154	0x3bb15e55	0.0054128566
155	0x3e1ab287	0.15107165
156	0x3d82bbee	0.06383501
157	0xbdcf6be0	-0.101279974
158	0xbe11493d	-0.14188094
159	0x3bbfc60b	0.005852466
160	0x3d2dc355	0.04242261
161	0x3e13be0a	0.14427963
162	0xbdda9577	-0.106730394
163	0x3da5f3dc	0.08103153
164	0x3cbb22d7	0.022843761
165	0x3e0354f4	0.12825376
166	0xbdcfe329	-0.10150749
167	0xbdcabcdd	-0.09899304
168	0xbdc4e1d9	-0.096133895
169	0xbda12ca0	-0.0786984
170	0x3e03c809	0.12869276
171	0x3e179b7b	0.14805405
172	0x3dab473c	0.08363196
173	0x3d474ce9	0.04865733
174	0xbdb3d0f9	-0.08780093
175	0x3e2db92a	0.16965166
176	0x3da01840	0.07817125
177	0xbcc15c12	-0.023603473
178	0xbd0a9da5	-0.033841748
179	0xbca9515b	-0.020668676
180	0xbe2c2d09	-0.16814055
181	0x3e022976	0.12711129
182	0x3d140ce5	0.03614511
183	0x3bed4cbf	0.007241815
184	0x3df2a74b	0.11848315
185	0x3e061766	0.13094863
186	0xbd23461c	-0.039861783
187	0xbda62deb	-0.08114227
188	0xbdfbfd6a	-0.12304194
189	0x3df7cf1e	0.12100051
190	0xbce89db2	-0.028395507
191	0x3ce602fd	0.028077597
192	0xbd094706	-0.033515
193	0xbdf095cb	-0.11747321
194	0x3da45156	0.08023326
195	0xbcba30e7	-0.022728397
196	0x3d4b6adb	0.049662452
197	0xbdc015d9	-0.09379167
198	0xbca6cfae	-0.020362701
199	0xbdabdcb3	-0.083917044
200	0xbd2ede66	-0.042692564
201	0x3ddf6cd0	0.10909426
202	0x3cb156f7	0.021647913
203	0xbe1f7428	-0.15571654
204	0xbe32b0e1	-0.17450286
205	0xbd8eb709	-0.06968505
206	0x3d006c2e	0.03135317
207	0xbd6d3d4c	-0.057919785
208	0x3db71cb2	0.0894102
209	0x3d0a337e	0.033740513
210	0x3e091f8c	0.1339094
211	0x3c9d57a3	0.019206828
212	0x3cff1a22	0.03114039
213	0x3e4e682e	0.20156929
214	0x3da95eb2	0.08270015
215	0xbe22353a	-0.15840617
216	0x3e4c5841	0.19955541
217	0x3e2936e5	0.16524847
218	0xbc9ba202	-0.01899815
219	0xbc2757d4	-0.010213811
220	0xbcad758b	-0.021174213
221	0x3e0f344f	0.13984798
222	0x3e270756	0.16311392
223	0x3e24b0c5	0.16083057
224	0xbe171352	-0.14753464
225	0xbd0ce272	-0.034395643
226	0x3bb63f10	0.005561717
227	0xbd6e8849	-0.05823544
228	0x3d6267f9	0.055274937
229	0x3e216ede	0.15764949
230	0xbc97e95d	-0.018543893
231	0xba924320	-0.0011158921
232	0xbd9741b6	-0.0738558
233	0xbe207a3f	-0.15671633
234	0xbcde85ed	-0.02716347
235	0x3de113ee	0.109901294
236	0x3e19164d	0.14949913
237	0xbde26f01	-0.110563286
238	0xbd819c32	-0.0632862
239	0xbdbba78e	-0.09162818
240	0xbe1256c2	-0.14290908
241	0x3dfc2fd2	0.123138085
242	0xbdc46d16	-0.09591119
243	0xbd8525df	-0.06501364
244	0x3dda0d6b	0.106470905
245	0xbe0429e8	-0.12906611
246	0xbdceb2b8	-0.10092682
247	0xbc142fde	-0.009044616
248	0xbdf00c9a	-0.117211536
249	0xbe35867c	-0.17727083
250	0xbddd590a	-0.108079985
251	0x3a9cf341	0.0011974351
252	0x3e0c8fba	0.13726702
253	0x3dd0b9b4	0.1019167
254	0xbe647fed	-0.22314425
255	0x3e11ea29	0.14249481

gru.weight_hh_l0_reverse f4 [192, 64]
0	0xbd79f900	-0.06102848
1	0x3dafe85d	0.08589242
2	0x3c7673f0	0.01504229
3	0x3d9b4c55	0.075829186
4	0x3d08b9f8	0.03338048
5	0x3cdfa600	0.027300835
6	0x3db114b6	0.086465284
7	0x3d1d0f4a	0.03834466
8	0xbd53f307	-0.05174544
9	0xbb805aa8	-0.003917057
10	0xbd93627c	-0.07196519
11	0xbc886bd8	-0.016652986
12	0xbe47b8c7	-0.1950408
13	0x3d267b16	0.040644728
14	0xbd0bb5d8	-0.034108967
15	0xbc861060	-0.01636523
16	0x3d73bbc9	0.059505258
17	0xbaf47bea	-0.0018652652
18	0x3e26e3a0	0.1629777
19	0xbaef67ec	-0.0018265224
20	0x3d399dd7	0.045316543
21	0x3dc76711	0.09736455
22	0x3d1bb265	0.038011927
23	0xbb75c686	-0.0037502362
24	0x3c1b657f	0.009484648
25	0x3ccf3e0d	0.025298143
26	0xbd5306b9	-0.051520083
27	0x3daa0249	0.08301217
28	0x3cd2e468	0.025743678
29	0xbd57ff3f	-0.052733656
30	0x3b6adb15	0.003583615
31	0x3de4b058	0.111664474
32	0x3caea225	0.02131755
33	0x3c026de3	0.007960769
34	0xbdf35205	-0.11880878
35	0x3cdb6811	0.026783021
36	0xbd304dc5	-0.043042917
37	0x3da5923c	0.080845326
38	0x3dae0e8b	0.084988676
39	0x3db17f96	0.08666913
40	0x3d811890	0.06303513
41	0xbbf38744	-0.0074318964
42	0xbc0b30ef	-0.008495553
43	0xbc6877fc	-0.014188763
44	0xbaf56c72	-0.0018724336
45	0xbe09b57f	-0.13448142
46	0x3b27e948	0.0025621224
47	0x3c5239ac	0.012831133
48	0x3b488eaf	0.0030602624
49	0xbe0b9358	-0.13630426
50	0x3ce2fe13	0.027709043
51	0x3dd86282	0.10565664
52	0x3d689f23	0.05679239
53	0xbbc6ad89	-0.0060631675
54	0x3d55d405	0.05220415
55	0x3d3a9125	0.045548577
56	0xbc89c7bd	-0.016818875
57	0xbd5a60cb	-0.053314965
58	0xbd7e2af3	-0.06205268
59	0x3dc03056	0.09384219
60	0x3e07e323	0.1327024
61	0xbcf36b95	-0.029714385
62	0x3cf3d367	0.02976389
63	0x3d11dde8	0.035612017
64	0xbd8ab967	-0.06773644
65	0x3cafb940	0.021450639
66	0x3d6db42e	0.05803316
67	0x3c49d760	0.012319416
68	0x3de177cc	0.110091776
69	0xbd904384	-0.070441276
70	0x3dd27dea	0.102779225
71	0xbc9f38a2	-0.019436184
72	0xbd1aa4c5	-0.037754793
73	0xbbfbe4d5	-0.007687191
74	0x3b94fb2b	0.004546543
75	0xbdc84482	-0.09778692
76	0xbb710224	-0.0036774958
77	0xbc8b37f9	-0.016994463
78	0xbe2264ed	-0.15858813
79	0xbd8571dc	-0.065158576
80	0x3df091d7	0.11746567
81	0x3ddbc99f	0.107318155
82	0x3d0ad83f	0.033897635
83	0x3dc255fa	0.09489055
84	0xbc71f7ef	-0.014768585
85	0x3ddb666f	0.10712897
86	0x3c6e1647	0.0145316785
87	0xbd0825c6	-0.03323915
88	0xbda5b1b7	-0.08090537
89	0xbd922fb5	-0.07138006
90	0xbd7b9f7a	-0.061431386
91	0xbd2b983c	-0.04189323
92	0xbd49012b	-0.04907338
93	0x3db67740	0.08909464
94	0x3daceeb0	0.084439635
95	0xbe139dcf	-0.14415668
96	0x3d97c026	0.07409696
97	0xbc9535d2	-0.01821414
98	0x3d60c9be	0.054879896
99	0xbd34a4f3	-0.04410262
100	0xbc5ef720	-0.013608724
101	0xbbc0948d	-0.0058770836
102	0xbdaee374	-0.08539477
103	0x3d884c80	0.06655216
104	0xbdf6f2d1	-0.12058032
105	0x3dc8ae1c	0.09798834
106	0x3dde8c31	0.10866583
107	0x3c2671a0	0.010158926
108	0x3daca281	0.08429433
109	0xbd0e2fee	-0.034713678
110	0xbcc1ca5f	-0.023656068
111	0xbd6f290c	-0.058388755
112	0xbd56e627	-0.052465584
113	0xbd46ca25	-0.048532624
114	0xbd65d96c	-0.056115553
115	0x3cd8276d	0.026385987
116	0xbd2774ab	-0.040882748
117	0x3d2233ad	0.039600063
118	0xbcd422b3	-0.025895452
119	0xbcc459e7	-0.02396865
120	0xbdd53d3b	-0.104120694
121	0xbd109d53	-0.035306286
122	0xbd642ae9	-0.055704985
123	0x3c468f9c	0.0121192
124	0xbe155ca8	-0.14586127
125	0x3dc88220	0.097904444
126	0xbc744749	-0.014909574
127	0xbd332fde	-0.04374682
128	0xbe1fdc6a	-0.15611425
129	0xbd19986e	-0.037498884
130	0xbd9ecaf0	-0.07753551
131	0xbd1bff21	-0.038085107
132	0x3d8bff11	0.068357594
133	0x3d91860e	0.07105647
134	0xbce93b8b	-0.028470775
135	0x3d1df00b	0.038559
136	0x3d30e336	0.043185435
137	0x3ddfde5f	0.10931086
138	0x3b1d8650	0.0024036355
139	0xbd2a7b2b	-0.04162137
140	0x3db6bd6e	0.089228496
141	0xbc9816ac	-0.018565498
142	0x3dec555d	0.11539719
143	0xbe1443cd	-0.14478989
144	0x3ce680aa	0.028137524
145	0x3d8f5724	0.06999043
146	0x3d90fc94	0.070794255
147	0x3de556c1	0.111981876
148	0x3dc20604	0.09473804
149	0x3cbd0f68	0.023078635
150	0x3d88c021	0.06677271
151	0x3e20871e	0.15676543
152	0x3e22a525	0.1588331
153	0xbc450e83	-0.012027386
154	0x3e02259d	0.12709661
155	0x3cb844d2	0.022493754
156	0x3da5eb17	0.081014805
157	0x3d8d311a	0.06894131
158	0xbc1764c9	-0.009240338
159	0xbd09d850	-0.033653557
160	0x3db8ebbe	0.09029339
161	0xbd66e364	-0.0563692
162	0x3cbe0569	0.02319594
163	0x3d4e7bee	0.050411157
164	0x3c984835	0.018589118
165	0x3d076a66	0.033060454
166	0xbc55a1fa	-0.0130391065
167	0x3d82588d	0.06364546
168	0xbd6f98d5	-0.05849536
169	0x3e0e2ccd	0.13884278
170	0xbd1105c9	-0.035405908
171	0x3d012c59	0.031536434
172	0xbd5d0aa3	-0.053965222
173	0x3d73ea7e	0.0595498
174	0xbd546164	-0.05185069
175	0x3d0cc778	0.034369916
176	0xbd55da17	-0.05220994
177	0x3d107cf7	0.035275426
178	0x3b3aa138	0.0028477442
179	0x3ca587e6	0.020206403
180	0x3c28f027	0.010311163
181	0x3d8e1f0c	0.069395155
182	0x3daa08fb	0.08302494
183	0x3cdcdb34	0.026959993
184	0x3d84d5a4	0.06486061
185	0x3c89c3da	0.016817022
186	0x3dfb6183	0.12274458
187	0xbca8285a	-0.020527054
188	0xbc63e6be	-0.013909994
189	0xbda43478	-0.0801782
190	0x3c74d8b6	0.014944246
191	0xbd290fd6	-0.041274868
192	0x3d4f3328	0.050585896
193	0xbd982e2a	-0.0743068
194	0x3de29005	0.11062626
195	0x3d8e19b0	0.06938493
196	0x3d854699	0.06507606
197	0xbca53698	-0.020167634
198	0xbd325c97	-0.04354533
199	0x3d97e255	0.07416216
200	0x3d0e2777	0.034705605
201	0xbd1b00e4	-0.037842646
202	0x3cbea191	0.0232704
203	0xbdc2c9ee	-0.09511171
204	0x3d76dda6	0.060269974
205	0xbd49ee6e	-0.04929965
206	0x3d88f355	0.06687037
207	0x3d877748	0.06614548
208	0x3df634a5	0.1202176
209	0x3a8fb8a0	0.0010965057
210	0x3d6d5474	0.05794187
211	0xbcfdba9a	-0.030972768
212	0x3cad000e	0.02111819
213	0xbd720714	-0.05908878
214	0xbcfc9504	-0.030832775
215	0xb89cd980	-7.479172e-05
216	0x3d5801b6	0.052736007
217	0xbd98bfe1	-0.07458473
218	0xbc716016	-0.014732381
219	0xbc824a34	-0.015904523
220	0xbdc98e7e	-0.09841631
221	0xbd041fb1	-0.032256786
222	0x3cc910c3	0.024544125
223	0x3d782675	0.06058355
224	0x3c7f3840	0.015577376
225	0x3dce2818	0.10066241
226	0x3dc0fe44	0.09423497
227	0x3d1f55cb	0.038900178
228	0xbd6962ce	-0.056978993
229	0xbd9fbd9e	-0.077998385
230	0x3a877f08	0.0010337541
231	0xbcbdb8ea	-0.023159463
232	0xbcb1900f	-0.021675138
233	0x3e002878	0.12515438
234	0xbc427597	-0.011868856
235	0x3d87a427	0.066231064
236	0x3d6e215f	0.058137294
237	0x3db431ff	0.087985985
238	0x3c34d0f8	0.01103615
239	0x3d5f7598	0.054555506
240	0xbdf0c252	-0.11755814
241	0xbe05c59c	-0.13063663
242	0x3d3e7715	0.046500284
243	0xbd717708	-0.058951408
244	0x3d967113	0.07345786
245	0xbdc9f442	-0.098610416
246	0xbc7ec87e	-0.015550731
247	0xbdc9965b	-0.09843131
248	0xbcbc8ee1	-0.023017349
249	0x3d6e2b57	0.0581468
250	0xbde55020	-0.11196923
251	0x3d29748f	0.041370925
252	0xbd5248cc	-0.051338956
253	0x3c13a547	0.009011573
254	0xbd2350b6	-0.039871894
255	0xbd4d081c	-0.05005656

gru.bias_ih_l0_reverse f4 [192]
0	0xbc81644b	-0.015794894
1	0xbc63444f	-0.0138712665
2	0xbc8bfccd	-0.017088318
3	0x3cf55762	0.029948894
4	0x3c15997d	0.009130833
5	0x3d178629	0.03699318
6	0xbcac5d8f	-0.021040706
7	0x3d06357c	0.03276585
8	0x3c89e61b	0.016833356
9	0xbbbfccef	-0.0058532874
10	0x3b1e806b	0.002418543
11	0xbcc7e4d4	-0.024401106
12	0x3ca4b697	0.020106597
13	0x3c8a3823	0.016872471
14	0x3ce6b673	0.02816317
15	0xba7c449a	-0.00096232595
16	0x3cff8a0a	0.031193752
17	0x3be7adfa	0.0070703
18	0x3ca50a8d	0.020146633
19	0xbbb93c83	-0.0056529655
20	0xbc5dcad9	-0.013537132
21	0x3ce3bf9f	0.027801333
22	0xbb6b7639	-0.003592862
23	0xba885775	-0.0010402041
24	0xbd13e21d	-0.03610431
25	0xbcc856a6	-0.02445538
26	0xbb078b68	-0.0020682458
27	0x3c8a7b5a	0.016904522
28	0xbb806c36	-0.0039191497
29	0x3c9869e5	0.018605182
30	0xbc942d28	-0.018087938
31	0xbc81381d	-0.015773827
32	0x3c94c6ce	0.018161204
33	0x3aca7fb1	0.0015449432
34	0xbb8cb749	-0.00429431
35	0xbc1583e4	-0.009125683
36	0xbc75d974	-0.015005458
37	0xbbc2e56d	-0.00594776
38	0x3d2d4e2d	0.042310882
39	0x3cd95837	0.026531322
40	0xbb968d3a	-0.0045944722
41	0xbc1bf4d3	-0.00951882
42	0xbc85036c	-0.016236983
43	0x3b9bfaf0	0.0047601387
44	0x3c172fdc	0.009227719
45	0xbc274474	-0.010209192
46	0x3b7cee68	0.003859425
47	0xbc12eded	-0.008967859
48	0x3c30028a	0.010742793
49	0x3cba502f	0.022743313
50	0x3cb5e96f	0.022206036
51	0xbc90cfcb	-0.017677208
52	0x3c3e0f7a	0.01160037
53	0xbb90f989	-0.004424278
54	0x3c1cb6a5	0.00956503
55	0x3c7ff893	0.01562323
56	0x3c9f849f	0.019472418
57	0x3c87e5ee	0.016589131
58	0xbcb026c3	-0.021502858
59	0xbcf673d4	-0.030084528
60	0x3d0222a3	0.031771313
61	0x3c07caba	0.00828808
62	0x3d21a306	0.039462112
63	0xbc6e56ad	-0.014547032
64	0xbca4dfba	-0.020126212
65	0xbc65d56b	-0.014027934
66	0xbcbf4494	-0.02334813
67	0xbcf18b9f	-0.029485522
68	0xbcc1e0cf	-0.023666767
69	0xbceae356	-0.028672855
70	0x3c499032	0.012302445
71	0xbd0533df	-0.03252017
72	0xbd25ac29	-0.040447388
73	0xbc333dca	-0.010940025
74	0x3c035272	0.008015262
75	0x3b090c46	0.0020911857
76	0xbcb4f1e9	-0.022088008
77	0xbd053b0c	-0.032527015
78	0xbc8549fb	-0.016270628
79	0xbbc054e6	-0.0058694957
80	0xbd3a1bdc	-0.045436725
81	0xbcfbb8d1	-0.030727776
82	0xbd1f6295	-0.038912375
83	0xbb0a861a	-0.002113706
84	0xbc95b06a	-0.018272597
85	0xbd012968	-0.03153363
86	0xbc986a54	-0.018605389
87	0xbc92422f	-0.017853824
88	0xbb9b646f	-0.004742197
89	0x3b868bca	0.0041060196
90	0xbc51b69b	-0.012799884
91	0xbca28c5f	-0.019842325
92	0x3a31b6f4	0.00067792763
93	0x3c4e9fe7	0.012611366
94	0xbc0f7ee1	-0.008758278
95	0xbd052de8	-0.032514483
96	0xbcb5c294	-0.022187509
97	0x3cec619f	0.028855143
98	0x3d13f784	0.03612472
99	0xbbd06158	-0.0063592605
100	0xbcb347ad	-0.021884764
101	0xbc84e7e1	-0.01622385
102	0xbd1194c4	-0.035542265
103	0xbc5f29ac	-0.013620775
104	0x3b9687ce	0.004593826
105	0xbd0912e9	-0.0334653
106	0x3b64b7a5	0.00348995
107	0x3c171b41	0.009222806
108	0xbca5193c	-0.020153634
109	0xbd6c24d0	-0.057652295
110	0x3c183a6a	0.009291271
111	0x3d05a86f	0.032631334
112	0xbd284ce6	-0.04108896
113	0xbcd2920e	-0.02570441
114	0xbcb3b3e4	-0.021936364
115	0x3bb53970	0.0055305287
116	0xbc4a75b3	-0.012357163
117	0xbc9e0ca3	-0.019293135
118	0xbc5d18ff	-0.013494729
119	0x3c763066	0.0150261875
120	0x3b4529b6	0.0030084676
121	0xbd19e846	-0.03757503
122	0x3b73d84f	0.0037207787
123	0x3c269804	0.010168079
124	0xbccd6656	-0.025073212
125	0xbd4f9c13	-0.050685953
126	0xbc8dcd0b	-0.017309686
127	0xbcbc1739	-0.022960292
128	0x3c216e19	0.0098529095
129	0x3a64243b	0.00087029085
130	0x3b67838b	0.0035326208
131	0x3cffb9c4	0.03121651
132	0x3ca02269	0.019547658
133	0x3d00d5e0	0.031453967
134	0xbc51a6bc	-0.0127961
135	0x3d0b63f0	0.034030855
136	0xbcc65b11	-0.024213346
137	0x39ba21e2	0.0003550193
138	0xbc8e54e7	-0.017374469
139	0x3bde3694	0.0067814086
140	0xbcafbe42	-0.021453027
141	0x3cb8b8cf	0.022549061
142	0x3cdbdeed	0.026839698
143	0xbc53707e	-0.012905238
144	0xbd0f66aa	-0.035010017
145	0x3c95c0b0	0.018280357
146	0x3cceab26	0.025228094
147	0xbc45a720	-0.0120637715
148	0xba193d71	-0.00058456423
149	0xbcd444f4	-0.025911786
150	0xbbdd821b	-0.0067598945
151	0xbb86fa2d	-0.0041191787
152	0x3aa45a8f	0.0012539196
153	0x3bcb52e7	0.006204951
154	0x3c36611b	0.01113155
155	0x3cb1ac30	0.02168855
156	0x3c5c2a65	0.013437842
157	0x3ca568e0	0.02019161
158	0x3c1ea683	0.009683254
159	0x3c9dd43a	0.019266237
160	0x3ca8a112	0.020584617
161	0xbc575a72	-0.013144122
162	0xbc39a9dd	-0.0113320025
163	0xbc862c85	-0.01637865
164	0x3c523093	0.012828964
165	0xbc449b61	-0.011999936
166	0xbd31bc0d	-0.04339223
167	0xbcf8e6cc	-0.03038349
168	0x3c0d75bc	0.008634027
169	0xbae9cfda	-0.0017838434
170	0xbc259bb7	-0.010107926
171	0x3cc2e04c	0.023788594
172	0x3ca7ff59	0.020507501
173	0x3c521ebe	0.012824712
174	0x3c576028	0.013145484
175	0x385ccccf	5.264283e-05
176	0x3ca848c2	0.020542506
177	0x3cdfdb6e	0.027326312
178	0xbca0d712	-0.019633804
179	0x3bfc69b2	0.0077030296
180	0x3c976690	0.018481523
181	0xba90593a	-0.001101292
182	0xbc6847fc	-0.014177319
183	0xbcb76771	-0.022388192
184	0xbccf5d9d	-0.025313193
185	0xbcff7fee	-0.031188931
186	0xba65825b	-0.0008755081
187	0xbbdf7ab1	-0.006820046
188	0x3d038ad7	0.03211483
189	0x3c9837e0	0.01858133
190	0x3d0845a4	0.03326954
191	0x3c8da484	0.017290361
