ckpt/model_lr_0.001_emb_8_hid_64_layers_1.pth (torch, 239234 bytes, 18 tensors)

class_embedding.weight f4 [8, 8]
000000 d2 47 fb bc a3 f0 d1 bc 21 3b c5 bc 91 5a 20 bc
       -0.030673895 -0.02562744 -0.024076046 -0.009787218
000010 1a b7 20 3c 20 55 29 3d d8 8f 63 3d 62 b6 2e 3d
       0.00980928 0.041340947 0.055557102 0.042654403
000020 13 eb 30 bd b9 a7 87 ba ba 1c 0b bd 1e 21 f7 bc
       -0.043192934 -0.0010349668 -0.033962943 -0.030167159
000030 ce 3d 99 3c d1 51 03 3c 46 cf b7 3c 57 d8 05 3d
       0.018706229 0.008015112 0.022437703 0.03267702
000040 28 4f dc 3d 38 d6 3d 3d bf 5d 9c 3d 43 60 cc 3d
       0.10757285 0.046346873 0.07635068 0.09979298
000050 fb 09 95 bd 92 22 15 be 09 78 fe bd 06 6c 7e bd
       -0.07277294 -0.14563969 -0.12425239 -0.062114738
000060 7c da 5e 3c de 95 a0 bd 34 2e 8d 3c 6d 01 16 3d
       0.013601895 -0.07841085 0.017233945 0.036622453
000070 a1 71 1e bd 6e f5 4c 3c 70 c5 8a bc ba 22 66 bd
       -0.038682584 0.012509687 -0.016939849 -0.05618546
000080 d1 8d 28 bd 7a ee 34 3d 20 b1 10 bd c6 44 31 bd
       -0.04115087 0.04417274 -0.03532517 -0.043278478
000090 ee cd 9d 3c 4f 58 06 bc 21 86 a8 3c 27 a1 0f 3d
       0.019263234 -0.008199765 0.02057177 0.035065796
0000a0 0b 64 33 3b 96 45 4b bd 62 46 a4 3c 1f 23 7e 3c
       0.0027372863 -0.04962691 0.020053092 0.015511303
0000b0 02 76 86 bd d3 a4 a9 3c f9 25 16 bd 70 ef 4d bd
       -0.06565477 0.020708477 -0.036657307 -0.050277174
0000c0 8d bb 01 3d 87 7e 05 3c cf e8 48 3d 3c d7 15 3d
       0.031673003 0.008147842 0.04905015 0.036582217
0000d0 f0 a0 d7 bc 33 d6 2a bc 52 6e 0f bd 7f 34 bb bc
       -0.026321858 -0.010427046 -0.03501732 -0.02285218
0000e0 32 46 c1 bb b7 0d 84 3b 80 c0 34 bc e4 68 1f 3c
       -0.0058982605 0.0040299552 -0.011032224 0.009729598
0000f0 9e a7 59 ba c1 14 ad 3c 5d c7 a4 bc 97 f7 b4 38
       -0.000830287 0.02112806 -0.020114595 8.629186e-05

class_counts_projection.weight f4 [8, 5]
000000 1b cc fa be da d1 24 3f fe 86 96 bc 0d 4e 0f 3f
       -0.48983845 0.6438271 -0.018374916 0.5597847
000010 63 74 6f bd 6f 51 70 be 5b f2 c2 3d 01 f7 10 bf
       -0.058460604 -0.23468564 0.09518882 -0.566269
000020 3a c6 22 3f 19 d1 92 bd b0 e8 c3 be d8 6f a9 bc
       0.6358372 -0.071687885 -0.38263464 -0.020683214
000030 a0 af fb be c1 cd 1f bf 0a 65 0e bd 7d a2 91 be
       -0.4915743 -0.6242333 -0.034764327 -0.2844428
000040 c5 ec 06 bf 26 36 ce 3e 6a 7e 08 3f ad b3 15 3f
       -0.5270503 0.40275687 0.5331789 0.5847729
000050 47 70 01 3f 35 05 a1 be e2 86 09 3f db 88 8d be
       0.50561947 -0.31449285 0.5372144 -0.27643475
000060 45 8f 89 bd d2 70 48 be bd ca 06 bf e2 74 0e bf
       -0.067167796 -0.19574288 -0.52653104 -0.556471
000070 d8 16 a8 be 3a 6a 0c bf 40 7e 2e bf 6c d0 3f be
       -0.32829928 -0.5484959 -0.6816139 -0.1873185
000080 a9 c6 3a 3e 1f f2 43 3d a2 fa 0e be 20 d1 0a 3f
       0.18239845 0.047838327 -0.13962796 0.5422535
000090 a3 82 1e 3f 2d 2e 0f be ad 7c 00 3f c9 12 d4 3e
       0.61918086 -0.13982458 0.5019024 0.41420582

class_counts_projection.bias f4 [8]
000000 d7 36 eb 3c 45 95 a1 3c 1c 81 9a bc df dc fa ba
       0.028712673 0.019724498 -0.018860392 -0.0019139311
000010 17 05 0b ba ff bb 8c 3c 0d 39 45 3c 54 da bf bc
       -0.00053031876 0.017179487 0.012037528 -0.023419537

layer_norm.weight f4 [21]
000000 e6 cc 82 3f 8a 46 86 3f 94 02 85 3f f2 88 83 3f
       1.021878 1.0490277 1.0391412 1.0276167
000010 67 ba 84 3f ac 50 84 3f 2c c4 85 3f 5b 3a 83 3f
       1.0369385 1.0337119 1.0450492 1.0252184
000020 85 7d 7a 3f 59 c0 8b 3f 23 ec 85 3f f1 ef 86 3f
       0.9784778 1.0918075 1.0462688 1.0541974
000030 49 63 85 3f f0 16 84 3f 19 ef 85 3f 62 20 82 3f
       1.0420924 1.03195 1.0463592 1.0166132
000040 a2 c8 84 3f 38 c2 7c 3f 96 d1 80 3f e2 98 85 3f
       1.0373728 0.98733854 1.006396 1.0437281
000050 71 75 85 3f
       1.0426465

layer_norm.bias f4 [21]
000000 01 fb 80 bc f1 b6 ba 3c f5 37 65 3a 6f a3 50 3c
       -0.015744688 0.022792311 0.0008743995 0.012734278
000010 8f 5a 22 bb e8 24 a0 3c c6 85 80 bb 99 94 60 bc
       -0.0024773215 0.019548848 -0.003922197 -0.013707303
000020 63 c9 e6 bc b6 61 46 bb 70 c6 cf 3c e4 bc be bc
       -0.0281722 -0.0030270643 0.025363177 -0.02328343
000030 ac 40 72 3c 31 13 97 3b bf 39 a6 3c cb f9 44 3c
       0.014785927 0.004610442 0.020291207 0.012022446
000040 ec 81 c4 bc 03 b5 02 bc 16 43 70 3c 1f 84 9d bb
       -0.023987733 -0.007977727 0.014664432 -0.00480701
000050 dd 2e 5d 3c
       0.013499943

gru.weight_ih_l0 f4 [192, 21]
000000 b2 dc d3 3d f5 4d b0 3d f7 78 93 bd 9e 43 a2 bc
       0.10344829 0.08608619 -0.072008066 -0.019807633
000010 61 5f c9 bb dd 7b 24 be 77 78 b6 bc fe 90 29 be
       -0.0061454033 -0.16062875 -0.022274239 -0.16559216
000020 b1 9b 14 3e 57 b6 71 3e 4b 6e 95 bc a2 0a d3 bd
       0.14512517 0.23604713 -0.018241068 -0.103047624
000030 2b 4a 3a 3e 35 4b f0 bd 35 c9 dd bc fd a6 d5 bc
       0.18192355 -0.117330946 -0.027073482 -0.026080603
000040 53 0d 14 3e ed bb 3d be ad 7b 0c bd 68 cb b9 3d
       0.14458208 -0.18528719 -0.034297634 0.09072
000050 05 91 df bb 8c a7 9e bd b2 c9 09 be ad a0 e1 3d
       -0.0068227076 -0.07746801 -0.13455847 0.110169746
000060 f2 34 91 bd 63 75 e3 bd 53 52 2d be db 98 25 be
       -0.07090177 -0.11106374 -0.16925935 -0.16171591
000070 09 fc fc bd 52 07 e3 3d 28 4a 25 3e c4 41 b5 3d
       -0.123527594 0.110853806 0.1614157 0.088504344
000080 bb 01 9d bd db dd 2e 3d 88 83 50 bb e5 3e 74 bd
       -0.07666346 0.042692047 -0.003181668 -0.059630293
000090 ec 67 45 be c1 0e b0 bd 86 5b 50 bd 15 ed 8d bd
       -0.19277924 -0.08596564 -0.050868534 -0.069299854
0000a0 41 70 ab 3d 05 4e 11 3d 65 39 fe bd 93 1c 04 be
       0.0837102 0.035474796 -0.12413291 -0.12901525
0000b0 6c c8 f8 bb 16 11 b4 3d cc 98 33 be ce f2 63 3d
       -0.0075922515 0.087923214 -0.17538756 0.05565148
0000c0 33 e3 2e 3d 2e a5 8d bd 90 6b b9 3d c1 c8 6b 3e
       0.042697143 -0.06916271 0.09053719 0.230258
0000d0 74 8c 98 3d 85 2f 73 bc 2d 64 38 3e 5d 0e 64 3c
       0.07448664 -0.0148428725 0.18006964 0.01391944
0000e0 d1 a7 e3 bb 3a cf 99 3c 38 82 6e bc 10 3e d6 3d
       -0.0069474955 0.018775571 -0.014557414 0.10461056
0000f0 f4 40 52 be e0 e1 ae bc d7 56 81 bd 63 a2 19 be
       -0.2053259 -0.02134794 -0.063153915 -0.15003352
000100 eb 5e b0 bc 10 11 82 3d e6 25 27 3e e7 13 45 be
       -0.021529635 0.06350911 0.16323051 -0.19245873
000110 ba 2a c8 bd 44 ba 2e be 2c 61 27 be 93 a9 ba 3d
       -0.097737744 -0.17063242 -0.16345662 0.09114375
000120 08 79 16 3e 9f a7 1e 3e 29 12 5a 3d 4d c4 31 3d
       0.14694607 0.1549363 0.053239975 0.043400098
000130 4f 4d 1a 3e a4 08 c1 bd bd 48 93 3a 55 42 06 3e
       0.15068553 -0.09425476 0.0011236888 0.13111241
000140 75 cf 0f be f7 0e f7 bd 86 76 52 bd 5c df 04 3e
       -0.14043982 -0.12063401 -0.051382564 0.1297583
000150 72 48 aa 3d 61 f5 e5 bd f5 84 f3 3b 27 d4 b1 bd
       0.08314599 -0.11228443 0.007431621 -0.08683043
000160 1e 8f 4b 3c e6 c5 18 3e e6 28 87 3d 99 06 96 3d
       0.0124242585 0.14919242 0.06599598 0.07325477
000170 56 25 11 3e 76 9e ef bd 1b c4 a6 3d c6 1b 7d 3d
       0.14174399 -0.11700146 0.08142873 0.061794065
000180 e0 df f2 3d 65 07 04 3b cb 2d 08 3c 8f f1 91 3d
       0.11859107 0.002014601 0.008311699 0.07126152
000190 c1 c2 71 3e 2e 40 1f be 79 e9 b9 bd 44 81 4d 3d
       0.23609449 -0.15551826 -0.090777345 0.050172105
0001a0 fb 59 35 be 9a 9e a2 bd 0b ff a7 3d 23 77 fa bd
       -0.17710106 -0.07940407 0.082029425 -0.12229755
0001b0 12 27 34 be ab e2 06 be 6b 2d 29 3c 48 e3 90 bd
       -0.17593029 -0.13172404 0.01032577 -0.070746005
0001c0 14 c8 02 be f6 e8 90 3d 6c 48 19 3e 97 b4 44 3e
       -0.12771636 0.07075684 0.14969033 0.19209515
0001d0 5a be 65 bc ae f5 03 3e bb 7c 84 bd 52 95 24 be
       -0.014022434 0.12886688 -0.06469103 -0.16072586
0001e0 30 d7 30 be 4d 75 27 bd 41 66 53 3d 85 c9 46 bd
       -0.17269588 -0.04088335 0.05161119 -0.048532028
0001f0 4d 60 1d be 27 83 1a 3d ac 18 46 3d e5 f8 c5 bc
       -0.15368767 0.037722733 0.048363373 -0.024166534
000200 d9 85 03 be de 0e ed 3c b0 73 32 bc be 8d c5 3c
       -0.12844028 0.028937753 -0.01089184 0.02411544
000210 b3 cb 4c be 20 de d1 bd d0 32 d4 bd 54 05 58 bd
       -0.1999958 -0.10247445 -0.10361254 -0.052739456
000220 a2 e1 ab 3b 02 de c3 3d 84 4d 4a 3e 72 5d af bc
       0.0052454034 0.09563829 0.19756132 -0.021406863
000230 d4 e9 fa bd cc c1 06 be df 0c 38 3e a2 6e c1 3b
       -0.122516304 -0.13159865 0.1797366 0.005903081
000240 23 bc 10 be 87 da 28 3e 3d 11 14 be 95 df 47 be
       -0.14134268 0.16489612 -0.14459701 -0.19518884
000250 7e 04 8e 3d 60 86 14 bd bb 91 8d 3d 2f 68 15 be
       0.069344506 -0.036260962 0.069125615 -0.14590524
000260 f0 c0 02 bd 8b 11 2d be 99 0b 0c 3c a0 e8 3c bd
       -0.03192228 -0.16901223 0.008547687 -0.046120286
000270 ce 47 b0 3d 8f c2 b0 3d ad 5b ad 3d 3a 92 82 3e
       0.08607446 0.08630859 0.084647514 0.25502187
000280 87 56 7f bd 6d cf 54 3d 4e f4 78 3d 52 30 81 bd
       -0.06233838 0.05195563 0.060779862 -0.063080445
000290 56 b6 07 3d 0e a2 69 3d 56 2a ae bd 34 de 16 3d
       0.033132873 0.057039313 -0.08504169 0.036833003
0002a0 bf 6b 0f be 26 2a 22 3c 17 f1 57 bd a7 5a 0c be
       -0.14005946 0.009897744 -0.052720156 -0.13706456
0002b0 51 da b0 3d ed 40 cf 3c ef 06 e2 bd 8d 2b fa 3c
       0.086353905 0.025299514 -0.11036479 0.030538345
0002c0 41 e1 2c 3e 82 db 15 3d 49 0a ff 3d e8 fe 22 3e
       0.16882803 0.036586292 0.124531336 0.15917552
0002d0 0e c1 5d 3e 42 4b c3 bd 27 88 78 be 16 30 64 3d
       0.21655676 -0.09535839 -0.24270688 0.05570992
0002e0 be 4e 76 bd 74 02 07 bc e6 22 5d 3b 72 3e 9c bd
       -0.06013369 -0.008240331 0.0033742725 -0.07629098
0002f0 32 0d 01 3e 10 81 72 bd 3b bc ff 3d f2 d0 c6 3d
       0.1260269 -0.059205115 0.12487074 0.09707822
000300 dd 04 06 3e 2f a7 31 3d 7e dd 42 bd c6 ce 5c be
       0.13087793 0.04337233 -0.047574513 -0.21563253
000310 7f ee 3e bd cc 11 b6 bd 61 9c 7e bd f8 2b 3a 3d
       -0.046614166 -0.08890113 -0.062160853 0.045452088
000320 82 7b 8a bd 79 b4 d1 bc bd 76 df bc f1 b8 d9 bd
       -0.067618385 -0.025598751 -0.027278299 -0.10630978
000330 5b da 0d 3d c7 0a 4a 3e f0 03 ee 3b 74 95 d4 bd
       0.034632068 0.19730674 0.007263653 -0.103800684
000340 75 82 12 3b 4b a8 d2 3d e5 ec 26 3e f1 f4 3f bd
       0.002235559 0.102860056 0.16301306 -0.046864454
000350 fd 38 f8 3d a1 9c 8b 3d 90 8e 1e 3e ba c5 0c 3d
       0.12120245 0.06816984 0.15484071 0.034368254
000360 03 0a c1 3d b1 d9 0a 3e c8 98 d4 3d dc af b8 3c
       0.09425738 0.13559605 0.10380703 0.022544794
000370 2f aa 61 bd 73 d3 f4 ba 82 a2 06 3e e8 77 bb 3d
       -0.05509394 -0.001867874 0.1314793 0.0915373
000380 4f 1b 99 3c dd 8c 12 bd 22 81 f9 bd 1c e2 c4 bd
       0.01868978 -0.03577887 -0.12182833 -0.096134394
000390 69 7f 21 3e d6 b1 a1 3d 26 a8 0d 3e 28 32 a8 bd
       0.1577126 0.07895248 0.13833675 -0.082126915
0003a0 9e 57 fc bd 3c 2d 7b 3d a6 60 4d bd 12 0c 09 be
       -0.12321399 0.061322436 -0.050141 -0.1338351
0003b0 67 16 df bc 0c 83 69 3d 31 ab 13 bd c1 5e 2f 3e
       -0.027232362 0.05700974 -0.036051933 0.1712599
0003c0 8d 12 5e 3e fd 51 2a 3e c1 3e 24 bd 57 a1 9c 3d
       0.21686764 0.16632839 -0.04009891 0.07647961
0003d0 c2 c1 b7 bc 99 f9 07 3d 5d a3 0d 3e 43 f9 75 3d
       -0.022431258 0.03319702 0.1383185 0.060052168
0003e0 fe 01 4d bd 61 55 48 be e0 07 20 be a2 f1 2c be
       -0.050050728 -0.1956382 -0.15628004 -0.1688905
0003f0 5e 87 8e 3d 41 9b da bd 40 15 3b be bc 3a 61 3d
       0.06959413 -0.106741436 -0.18269825 0.054987654

gru.weight_hh_l0 f4 [192, 64]
000000 a5 c2 b6 bd 24 04 5d 3c 6a 62 05 be ec 4d 08 be
       -0.08923844 0.013489757 -0.13025823 -0.13310975
000010 bc d9 df ba 7a b7 a3 bd ab d5 4f bc b5 fb db bd
       -0.001707844 -0.0799398 -0.01268522 -0.10741369
000020 80 34 a2 bd 89 0d 8b 3c 57 9b 95 bd 06 0c 5b 39
       -0.0792017 0.016974228 -0.07305019 0.00020889947
000030 ca 2b 29 3d 08 2c 0e be 19 48 4d 3c ab 28 84 3d
       0.041301526 -0.13883984 0.012529396 0.06453069
000040 ce 54 5b 3d df 9d 95 bd 6d e8 96 3d 69 65 37 bd
       0.053547673 -0.07305502 0.073685504 -0.044774447
000050 02 7b 2d bd 65 9f d6 3d a4 0f 70 bc 11 c1 db 3d
       -0.042353638 0.10479621 -0.0146521665 0.10730184
000060 57 7a 71 bb eb 72 1d bc 0c 9a 72 bd 4f 93 53 bd
       -0.0036846602 -0.009609918 -0.05922894 -0.051654156
000070 cb 59 b3 3d e3 a9 96 bc 82 6b 2a 3d 08 9a cf bc
       0.08757361 -0.018391555 0.041606434 -0.025342003
000080 57 01 8d bd 9a fe 03 bd fc ba af bd 83 12 6e bd
       -0.06885021 -0.03222523 -0.08580586 -0.058123123
000090 7c 42 22 be 4c 8f 4a be ec ba 68 bd 3c e1 37 bb
       -0.15845674 -0.19781226 -0.056818888 -0.0028057834
0000a0 95 5d c5 bc 1c 3d 08 3d 09 23 30 3d 85 1f 98 3d
       -0.024092475 0.033261403 0.043002162 0.07427887
0000b0 f6 01 a1 bd 51 f5 ca 3d 53 c7 27 3e 61 ef d6 bd
       -0.07861702 0.09910072 0.1638463 -0.10494877
0000c0 f3 50 6f 3d f1 57 3e 3b f1 ba b7 bc 97 0e b3 3c
       0.05842681 0.0029044116 -0.022428008 0.021857543
0000d0 ed 26 1d 3e 05 86 86 3d c9 70 cd 3b 77 e9 ae 3d
       0.1534688 0.06568531 0.0062695486 0.08540624
0000e0 77 f0 51 39 7a 8b c6 3c 47 de 03 be bf 8a 9b 3d
       0.00020021373 0.02423643 -0.12877761 0.07594823
0000f0 86 7c 9f 3d 38 52 51 3d 8b af 1c 3d f3 21 bc bd
       0.07787423 0.0511038 0.03825335 -0.09186163
000100 c5 df 1a 3e 5b 77 67 bd f8 68 9a bd 3f 24 cb bd
       0.15124424 -0.05651031 -0.075395525 -0.09919023
000110 81 5d be 3d c4 bc 99 bd 71 8a a5 bd e2 f4 7b bd
       0.09295178 -0.07506707 -0.08083046 -0.061512835
000120 7e e6 00 3d de 09 9f bd 63 01 2d 3d 23 71 3a bc
       0.031469814 -0.07765554 0.04223765 -0.011379513
000130 21 83 37 bd 90 d8 79 bd 46 bb 52 3d d3 04 44 3d
       -0.04480279 -0.060997546 0.05144813 0.047856163
000140 a7 da b3 bc 2b e4 04 3d 17 28 2f 3e 49 c4 34 be
       -0.021954847 0.03244416 0.17105137 -0.17653002
000150 f4 d0 6c 3d 24 f1 22 3e f6 3a 7d bd ef f9 7a bd
       0.05781646 0.159123 -0.061823808 -0.06127351
000160 8b ea c9 3c 8c 90 e3 bd df 6a 37 be 6c 6d c1 bd
       0.024647972 -0.111115545 -0.17911862 -0.09444699
000170 ef 76 1c bd f8 e8 12 3d bd f9 83 3d 7f ac 20 3e
       -0.03819936 0.035866708 0.06444118 0.15690802
000180 51 8c 27 3d fe 42 83 3d 26 cc e3 bb 70 f3 90 be
       0.0409053 0.06409262 -0.0069518266 -0.28310728
000190 a9 a8 7f 3e e9 f4 8f 3b a0 47 ba 3d c7 53 bf bd
       0.24966682 0.0043932092 0.09095693 -0.09342151
0001a0 42 61 00 3d 80 fc d9 bc 59 56 86 3d 3e 2c a9 bd
       0.031342752 -0.02660966 0.06559438 -0.08260392
0001b0 44 1c e7 bd 82 12 47 3c a2 ef 89 3d 00 67 a6 bd
       -0.11284688 0.012150409 0.067351595 -0.081251144
0001c0 7e 7d 2d bd 1e 5c b1 bd 41 f9 f3 3d 5f bf 83 3d
       -0.042356007 -0.08660148 0.11912776 0.064329855
0001d0 cb 66 26 3e 63 07 89 be 8d 6b 72 bc 6d 75 d1 3d
       0.1625015 -0.26763448 -0.01479615 0.10227475
0001e0 dc 4e ce 3d ae 97 1b bd 54 9a 9f bd d4 66 87 3d
       0.10073635 -0.03798645 -0.07793108 0.0661141
0001f0 1c 02 01 3e 7e cc 8f bd 8e f8 0e bd 6d 92 09 be
       0.12598461 -0.07021426 -0.03490501 -0.13434763
000200 13 0c 9f bd 94 83 ff bd df 70 b2 bd a6 79 47 3b
       -0.07765975 -0.124762684 -0.08712935 0.0030437498
000210 ac 71 a5 3c 0c b0 8b bd cb 34 d7 bd c0 97 aa ba
       0.020195805 -0.06820688 -0.10508116 -0.0013015196
000220 f2 95 43 bd fc 67 ea 3c ec c8 ef bd be 7f 28 bd
       -0.04775042 0.028614037 -0.11708245 -0.04113745
000230 a1 8d 4b 3e 96 1c 37 bb b2 98 11 3d 60 86 0c bd
       0.19878246 -0.0027940623 0.035546012 -0.034307837
000240 e4 fb 0a be 0a f2 5d 3d 00 9a 47 3e fb b8 80 bc
       -0.13572651 0.054185905 0.1949234 -0.015713206
000250 61 f7 a4 bc b1 47 10 3e 4a 10 ea bc 0f 5b d8 3c
       -0.02013749 0.14089848 -0.02857222 0.026410608
000260 20 f0 74 3d 25 cd 59 3d 91 c2 c4 bd cd c6 e1 bc
       0.059799314 0.053174157 -0.09607423 -0.027560616
000270 81 b4 a6 bd c5 a2 20 3e b4 e8 90 3d cc 11 38 3d
       -0.08139897 0.15687092 0.070756346 0.044938847
000280 18 ae 54 bd f0 cf 88 bd 0e eb ef bd 80 bb 8d bd
       -0.05192384 -0.06680286 -0.11714755 -0.069205284
000290 5c 0d 42 bd ca 04 e6 3c 46 22 93 3d ad dd ff bd
       -0.04737602 0.028078455 0.071842715 -0.12493453
0002a0 7e 5c 12 be d1 4c 6d 3c 47 1a 65 3d 8f 7e 05 be
       -0.14293095 0.0144836465 0.055933263 -0.1303656
0002b0 57 1e 40 bd 3d c6 8a 3d 04 01 aa 3d 47 6e 70 bd
       -0.046903934 0.06776092 0.08300975 -0.05869892
0002c0 7b e6 3b be 1e d8 b2 3d a1 7a 68 bc 5a 00 de bc
       -0.1834964 0.08732627 -0.014189393 -0.027099777
0002d0 f1 50 4a 3d 38 47 c7 3d cd ac ab 3c 22 85 5f bc
       0.049393598 0.09730381 0.020956421 -0.013642581
0002e0 ce 79 f3 3a 98 ad f9 3d db eb 5e 3c 6d b6 af 3c
       0.0018575729 0.121913135 0.013606037 0.021449292
0002f0 a9 db 93 bd bc a8 61 bb 14 9c d7 3d 69 b1 51 3b
       -0.07219631 -0.003443285 0.105278164 0.0031996614
000300 2c fb 9e 3c 82 43 bc bc 7e d1 a0 bd 36 eb 96 3c
       0.019406877 -0.022981409 -0.078524575 0.018422704
000310 c5 ce dd bd a5 9c a3 3b f1 7f 35 bd 03 e1 40 3c
       -0.10830454 0.0049930387 -0.044311468 0.011772397
000320 d6 77 0d 3a 23 3f 1f 3e e9 8c f7 3c ce 44 11 bd
       0.000539658 0.15551428 0.030218558 -0.035466008
000330 26 be f9 3b c7 22 68 bc 78 4a 72 3d 0e cf 57 bc
       0.0076215444 -0.014168448 0.05915305 -0.013171924
000340 21 99 d1 3b 8a 10 07 be a7 58 3f 3e 7e cd 22 3d
       0.006396428 -0.13189903 0.18686162 0.039746754
000350 df 2e e2 3d 20 dc 23 3d b9 7d 37 bd 27 db 4d bc
       0.11044096 0.04000485 -0.044797633 -0.012564457
000360 79 37 13 bd c0 5f b1 3c f2 d7 86 bd 4c 6a dd 39
       -0.035941575 0.021652102 -0.06584157 0.00042231602
000370 92 35 5d be f4 a3 83 3d 71 c9 03 3e 6f 96 48 be
       -0.21602467 0.06427756 0.12869813 -0.19588636
000380 67 2a 5f 3d b8 44 16 3d af 61 e0 3c 41 24 56 be
       0.054483797 0.03668663 0.02739033 -0.20912267
000390 a1 5c 2b 3d bc b0 ed 3d ab 27 0e 3e 1d 6b 32 be
       0.041836385 0.11605975 0.1388232 -0.17423673
0003a0 f8 99 86 bd 5e d9 0e be 9a 4c 0a bd 8c 32 cd bd
       -0.06572336 -0.13950107 -0.03376446 -0.10019407
0003b0 73 e0 e8 bc 9e 7d 0c bc ff 2f df 3d cf 8c 9b bd
       -0.028427338 -0.008574871 0.108978264 -0.075952165
0003c0 81 51 c4 3c c9 36 aa bd c9 29 7f 3c 38 f0 be bd
       0.023964645 -0.08311231 0.015573927 -0.09323162
0003d0 6b 62 95 3d 02 69 dc 3d 51 2b 9d bd c4 8f 0e 3e
       0.07294162 0.10762216 -0.076742776 0.1392203
0003e0 d3 a0 87 bc e2 6d bf bc de 92 48 bd ad d9 41 3d
       -0.01655618 -0.023367826 -0.04896819 0.047326732
0003f0 4a 51 f5 bc 03 d6 b4 3d 04 20 51 3d b9 43 51 bd
       -0.029945988 0.08829882 0.051055923 -0.051089976

gru.bias_ih_l0 f4 [192]
000000 1b 96 e9 3c a8 ea d7 3c 95 f4 51 3d e7 b4 19 3d
       0.028513959 0.02635701 0.051258642 0.037526038
000010 98 3d 43 bb ed 78 df 3c 73 76 15 3c 0d ad d4 3c
       -0.0029791351 0.027279342 0.009122479 0.025961423
000020 31 06 b1 3c 43 47 59 3c 4c 93 3c 3d 41 9a ee 3c
       0.021609398 0.013261619 0.04603891 0.029126288
000030 5d c3 a7 3c b7 6b 22 3d c4 0c 0c 3d 88 49 26 3d
       0.020478899 0.039653506 0.03419186 0.04059747
000040 d2 f7 18 3d 69 4e b2 3c bb 97 59 bc 9c 71 a2 3d
       0.037345715 0.021765905 -0.013280804 0.079318255
000050 84 60 c1 3c 57 82 24 3d 0d 58 91 3c 13 a4 29 3d
       0.023605593 0.040163364 0.017742181 0.04141624
000060 56 7b b5 3b 4c 1e 16 3d 5b 4f a8 3c 83 4a ca 3c
       0.0055383844 0.036649987 0.020545652 0.024693733
000070 51 c9 00 3d b7 b8 c3 3c 31 69 e6 ba 3b 0f 23 3d
       0.03144199 0.02389179 -0.0017578957 0.039809447
000080 d3 cc cd 3b 50 4e e9 bb 6c 91 99 3d 9e 54 24 3d
       0.0062805205 -0.0071199313 0.0749844 0.04011976
000090 b8 7f 07 3c cd c0 b5 3c e7 83 c0 3c f0 23 df 3c
       0.008270197 0.022186661 0.023500396 0.027238816
0000a0 88 c3 e0 3c c9 a7 48 3d 98 80 32 3d 03 d3 4a 3d
       0.027436987 0.048988137 0.043579668 0.049517643
0000b0 96 da 55 3d c1 a8 18 3d 06 5a 11 3d da df 11 3d
       0.052210413 0.03727031 0.035486244 0.035613872
0000c0 22 1f e8 bc 2e cd 1f 3c 43 38 ad 3c 0a 69 99 bb
       -0.028335158 0.0097535085 0.021144992 -0.004681711
0000d0 f7 3f 6b bd aa e8 94 3c 1c 60 04 3d 18 6e cc 3c
       -0.05743405 0.01817735 0.03231822 0.02495484
0000e0 70 97 e5 3c 35 47 b1 3c 12 f7 72 3d db 01 df 3c
       0.028026313 0.0216404 0.059317656 0.027222564
0000f0 78 9a fd 3c c6 a7 81 3d f1 87 64 3d 67 c5 c7 3c
       0.030957446 0.06330828 0.055793706 0.024386121
000100 2d de d3 3b ea fa 15 3c 65 78 83 bc 5a c1 5b bd
       0.0064656944 0.009154061 -0.01604862 -0.05365119
000110 03 94 c3 bc 1f b7 e1 bb a9 0e d6 3b 02 7d 04 bd
       -0.023874288 -0.006888285 0.0065325093 -0.03234578
000120 58 d0 00 bc 8e 81 e4 bc e8 30 6e bc cc 74 9f 3c
       -0.007862173 -0.027893808 -0.014538027 0.019464873
000130 c9 26 3a 3d 30 79 d4 bc 7f cf 50 bb ff dd 3a bd
       0.045447145 -0.025936693 -0.0031861959 -0.04562187
000140 9a fa 52 bc 0c 07 8b 3b 21 0c 23 3d ee 5a 68 bc
       -0.012877131 0.0042427834 0.03980649 -0.014181836
000150 f1 2c b7 bc 97 9c c8 bc 1e 39 1d bd e7 c2 52 bc
       -0.022360297 -0.02448873 -0.03838455 -0.012863851
000160 2f dd 3e bd f2 5d 5b bd 1e 98 54 3c e7 47 28 bd
       -0.046597656 -0.05355639 0.012975721 -0.041084196
000170 ea f5 6f 3a 39 19 23 3c de 13 ea 3c 27 d3 9e bd
       0.00091537705 0.009954744 0.028573927 -0.07755118
000180 10 41 70 bc 30 32 d7 bc a7 2c 01 bd 23 3c 0e 3d
       -0.01466395 -0.026269048 -0.031536724 0.03472532
000190 d4 cb 38 bc 6e f5 e2 3c 63 dd 22 3d cb cf 4f 3d
       -0.011279065 0.02770492 0.039761912 0.050735276
0001a0 81 3b 1d 3d 00 5b 7c bd 44 da 2c 3c f1 bd 1d bd
       0.038386825 -0.061610222 0.010550085 -0.03851122
0001b0 59 a7 9c bb 1f ef 48 3d 1d ef b2 bc 22 c3 fc 3c
       -0.0047806916 0.04905617 -0.021842534 0.030854765
0001c0 12 1e 86 3d 43 8c a2 3c a1 05 08 3d d7 05 95 bb
       0.06548704 0.019842273 0.033208493 -0.0045478153
0001d0 c1 94 e6 3c 0b cc 75 bd d3 7c fe bc 12 e6 b8 3b
       0.028147103 -0.060009044 -0.03106538 0.005642661
0001e0 5e b3 75 3d 0d 92 09 3d 32 f3 eb bc ac 39 16 bd
       0.05998551 0.03358655 -0.028802488 -0.036676094
0001f0 6e 13 51 bc 28 65 e6 3c 48 47 9a bb 1a 38 28 3d
       -0.01276098 0.028124407 -0.0047082044 0.041069128
000200 68 c3 b5 bb 61 9f 0f bd ec 19 e8 3c 98 58 4c 3c
       -0.005546976 -0.035064105 0.028332673 0.012472294
000210 28 a5 cb 3c f7 be 43 3c 14 ca b0 3b c8 55 b3 bb
       0.024859026 0.011947385 0.0053951833 -0.0054728724
000220 f5 93 ae 3c 32 a6 30 bb 2b 78 ec 3b 66 63 bd bb
       0.021310786 -0.002695453 0.0072164736 -0.0057796715
000230 3d d6 6a 3a 03 a8 af bb 0a 5e 44 3b 52 e3 80 3c
       0.00089583156 -0.0053606047 0.0029963278 0.015733395
000240 87 5f f3 3b 01 d7 4c 3c 8f 82 36 bc d8 df 5a bc
       0.007427159 0.012502433 -0.011139526 -0.013359033
000250 b8 6e 03 3d fd df 15 3c b9 7d 8b bb 07 3b d7 bc
       0.03208801 0.009147641 -0.0042569307 -0.026273264
000260 0a 54 04 3d 31 2a 81 bc dc 5e 64 3c 8c e4 a7 bc
       0.03230671 -0.015767189 0.013938632 -0.020494722
000270 b4 ed 69 bc 49 1f a5 b9 b9 7f 19 bb 34 8c 16 3c
       -0.014277864 -0.00031494562 -0.0023422076 0.0091887005
000280 3d 0f ae b8 c7 64 28 bc 3d 73 46 bc 09 17 bc bc
       -8.299805e-05 -0.010277933 -0.012112436 -0.022960203
000290 30 28 ab 3b 9c 49 5e bb 32 00 8f 3c b8 5f e6 bc
       0.0052232966 -0.0033918386 0.017456148 -0.028121814
0002a0 53 32 32 3b 79 bb 89 3c 42 45 be 3c 82 cc f3 39
       0.002719064 0.016813027 0.023226384 0.00046500942
0002b0 ff 43 37 bd a3 72 b4 3b 69 21 0d bd 53 f4 c5 bb
       -0.04474258 0.00550683 -0.03445569 -0.0060410886
0002c0 ff 08 3c 3b d9 13 cb 3a 5a 81 28 3c d0 90 45 bc
       0.0028691886 0.0015493586 0.010284746 -0.012058452
0002d0 30 5b a4 bc dd 69 a5 bc eb 3c 99 3c 64 d5 57 39
       -0.020063013 -0.020192081 0.018705806 0.00020583492
0002e0 9d 9a 84 bc 69 18 a9 3b 26 77 ee 3c ea 3f 62 bc
       -0.016187007 0.0051603806 0.029109549 -0.013809184
0002f0 42 ac b5 bb a6 51 c9 3c 08 3d b5 bc 4c fc 35 3c
       -0.0055442164 0.024575066 -0.022123829 0.011107516

gru.bias_hh_l0 f4 [192]
000000 1b 96 e9 3c a8 ea d7 3c 95 f4 51 3d e7 b4 19 3d
       0.028513959 0.02635701 0.051258642 0.037526038
000010 98 3d 43 bb ed 78 df 3c 73 76 15 3c 0d ad d4 3c
       -0.0029791351 0.027279342 0.009122479 0.025961423
000020 31 06 b1 3c 43 47 59 3c 4c 93 3c 3d 41 9a ee 3c
       0.021609398 0.013261619 0.04603891 0.029126288
000030 5d c3 a7 3c b7 6b 22 3d c4 0c 0c 3d 88 49 26 3d
       0.020478899 0.039653506 0.03419186 0.04059747
000040 d2 f7 18 3d 69 4e b2 3c bb 97 59 bc 9c 71 a2 3d
       0.037345715 0.021765905 -0.013280804 0.079318255
000050 84 60 c1 3c 57 82 24 3d 0d 58 91 3c 13 a4 29 3d
       0.023605593 0.040163364 0.017742181 0.04141624
000060 56 7b b5 3b 4c 1e 16 3d 5b 4f a8 3c 83 4a ca 3c
       0.0055383844 0.036649987 0.020545652 0.024693733
000070 51 c9 00 3d b7 b8 c3 3c 31 69 e6 ba 3b 0f 23 3d
       0.03144199 0.02389179 -0.0017578957 0.039809447
000080 d3 cc cd 3b 50 4e e9 bb 6c 91 99 3d 9e 54 24 3d
       0.0062805205 -0.0071199313 0.0749844 0.04011976
000090 b8 7f 07 3c cd c0 b5 3c e7 83 c0 3c f0 23 df 3c
       0.008270197 0.022186661 0.023500396 0.027238816
0000a0 88 c3 e0 3c c9 a7 48 3d 98 80 32 3d 03 d3 4a 3d
       0.027436987 0.048988137 0.043579668 0.049517643
0000b0 96 da 55 3d c1 a8 18 3d 06 5a 11 3d da df 11 3d
       0.052210413 0.03727031 0.035486244 0.035613872
0000c0 22 1f e8 bc 2e cd 1f 3c 43 38 ad 3c 0a 69 99 bb
       -0.028335158 0.0097535085 0.021144992 -0.004681711
0000d0 f7 3f 6b bd aa e8 94 3c 1c 60 04 3d 18 6e cc 3c
       -0.05743405 0.01817735 0.03231822 0.02495484
0000e0 70 97 e5 3c 35 47 b1 3c 12 f7 72 3d db 01 df 3c
       0.028026313 0.0216404 0.059317656 0.027222564
0000f0 78 9a fd 3c c6 a7 81 3d f1 87 64 3d 67 c5 c7 3c
       0.030957446 0.06330828 0.055793706 0.024386121
000100 2d de d3 3b ea fa 15 3c 65 78 83 bc 5a c1 5b bd
       0.0064656944 0.009154061 -0.01604862 -0.05365119
000110 03 94 c3 bc 1f b7 e1 bb a9 0e d6 3b 02 7d 04 bd
       -0.023874288 -0.006888285 0.0065325093 -0.03234578
000120 58 d0 00 bc 8e 81 e4 bc e8 30 6e bc cc 74 9f 3c
       -0.007862173 -0.027893808 -0.014538027 0.019464873
000130 c9 26 3a 3d 30 79 d4 bc 7f cf 50 bb ff dd 3a bd
       0.045447145 -0.025936693 -0.0031861959 -0.04562187
000140 9a fa 52 bc 0c 07 8b 3b 21 0c 23 3d ee 5a 68 bc
       -0.012877131 0.0042427834 0.03980649 -0.014181836
000150 f1 2c b7 bc 97 9c c8 bc 1e 39 1d bd e7 c2 52 bc
       -0.022360297 -0.02448873 -0.03838455 -0.012863851
000160 2f dd 3e bd f2 5d 5b bd 1e 98 54 3c e7 47 28 bd
       -0.046597656 -0.05355639 0.012975721 -0.041084196
000170 ea f5 6f 3a 39 19 23 3c de 13 ea 3c 27 d3 9e bd
       0.00091537705 0.009954744 0.028573927 -0.07755118
000180 10 41 70 bc 30 32 d7 bc a7 2c 01 bd 23 3c 0e 3d
       -0.01466395 -0.026269048 -0.031536724 0.03472532
000190 d4 cb 38 bc 6e f5 e2 3c 63 dd 22 3d cb cf 4f 3d
       -0.011279065 0.02770492 0.039761912 0.050735276
0001a0 81 3b 1d 3d 00 5b 7c bd 44 da 2c 3c f1 bd 1d bd
       0.038386825 -0.061610222 0.010550085 -0.03851122
0001b0 59 a7 9c bb 1f ef 48 3d 1d ef b2 bc 22 c3 fc 3c
       -0.0047806916 0.04905617 -0.021842534 0.030854765
0001c0 12 1e 86 3d 43 8c a2 3c a1 05 08 3d d7 05 95 bb
       0.06548704 0.019842273 0.033208493 -0.0045478153
0001d0 c1 94 e6 3c 0b cc 75 bd d3 7c fe bc 12 e6 b8 3b
       0.028147103 -0.060009044 -0.03106538 0.005642661
0001e0 5e b3 75 3d 0d 92 09 3d 32 f3 eb bc ac 39 16 bd
       0.05998551 0.03358655 -0.028802488 -0.036676094
0001f0 6e 13 51 bc 28 65 e6 3c 48 47 9a bb 1a 38 28 3d
       -0.01276098 0.028124407 -0.0047082044 0.041069128
000200 f1 0e 8c bb 6b b5 10 bd ca 0a d5 3c 3a 27 39 3c
       -0.004274242 -0.035329264 0.026006121 0.011300856
000210 90 f2 8c 3c b9 2f 39 3c d0 27 8f bb 27 28 0f bc
       0.017205507 0.011302882 -0.0043687597 -0.0087376
000220 3f 6d 91 3c 71 46 b5 3a 0b e8 b3 3c e1 34 65 bb
       0.017752288 0.0013830197 0.021961233 -0.0034974145
000230 28 3e bf bb 4d 77 e1 ba a6 48 87 3b e1 ac 4f 3c
       -0.005836267 -0.0017201692 0.0041285334 0.012675495
000240 97 51 91 3c fa 13 8a 3c c4 7c 3d bc f2 84 3a bc
       0.0177391 0.016855229 -0.011565391 -0.011384236
000250 28 53 05 3d 71 b9 ed 3a bc 48 f0 ba 0e c1 04 bd
       0.032550007 0.0018136931 -0.0018332223 -0.032410674
000260 31 18 bb 3c 17 f6 83 bc 6c 73 ce 3b e6 eb e0 bc
       0.022838684 -0.016108556 0.0063003805 -0.027456235
000270 79 d1 68 bc 05 1b 99 3b df 9f 0d ba d7 f9 ca 3b
       -0.014210098 0.0046724104 -0.0005402546 0.006194334
000280 f8 db a3 39 29 2d f8 bb 09 b4 3f bc 14 a5 ce bc
       0.00031253672 -0.007573743 -0.011700639 -0.0252252
000290 7b d3 fb 3b a5 b5 3e 3a 0b 72 8b 3c 9a 5b f1 bc
       0.0076851225 0.0007274992 0.017022153 -0.029462624
0002a0 30 82 9b 3b 89 53 b0 3c 45 e4 de 3c 01 03 a6 3b
       0.004745744 0.021524208 0.027208457 0.005066276
0002b0 91 42 3a bd 68 08 81 3c cf 35 dd bc 4b 3a 1f bc
       -0.04547364 0.015751079 -0.027003197 -0.009718488
0002c0 2a 4d 13 3c 8b e8 44 bb f4 ca 52 3c e6 54 94 bc
       0.008990565 -0.0030045833 0.012865771 -0.018106889
0002d0 c6 e4 61 bc 18 b0 1d bc 0d 30 a4 3c b0 98 3c 3c
       -0.013787454 -0.009624504 0.020042444 0.011511013
0002e0 0e 6f 4b bc 4d 85 99 3b a3 a7 e2 3c ce f2 44 bc
       -0.012416614 0.00468508 0.027667826 -0.01202078
0002f0 0b 61 b8 bb 73 05 b9 3c cb 60 cc bc 2b c7 70 3c
       -0.005626803 0.022585606 -0.024948498 0.014695923

gru.weight_ih_l0_reverse f4 [192, 21]
000000 35 32 a9 3d ea aa 27 3d 6a 4c 34 bd 5e ab 1c 3e
       0.08261529 0.04093448 -0.044018187 0.15299746
000010 ca b0 b7 3d 2a 57 de 3d 3a c8 f7 bd e9 61 08 3e
       0.08969267 0.10856469 -0.12098737 0.133186
000020 ab 3f 6e 3d a7 8a 86 3d bb 80 0e bd aa 96 de 3d
       0.058166187 0.065694146 -0.034790736 0.10868581
000030 f4 53 83 bd 0c c8 87 bd 47 31 af bd c3 66 22 3e
       -0.06412497 -0.06629953 -0.08554321 0.15859513
000040 18 06 08 be ee 1b 6b 3d 37 08 97 bd 19 ee 22 bd
       -0.13283575 0.057399683 -0.07374614 -0.03977785
000050 bf 82 ff 3c 80 7b 84 bd 66 27 8f 3d d7 25 ce 3d
       0.031190274 -0.06468868 0.069899365 0.10065811
000060 73 b9 30 be 57 22 a5 3d 8b af 42 be 30 1e a0 3d
       -0.17258243 0.080631904 -0.19012277 0.07818258
000070 ee 9d 24 be 1b 6a c2 bc bb fd 9e 3c 19 57 95 bb
       -0.1607587 -0.023732236 0.019408097 -0.004557502
000080 ec a4 a3 3d fc 5f cb 3d 11 9d fe bd 1d de 0f 3d
       0.07990441 0.09930417 -0.12432302 0.035123933
000090 87 d6 14 be 18 3d 43 bd 4a 30 11 3d 68 42 2b 3e
       -0.1453496 -0.047665685 0.035446443 0.1672455
0000a0 b9 55 fd 3c 49 9c 10 be 88 b0 d4 3d 67 3a 0d be
       0.030924665 -0.14122118 0.10385233 -0.1379181
0000b0 9e c1 02 3e d4 b7 87 bd 66 4f 0c be 76 fc fa 3d
       0.12769172 -0.06626859 -0.13702163 0.12255184
0000c0 75 26 a8 3d 2b eb c0 bd e9 0e b0 bd 64 7d e2 bd
       0.0821046 -0.09419855 -0.08596594 -0.110590726
0000d0 87 82 29 3d 13 e3 d5 3c d0 55 03 3e 12 4c 0f 3d
       0.041384246 0.026109254 0.12825704 0.034984656
0000e0 20 66 d8 3d 8d 10 22 be f3 df 24 be b2 8f d5 3d
       0.10566354 -0.15826626 -0.16101055 0.10427798
0000f0 58 84 de bd af e0 be 3d ac 1c 90 3d 0b c6 5f bd
       -0.10865086 0.09320199 0.07036719 -0.054632228
000100 5b 7f e3 bd 07 78 a1 bd d2 e2 3c 3e 0e 83 f4 3d
       -0.111082755 -0.078842215 0.184459 0.11939059
000110 f4 85 f3 3d d1 f2 b0 bd cb 0c b8 3b 4a c7 58 bd
       0.11890784 -0.086400636 0.0056167594 -0.05292443
000120 da 5a 34 3e 94 4b 01 bd 4b c9 ba 3d 70 5b 01 3e
       0.17612782 -0.031566218 0.09120425 0.12632537
000130 a5 a3 f2 3d 32 13 2f 3e 5a 14 1a bd 6f 9c 99 3d
       0.11847619 0.17097166 -0.037617065 0.075005405
000140 63 1d 6f 3d c0 30 aa bd 3f 78 40 be 8a b4 21 3c
       0.058377635 -0.083100796 -0.1879587 0.009869704
000150 17 02 00 be 8c ec 9c bb 96 43 c6 3c a6 3a 9e bd
       -0.12500797 -0.004788941 0.02420215 -0.0772603
000160 83 02 25 3e b1 30 ea 3d 08 00 00 bc 5d b2 08 3e
       0.1611424 0.114350684 -0.007812507 0.1334929
000170 f5 0d 8e 3d 03 f9 e0 3c 72 6f 49 3e e9 a8 ec 3d
       0.06936256 0.027462488 0.1967142 0.115556546
000180 d0 54 29 bd 50 a2 24 bc c8 1b 1c be 27 16 e5 bd
       -0.04134065 -0.010048464 -0.15244973 -0.11185866
000190 a9 28 bc bc ea 48 f0 3d 06 c3 99 bc 74 5a 24 3d
       -0.022968607 0.11732657 -0.018769752 0.040125325
0001a0 75 63 c1 bd c6 ca 73 bd 9a d2 42 be 9b e0 53 bd
       -0.09442798 -0.05951955 -0.1902565 -0.051727872
0001b0 d2 1c bd 3d e4 ff 6a 3c 5e a9 79 3c 9b 74 6f bd
       0.09234013 0.014343236 0.015238134 -0.058460813
0001c0 e3 79 4c 3d 5d 4e ce 3d f2 94 66 3d 10 2b 3a be
       0.049920928 0.1007354 0.05629439 -0.1818049
0001d0 11 60 14 3e e1 b8 68 bd ff 4a aa 3c 54 72 b8 3d
       0.14489771 -0.05681694 0.020787714 0.09006181
0001e0 42 67 fa 3d f8 c9 27 be 43 a6 0a be 7e 6c 71 3d
       0.12226726 -0.16385639 -0.13539986 0.058941357
0001f0 30 b3 2e bd d9 9c ae 3d 0f ac 23 be 34 b3 ec bd
       -0.042651355 0.0852601 -0.15983604 -0.11557618
000200 41 19 15 bd 97 50 e9 3c 2f dd 99 3d 8c 62 d9 bd
       -0.036401037 0.028480811 0.075128905 -0.106144994
000210 35 6f e8 bc 6e 50 84 3c 41 17 bf bd e9 da fd 3d
       -0.02837334 0.016151633 -0.09330607 0.123952694
000220 db 28 94 3d 19 80 b1 3d d0 13 d8 3d 4c b4 3f 3e
       0.07234355 0.08667011 0.10550654 0.18721122
000230 c1 84 bc 3d 4e 14 02 be b2 03 c4 3c 11 a7 df 3d
       0.09205008 -0.12703058 0.023927543 0.10920537
000240 18 22 2b bd 8d b0 0e bd bf e1 fa 3d 92 38 a3 bc
       -0.04178056 -0.03483634 0.12250089 -0.019924436
000250 46 fc a8 bd 33 3d ea 3d 29 b2 4b bd f7 92 be bd
       -0.08251242 0.11437454 -0.049730454 -0.09305375
000260 66 de 1a be ac d1 0d be 2a 28 c8 bd 96 98 98 3d
       -0.15123901 -0.13849515 -0.09773286 0.074509785
000270 70 6a 80 3c d0 d9 14 bc 12 a9 75 3d 6f a0 68 3c
       0.015675753 -0.009085134 0.05997569 0.014198407
000280 c9 d5 ce 3a 9d d9 57 bd 18 33 17 3d 64 03 c9 3d
       0.0015780266 -0.052697767 0.03691396 0.098151
000290 0d 48 10 3e df 2e 18 bc c6 1d 06 3e f9 35 1f be
       0.14089985 -0.009288519 0.13097295 -0.15547933
0002a0 3c e9 1e be f3 48 f0 bc 43 02 30 be 53 1a ad 3d
       -0.1551866 -0.02933166 -0.17188363 0.084522866
0002b0 88 d5 22 be 96 72 fd 3d 56 4e 11 be a7 74 bb bd
       -0.15901768 0.12375371 -0.14190039 -0.09153109
0002c0 25 ee 60 bd fb 95 f7 bd 8a 9b 79 bd 82 0b b5 3d
       -0.054914612 -0.120891534 -0.06093935 0.088400856
0002d0 10 5b c4 bd c3 f8 ff bd 6d 1d d0 3c 4a 2e 3f bc
       -0.09587681 -0.124986194 0.025404656 -0.011668751
0002e0 67 df 32 3e fc 74 a0 bd ce ff ac bc 43 47 07 be
       0.17468034 -0.07834813 -0.02111807 -0.13210778
0002f0 5a 4a 02 bc ca 01 05 3e cb c4 2e be 9a 52 1c 3d
       -0.007952297 0.12988964 -0.17067258 0.038164712
000300 56 8f 90 bd d7 6f 0a 3e 80 96 54 bd 12 f4 48 3d
       -0.07058589 0.13519226 -0.05190134 0.04906089
000310 85 fe 0d 3e 43 a6 e8 bd bc 7e 0d be 16 bf 5e bc
       0.13866623 -0.11359837 -0.13817877 -0.013595363
000320 3a 54 50 3d 57 90 13 3d ce 43 ad 3d 0b 2e b4 3d
       0.050861575 0.036026325 0.08460198 0.087978445
000330 5d a0 98 bd ba 14 e6 3d 16 d3 47 bd 22 a2 ab bc
       -0.07452462 0.11234422 -0.04878529 -0.020951334
000340 d2 f0 22 be 04 35 23 3e bd 62 be bd 6b 13 f1 3d
       -0.15912178 0.15938193 -0.092961766 0.11771282
000350 64 e0 11 be cb fa d5 3d 62 00 a0 3d 13 f2 fb 3d
       -0.14245754 0.104482256 0.07812573 0.12302031
000360 74 c5 12 3e a0 61 5a 3c b9 ea 36 3e 37 ee 3b bc
       0.14333135 0.01332894 0.17862977 -0.011470369
000370 12 41 f1 bc dd 0e 11 bd 16 1b 18 3e 0e fd a3 3b
       -0.029449973 -0.035414565 0.14854082 0.0050045317
000380 0d 0e f2 3d 3b 0f 0d 3e cd e8 e2 bc 35 75 ee 3d
       0.11819086 0.13775341 -0.027698899 0.11643449
000390 62 e5 bd bc 2d 42 c1 3d 7c 0b e3 bb 95 86 b1 3d
       -0.023180667 0.0943645 -0.0069288593 0.086682476
0003a0 7f 0a f5 bd b6 17 36 bc 1a 65 4d 3d 5d 91 08 bd
       -0.119648926 -0.011114052 0.050145246 -0.033341754
0003b0 60 29 21 3e 61 c6 0e 3e 1a e5 ae 3d 8a 8f 2e 3d
       0.1573844 0.13942863 0.085397914 0.04261736
0003c0 26 7d 0d 3d d8 bb 26 3e a9 1f b1 3c 18 b2 dc bd
       0.03454318 0.16282594 0.021621542 -0.10776156
0003d0 c7 42 e4 bd 2e dc 30 3c db 9c f6 bd 87 6d 2d be
       -0.11145549 0.010794682 -0.120416366 -0.16936313
0003e0 a8 3f da 3b 04 61 10 be de c4 a0 3c 6b dc ed bd
       0.0066604204 -0.14099509 0.019625124 -0.11614307
0003f0 e1 22 f4 bd e9 af 9c bd 56 7c 0c 3e 5e 87 10 bc
       -0.11920715 -0.0765074 0.13719305 -0.008821337

gru.weight_hh_l0_reverse f4 [192, 64]
000000 c0 01 f0 bd 10 d1 4b 3c ad ca 08 bd 87 d9 7c 3d
       -0.11719084 0.012439981 -0.03339641 0.061730888
000010 e1 63 15 be 00 ea 69 3b 10 9e d2 3d d0 d8 51 3d
       -0.14588882 0.0035692453 0.10284054 0.05123216
000020 a2 96 94 bc b9 a0 f1 3c e2 36 35 3d f9 fd fd 3d
       -0.018138234 0.029495584 0.044241793 0.12401957
000030 e8 01 b4 3d 22 f3 c0 3d fa f4 44 3d 20 9b 56 bd
       0.08789426 0.09421374 0.04808519 -0.052394032
000040 71 1e 1a bd dc a8 ae 3d a3 d4 a8 ba be e3 89 3c
       -0.037626687 0.08528301 -0.0012880753 0.016832229
000050 3a 91 33 3d 8f e7 f9 3b 3b 48 05 bb 39 8f aa 3d
       0.04383967 0.007626481 -0.0020337242 0.08328099
000060 c5 22 77 3d d8 a9 50 3d ec 60 24 3e 71 8d 86 bb
       0.060335893 0.050943226 0.16052598 -0.0041062166
000070 52 52 57 3d 6f 5e 4a 3d 26 82 82 3d 82 22 8e bd
       0.05256874 0.049406465 0.0637248 -0.069401756
000080 ea 2b 83 3c 5d b2 a3 3c 72 b8 c1 bc 64 0b 3b bd
       0.01601215 0.019982511 -0.02364752 -0.04566516
000090 ba 62 df 3d b3 41 3c bc 95 83 22 3c 9f a5 92 bd
       0.109075025 -0.011490273 0.009919067 -0.07160496
0000a0 9e 3b e8 bc a8 c3 e0 bc a0 51 d0 3c c7 b7 8d 3d
       -0.02834874 -0.027437046 0.025429547 0.06919818
0000b0 cc 03 6e 3d b7 cd 90 3c f5 f9 6f 3d af 38 eb bd
       0.05810909 0.017676217 0.058587987 -0.11485421
0000c0 53 64 bf 3c 07 cd dc bd 74 06 fc bd bc 0f 12 3e
       0.023363268 -0.10781293 -0.12305918 0.14263815
0000d0 21 37 07 bc 8a 39 96 ba 56 c3 80 3c 6b 8c 65 3d
       -0.00825289 -0.001146124 0.015718143 0.056042116
0000e0 00 24 86 3d 9b cd 74 3d b3 08 b2 bd 39 27 b9 bb
       0.06549835 0.059766393 -0.086930655 -0.0056504277
0000f0 7b 9b f9 bd 56 a5 f9 bd 3d 19 eb bd 52 e8 6a 3d
       -0.12187859 -0.121897385 -0.11479423 0.057350464
000100 d9 b0 bd 3d 80 88 13 bd 12 e3 91 bc 58 7b 2a ba
       0.09262247 -0.03601885 -0.01780847 -0.0006503365
000110 24 3d a8 bd c9 d8 05 be 79 3b a5 3d 08 e3 da 3d
       -0.08214787 -0.13070978 0.08067984 0.10687834
000120 e1 c1 d6 3d 8d e2 b4 bd 5c 25 7b bc 94 55 81 3d
       0.10486198 -0.08832274 -0.015328731 0.06315151
000130 d4 f9 1c bd b9 2a 0e be e0 c1 ab bd f8 c8 c4 3d
       -0.038324192 -0.13883485 -0.08386588 0.09608644
000140 44 0d 55 3d 15 3f fe bd 1d c1 bd 3b e3 d3 66 bd
       0.052014604 -0.12414376 0.005790843 -0.056354415
000150 15 d3 85 3c eb a3 78 bd f7 87 ed 3d 82 fd 04 3d
       0.016336003 -0.0607032 0.11598199 0.032468326
000160 44 e3 e1 bd 34 08 35 3d f0 85 ff 3b c0 a7 96 bd
       -0.110296756 0.044197276 0.007797949 -0.073562145
000170 72 b6 b4 bc 2a b9 fa 3d 3b 52 a9 3d 2e 91 03 3c
       -0.022059653 0.122423485 0.08267637 0.008030219
000180 b4 73 a3 bc 00 ce 1a 3e ae f3 52 3d df 08 8c bd
       -0.019952632 0.15117645 0.051501922 -0.068376295
000190 9a 25 f9 bc 4f df b6 3c e5 0c 0c bd ad c7 6e 3c
       -0.030413438 0.022323279 -0.034191985 0.014573974
0001a0 a2 5b 89 bd 19 b5 89 3d 3c 05 03 bd 8b bb 3b 3d
       -0.06706931 0.06723995 -0.031987414 0.04583315
0001b0 de 61 a2 3d 8a 85 6c 3d e0 00 49 bb 4e 52 f7 bc
       0.07928823 0.05774454 -0.0030670688 -0.030190613
0001c0 31 1b 8d bd 91 47 58 3d 60 6b f1 3a e7 0b 0b 3e
       -0.06889952 0.052802626 0.0018418841 0.13578759
0001d0 d5 a6 4b 3d 62 a8 1d 3d 77 ea 8c bd 99 67 cb 3d
       0.04971965 0.03849066 -0.06880658 0.09931869
0001e0 6d 1f 14 3d 54 ea b7 3c 8a 9b a0 bc 68 9b 8c bd
       0.036162782 0.022450604 -0.019605417 -0.06865579
0001f0 21 35 67 3c b2 33 08 3e 0b 9e 38 be 9c 41 37 bd
       0.014111788 0.1330097 -0.18029039 -0.044740304
000200 46 85 ee 3c d8 f0 35 3d 00 84 74 3a d7 09 2d 3d
       0.029116284 0.04441914 0.0009327531 0.042245712
000210 0c 18 04 3e 90 a8 6c 3b a0 68 6a 3d 02 61 aa bc
       0.12899798 0.0036111213 0.057228684 -0.02079821
000220 3d d4 81 bd f9 d5 cf bd ca 81 c2 3c 16 c9 7a bb
       -0.06339309 -0.10148234 0.023743529 -0.003826683
000230 25 60 be 3d 62 1e 9d bd 74 da 77 3d ea 2a 33 bd
       0.09295682 -0.07671811 0.060511068 -0.043742098
000240 ae 50 d7 bd df fc ba bd 2c 94 31 3d e9 d3 eb ba
       -0.10513435 -0.091302626 0.0433542 -0.0017992231
000250 6a 94 6c bd 7e 16 3b bc 6d e8 3d 3d b6 3e 4d 3d
       -0.057758726 -0.011418937 0.046364237 0.050108634
000260 7a 57 91 3d 2a cc 9b bd c1 7d 7d bb aa 9c 80 bb
       0.07096763 -0.076073006 -0.0038679691 -0.003924926
000270 7d 46 6a bd 57 e0 88 bd a8 05 66 3b e5 b4 b8 bc
       -0.05719613 -0.066834144 0.0035098586 -0.022547195
000280 b4 1b 5b bc 20 cf 59 3c b5 13 93 bb 8e cb ad bc
       -0.013373304 0.013294011 -0.0044884332 -0.021215227
000290 46 35 64 bc 9e 18 5e 3d e6 40 4f bc ff 14 d7 3d
       -0.013928717 0.054222696 -0.01264975 0.105020516
0002a0 26 6a 6f bd 67 8a 81 bd 3b 6c db bd 0c fa a6 3d
       -0.05845084 -0.06325226 -0.10714003 0.081531614
0002b0 c9 cd c4 bc 1f 2e 8a 3d 7d 29 81 ba b0 58 92 39
       -0.024023907 0.06747078 -0.0009854283 0.00027913367
0002c0 4f 4f de bc fd 9f 53 be 16 c3 23 bd 9c 46 92 3c
       -0.027137427 -0.206665 -0.03998097 0.017855935
0002d0 67 8f 7f bd 5c 42 6f 3d 22 98 f6 bd 6f 2b 7b bd
       -0.06239262 0.058412895 -0.12040736 -0.06132072
0002e0 9f f0 ee bc ae b7 ab 3c ed 4b 37 bc 9b f2 ce 3d
       -0.029167471 0.020961609 -0.011187536 0.10104867
0002f0 dd 9f 83 bd 6e 77 04 3c 7f 59 30 3d 95 8e 43 be
       -0.06426976 0.008085115 0.0430541 -0.1909736
000300 78 a2 42 3d e8 bf bd 3b 4b 49 55 3d 00 05 52 bc
       0.047518224 0.0057906993 0.05207185 -0.012818575
000310 ff 4b 10 bd 44 fd 36 bc cc b3 24 be df 5f 1f bd
       -0.035228726 -0.011168782 -0.16084212 -0.03890979
000320 5e be 44 3d c3 87 b6 3d c8 40 96 bd 71 9a 4d 3e
       0.04803311 0.08912613 -0.07336575 0.20078446
000330 92 84 c0 bc e6 51 b9 bd 80 b5 cc bc cb b7 1e 3d
       -0.023500714 -0.09048824 -0.02498889 0.038749497
000340 df f2 c7 bd 0d e7 9a bd 1a d9 f8 bc c4 46 14 3d
       -0.09763121 -0.07563601 -0.03037696 0.0362003
000350 3b a1 45 be c6 69 d9 3d 7f 84 ae 3c a3 34 cf bd
       -0.19299786 0.10615878 0.021303413 -0.101174615
000360 0e f3 14 bc 63 39 06 bd 9a cf 06 3c 4d ea 8c bd
       -0.009091152 -0.032769572 0.008228207 -0.06880627
000370 8e 5b ba bc 52 18 95 3d 01 18 4c bd 0f 51 12 bd
       -0.022748735 0.07280029 -0.04982758 -0.035721835
000380 05 85 8c 3d 7d fd 4c bd aa 12 ad bd ea 99 4d 3e
       0.06861309 -0.050046433 -0.084508255 0.20078245
000390 d1 00 a1 3c 98 c9 28 bd 20 92 00 be 27 bd 94 3d
       0.01965371 -0.04120788 -0.12555742 0.072626404
0003a0 14 1a d6 3c b3 c9 e8 bc a3 f6 44 bd fc 2a 04 be
       0.026135482 -0.02841649 -0.048086774 -0.12907022
0003b0 a4 22 4e bc 4f e3 ac bd ce e7 a8 bd 08 20 24 be
       -0.012581501 -0.08441793 -0.08247338 -0.16027844
0003c0 5e bb 0e 3d 90 36 95 3a 30 61 04 be 65 ea 07 3d
       0.034846656 0.0011384059 -0.12927699 0.03318252
0003d0 44 79 08 3d cd 96 36 bc 0e a9 ac bc 3b b5 44 3b
       0.033318773 -0.011144352 -0.021076705 0.0030015248
0003e0 6a 78 6a bd 85 70 14 3d 64 cf 11 3e 8d 76 a8 3d
       -0.057243742 0.03624012 0.1423927 0.08225737
0003f0 d1 7d e8 bc b3 27 00 3d c6 de 12 3d 88 7d 1f bb
       -0.028380306 0.03128786 0.035856985 -0.0024336297

gru.bias_ih_l0_reverse f4 [192]
000000 e9 eb 84 bc 91 3f 9f 3b 8f 93 2b bc 5f 44 16 3d
       -0.016225772 0.0048598726 -0.010472192 0.036686298
000010 04 e0 de bc 79 35 ef 3c e4 3f af bc 36 3c da bc
       -0.027206428 0.029200302 -0.02139277 -0.026640039
000020 1c 9e dc bb 7b c0 07 bc 11 91 2c bd ed 75 7c bc
       -0.0067327153 -0.008285637 -0.042130534 -0.015408975
000030 84 5b 03 bd 6c 31 a0 3b 03 10 50 bc 2e a2 48 3c
       -0.032069698 0.004888704 -0.01269913 0.012245698
000040 39 a1 80 3c d5 ab 08 bd a8 ec c0 bc 6a 6e 17 3d
       0.015701877 -0.033366997 -0.023550346 0.036970533
000050 99 70 ba bc 3f 5e 11 bc 95 e0 c3 bc 59 87 78 bc
       -0.022758769 -0.008872568 -0.0239108 -0.015168988
000060 88 06 e4 bc 95 92 2c bb b8 0d d4 3c 50 5d 7a 3c
       -0.027835146 -0.0026332487 0.025885448 0.0152810365
000070 c6 13 b6 3c d7 4b 97 3c ba 44 d5 3c 5a c0 ae bb
       0.022226226 0.01846878 0.026033748 -0.0053329887
000080 a1 a2 98 3c da fe ba 3c bd 2f 1e bc ab db 83 3c
       0.018632235 0.0228266 -0.009654936 0.016095957
000090 81 7b dc 3c 77 81 58 bc 24 34 22 3d 78 c3 7e bc
       0.02691436 -0.013214461 0.039600506 -0.015549533
0000a0 7f dc e2 3c 4b 3b fc bc 71 92 2a bd e2 d7 b8 3b
       0.027693031 -0.030789992 -0.041643564 0.0056409696
0000b0 1a 38 eb 3c 5e 94 e9 bb 92 ab 19 bc cf 76 21 3c
       0.028713275 -0.0071282825 -0.009379284 0.009854986
0000c0 71 aa cc 3c ca 50 5e 3b 05 a6 ab bc 94 23 9c bc
       0.024983617 0.0033922666 -0.020953188 -0.019059934
0000d0 1d 29 ad bb 63 49 9f bd ae 9e 2c 3d 21 5f 20 3c
       -0.005284442 -0.07777669 0.042143516 0.0097883055
0000e0 dd 0e b4 3c a7 3f b5 3a 72 b8 a7 bc 41 00 5d 3c
       0.021979744 0.0013828174 -0.020473693 0.01348883
0000f0 df 82 15 bc e7 6a bf 3b 12 55 10 bc a3 d3 21 3d
       -0.00912544 0.005841601 -0.008809345 0.039508473
000100 c8 4d 76 bc 65 40 be bc 09 d7 62 bc b5 8e 90 bc
       -0.015033193 -0.023224065 -0.013845214 -0.017646173
000110 b6 e1 e4 bb 26 0e f2 bc 91 0d 0e 3d e2 62 5a 3c
       -0.0069849147 -0.029547762 0.034680907 0.01332924
000120 d1 79 a2 3b 3b 81 ef bc 2b a2 e5 3b e5 51 31 bd
       0.0049583693 -0.029236427 0.0070078573 -0.04329099
000130 ad a1 30 bc 80 ac 0b bd 61 91 b5 3c 1c c1 39 bd
       -0.010780734 -0.034100056 0.022164049 -0.04535018
000140 ef d3 39 3b b4 92 0e bd 1f 5d 82 bc 96 99 53 bc
       0.0028355082 -0.034807876 -0.015913544 -0.012915036
000150 df 40 d7 bb 47 54 ab bc 66 33 b6 bc ae 4b a3 bb
       -0.0065690125 -0.02091421 -0.022241306 -0.004983387
000160 8e 8c e5 bc 67 38 4d bd 6e d1 1f bd 22 11 a9 3c
       -0.028021123 -0.050102618 -0.039018087 0.020638052
000170 10 15 9c bc 82 e4 9b bc 50 09 85 bd fb a7 12 bd
       -0.019053012 -0.01902986 -0.06495917 -0.03580473
000180 99 26 e9 ba d5 e5 ba bc 52 b9 b3 bb 38 0b 8f bc
       -0.0017787992 -0.02281467 -0.0054847384 -0.017461404
000190 cd ff ea bc f6 6d 65 bc 5e 43 d5 bc 50 ea f0 bc
       -0.028686428 -0.0140032675 -0.0260331 -0.029408604
0001a0 9f 33 c1 3c b5 86 4e bd fc 96 94 bc 98 46 f7 3c
       0.023584185 -0.050421435 -0.018138401 0.030185029
0001b0 69 e0 0f 3c a9 6c f1 bc 38 ef 28 bd 95 47 c9 3b
       0.008781531 -0.029470759 -0.04124376 0.0061425664
0001c0 cb 48 51 bd 95 5b d1 3b 05 8b 87 bc 76 07 fd bc
       -0.05109481 0.0063890913 -0.016545782 -0.030887347
0001d0 79 39 02 bd a5 23 e4 bc fc 67 56 bd ea dc 44 bd
       -0.03179309 -0.027849028 -0.05234526 -0.048062243
0001e0 26 b7 36 bd 7c b8 10 bc dc ae 66 bd 2c 14 19 bc
       -0.044608258 -0.008833047 -0.056319103 -0.009343188
0001f0 92 3f 3f ba fb be 1c ba 92 92 c0 bc 82 6c ef bc
       -0.00072955445 -0.0005979386 -0.02350739 -0.029226545
000200 2a d5 2e ba e8 b7 be bc 6e 3d aa 3c fe c8 ff 3c
       -0.0006669337 -0.023281053 0.020781245 0.03122377
000210 27 f7 02 bb 3d 1b f0 3c f3 c7 eb 3b e8 09 d1 39
       -0.001998374 0.029309863 0.0071954667 0.00039870967
000220 fa 71 03 3c 87 18 7e 3c 54 8e e8 3b 08 86 65 bc
       0.00802278 0.015508777 0.007097045 -0.014009006
000230 f7 e7 2d 3b 4e a3 65 bc 4d c2 eb 3b 1e 64 c9 3c
       0.0026535967 -0.014015986 0.0071947933 0.024583872
000240 3e f4 97 3c 56 5b 68 3b 98 f8 29 bb d2 ba ff bc
       0.018549081 0.003545483 -0.0025935527 -0.031217013
000250 22 ac 2b 3c 1f 5d 56 3b 6f eb 4a 3c 4a de 4e 3c
       0.010478051 0.0032709313 0.012385233 0.01262624
000260 51 0c 09 bb 39 4e 7a bb f9 20 cb 3c 5d 88 b2 bc
       -0.0020911882 -0.0038193597 0.024795996 -0.021793539
000270 38 d4 d7 3c 8d 7e b5 3c 79 68 e6 3c 69 dc 81 3c
       0.026346311 0.02215507 0.028125988 0.01585217
000280 06 d8 de bc ed d1 ff 3c 23 70 7d bc 47 c2 be 3c
       -0.027202617 0.03122803 -0.01546863 0.023285998
000290 c0 9d d7 3c 6e a6 a1 3c 4f 58 21 3d b2 58 94 3b
       0.026320338 0.01973268 0.03939086 0.004527175
0002a0 da 7a c2 3c 41 53 f2 3b f5 b8 ec 3a a1 fb 0f bc
       0.02374022 0.0073951785 0.0018060493 -0.00878802
0002b0 f7 bf d2 3c 4f b4 50 bc 9b 4d 3a 3c ae 3c b4 bc
       0.025726302 -0.012738301 0.011371042 -0.02200159
0002c0 e0 a6 12 bd 95 35 81 3c 0b ef 9b 3a cc 2d 3d 3a
       -0.035803676 0.01577262 0.0011896802 0.0007216602
0002d0 ea 00 18 bc b0 06 95 bb 70 e6 23 bd 56 0b a9 3c
       -0.009277562 -0.0045479164 -0.040014684 0.020635288
0002e0 3f 10 f3 bc c5 36 61 bc b8 23 01 bb de a9 c2 3c
       -0.029670833 -0.013745968 -0.0019705128 0.02376264
0002f0 99 74 2f bb fe 00 b3 3c c7 68 f1 bb a0 9c 1b bd
       -0.0026772378 0.021851059 -0.0073672268 -0.037991166
