ckpt/model_lr_0.001_emb_16_hid_128_layers_1.pth (torch, 660066 bytes, 18 tensors)

class_embedding.weight f4 [8, 16]
000000 e8 69 8f 3c 4b 71 8f 3c 0c 09 43 bd ab 12 68 bc
       0.017506555 0.017510077 -0.04761605 -0.014164607
000010 1c 67 03 bb ae 65 fa bd 29 fa 15 bd 8b b3 93 3d
       -0.0020050472 -0.12226425 -0.036615524 0.072119795
000020 22 0d b0 bd f5 ea c3 3c e8 ce 9b bc f1 65 8c 3d
       -0.08596255 0.023915747 -0.019019559 0.06855381
000030 31 aa e9 bc 51 0b 43 ba 76 42 b0 bc c4 ee c5 3c
       -0.028523536 -0.0007440346 -0.021516066 0.024161704
000040 2a b9 d1 3c f9 15 b0 3c 0b 83 91 bc 9b 8d 3b bb
       0.025600988 0.021494852 -0.017762681 -0.002861834
000050 e7 33 d0 bc 18 71 85 3c 60 5e dc bc b9 fd bb 3c
       -0.025415374 0.016289279 -0.02690047 0.022948133
000060 ef a5 83 3b f3 ae 78 bc 1e da c1 bc 9e 2e a6 bc
       0.0040175836 -0.01517843 -0.023663577 -0.0202859
000070 ac 68 00 3d f1 f9 e5 3c 75 93 cf bc e2 2c f4 3c
       0.031349823 0.028073283 -0.025338868 0.029806558
000080 55 3d 39 bd 71 a1 21 3d 07 66 d8 3d 3a eb ce 3d
       -0.045224506 0.039460603 0.10566335 0.1010346
000090 06 5d 8c 3d f4 50 d8 3d 38 ae ab 3d a7 71 5c 3c
       0.0685368 0.105623156 0.08382839 0.013454831
0000a0 64 c6 af 3d 59 1c 25 3d 04 4f 55 3d 29 79 a3 3a
       0.08582762 0.040310238 0.05207731 0.0012472022
0000b0 b4 d7 0a 3c 26 39 65 bb d7 cf cb 3d 66 e4 d9 bc
       0.008474279 -0.003497669 0.09951752 -0.026598167
0000c0 02 0e 89 ba 51 8a 98 3b f5 e1 9e bc 46 45 25 bc
       -0.0010456445 0.0046551605 -0.019394854 -0.010087317
0000d0 de ba 22 bb b9 05 9c bb e6 b6 46 3b f4 2c 17 bd
       -0.002483062 -0.0047614244 0.0030321418 -0.036908105
0000e0 a6 f8 53 bb 0c 9d fb ba 7b 4d bf bc dc d6 8c 3c
       -0.003234425 -0.0019196584 -0.023352375 0.017192297
0000f0 af a1 10 bd b4 ce 0a bc c8 22 c0 bd 67 5f 2d ba
       -0.035310443 -0.008472133 -0.09381634 -0.00066136423
000100 d9 b2 80 3d 74 e8 20 3d 53 17 06 bd 98 db 7a bd
       0.062841125 0.039284185 -0.032737087 -0.061244577
000110 1e 6f 98 bd 31 da 9c 3d b7 87 dc bc 0b 17 7c 3d
       -0.07443069 0.07658804 -0.026920183 0.061545413
000120 29 2c 85 3d 2e a6 8b bd e8 57 ee 3c 40 8c 2e bd
       0.065025635 -0.06818806 0.029094651 -0.04261422
000130 6e 3e 8c 3d 11 39 8f 3d a8 42 ac 3d 9c a2 b1 3d
       0.06847845 0.069933064 0.08411151 0.086735934
000140 1a da 3f bd 5f ea 12 3c 4d d8 46 bb 51 2d 9d bc
       -0.046838857 0.008967011 -0.0030341328 -0.019186648
000150 00 b8 45 3c 14 99 84 bd ad aa 5a bc f6 0b 9d bc
       0.012067795 -0.0647451 -0.013346356 -0.019170742
000160 16 76 f9 bb e2 93 15 3d c7 d1 07 bd b8 6d cc 3c
       -0.007612954 0.036517985 -0.033159044 0.024954662
000170 59 4c 8c bd 64 bd 5b bd ef b1 10 3b f0 61 87 3b
       -0.068505 -0.053647414 0.0022078713 0.004131548
000180 8b 31 1e bc 4c 96 2d ba f8 c6 9d 3c 41 9e 19 3d
       -0.009655367 -0.0006621822 0.019259915 0.03750444
000190 f2 11 26 3d ef a2 bc bc 1a 1e 0b 3d 81 af 89 3b
       0.040544458 -0.023026912 0.033964254 0.00420183
0001a0 32 e1 87 bc af 91 1d 3d db 25 3c 3b 9b 95 9b 3c
       -0.016586874 0.038469013 0.0028709087 0.018992236
0001b0 8c 4a c5 bc 67 47 0b bd 01 7e b9 bc 01 00 0e bd
       -0.024083398 -0.03400364 -0.022643091 -0.034667972
0001c0 74 5b 27 bc 24 99 ce bb 80 8c 0c bc 25 cd 25 3c
       -0.010214675 -0.006304877 -0.00857842 0.010119711
0001d0 d6 db 84 3b 19 e2 39 3c 16 4f 24 3a 94 57 a8 bb
       0.004054527 0.01134541 0.0006267888 -0.0051373933
0001e0 67 b5 42 bb b2 63 1b 3c 9d 82 3f 3c 4d c5 a4 bb
       -0.0029710175 0.009484218 0.0116888555 -0.005028403
0001f0 f7 cc ae bc 86 16 5e 3b e2 03 27 bc 56 63 1b 3b
       -0.02133797 0.0033887937 -0.010193797 0.0023710332

class_counts_projection.weight f4 [8, 5]
000000 26 98 23 3f 4b db 2b 3f ab fa 00 bf b9 9c 34 3f
       0.63904035 0.6713149 -0.5038249 0.7055164
000010 27 6e c3 3b a2 b4 aa bd 32 78 05 bf fb 81 17 bf
       0.005964059 -0.08335234 -0.5213653 -0.5918271
000020 17 a1 2b 3f ff ca 05 bf cd eb 5b be 7b 35 0a 3f
       0.6704268 -0.5226287 -0.2147667 0.53987855
000030 44 39 7d 3e 9c 8a f2 3e d4 9d 0e 3f 26 8c 67 3e
       0.24728876 0.47371376 0.55709577 0.22612056
000040 6f c4 f8 be 09 20 4f be 38 b3 62 be 5f 1d 32 be
       -0.48587367 -0.20227064 -0.22138679 -0.17394017
000050 d3 1e c1 3e cf 37 84 3e a1 93 39 3e 7a ea 06 bf
       0.3771883 0.2582383 0.18122722 -0.5270153
000060 6a 9b af be 41 55 cd 3e d0 23 8d be 42 59 07 3f
       -0.3429826 0.40104106 -0.27566385 0.5287057
000070 ce 44 df bc be c8 a4 bd 70 f9 fb 3d f2 e9 33 bd
       -0.027254488 -0.08046101 0.12303436 -0.04392428
000080 93 8a 31 bf 4c 2c 4f be 6b cd 01 bf 52 59 f0 3e
       -0.6935207 -0.20231742 -0.5070407 0.46943146
000090 2e 71 1f 3f 87 50 e5 3d ed 4f 99 be df 9d d3 be
       0.62282073 0.11197 -0.2994379 -0.41331384

class_counts_projection.bias f4 [8]
000000 cb cc a0 3c f8 4b 34 3d 5f 9d 31 bd 5c 64 ce 3c
       0.019628903 0.044017762 -0.04336297 0.02519434
000010 15 17 45 bc 88 fe 19 bc 2e 94 ae 3c aa 14 67 3c
       -0.012029429 -0.009399064 0.021310892 0.014104048

layer_norm.weight f4 [29]
000000 ac 81 84 3f 77 14 70 3f 3d 5e 84 3f 6c b9 84 3f
       1.0352073 0.93781227 1.0341259 1.0369086
000010 1f 95 83 3f 4f 07 88 3f 62 59 84 3f 77 e5 81 3f
       1.0279883 1.062723 1.0339777 1.0148152
000020 1a d6 85 3f 9f 65 85 3f 2c 8f 82 3f 2f 6d 7f 3f
       1.0455964 1.0421637 1.0199943 0.99775976
000030 88 58 85 3f dc 02 82 3f 0f cb 82 3f c4 83 82 3f
       1.0417643 1.0157123 1.0218219 1.0196462
000040 c2 79 7f 3f ff a8 84 3f 6c 59 84 3f 0e 90 85 3f
       0.9979516 1.0364074 1.0339789 1.0434587
000050 92 74 82 3f b6 b3 87 3f f7 df 83 3f 39 45 84 3f
       1.0191824 1.0601718 1.0302724 1.0333625
000060 3e fb 83 3f 43 93 80 3f c4 d5 80 3f 80 66 83 3f
       1.0311048 1.0044941 1.0065236 1.0265656
000070 57 13 82 3f
       1.0162152

layer_norm.bias f4 [29]
000000 09 8c 2f 3c b8 17 23 3d 3e 90 e2 bb 11 5c 8a ba
       0.010714539 0.03981754 -0.0069141677 -0.0010556002
000010 54 b6 79 3b 74 c3 47 3a b7 8c f2 bb 64 cb aa 3a
       0.003810306 0.00076203723 -0.0074020284 0.0013030586
000020 94 03 90 3b 97 18 99 3b cd 72 21 bc 3e 5d 64 3c
       0.004394958 0.004672121 -0.009854031 0.013938246
000030 74 a5 8e bb 7c 6c 08 3c 8a 47 91 3b 0c b0 85 3b
       -0.0043532196 0.008326646 0.004433577 0.0040798243
000040 e5 23 a7 bc 96 e8 99 bc 04 5f 87 3b 90 13 95 bc
       -0.020402858 -0.018787663 0.0041312 -0.018197805
000050 83 2c 74 bc e7 89 48 3c 4c 24 72 3c 5a ff 0e bc
       -0.014903191 0.01223991 0.014779162 -0.008727873
000060 90 87 62 3b 76 55 6d bc bb de a9 3a 79 88 ca b9
       0.0034565665 -0.0144857075 0.0012960056 -0.00038630122
000070 23 e5 55 3b
       0.0032637797

gru.weight_ih_l0 f4 [384, 29]
000000 7d 4b 11 bb 80 da 81 3d c9 f7 ad 3d a8 5c f6 3d
       -0.0022170239 0.06340504 0.08494527 0.120293915
000010 11 4c a7 bd 13 82 f7 3c 74 18 5f 3d 9e f1 f8 bd
       -0.081688054 0.030213391 0.05446668 -0.1215546
000020 47 75 e9 3d fd a8 c2 3d 5f 93 58 3d 93 2a 82 bd
       0.11399322 0.09504888 0.05287492 -0.06355777
000030 42 d6 50 bc d3 53 57 bc 51 d6 f3 3d d4 dc 89 bc
       -0.012746396 -0.013142544 0.11906112 -0.016828932
000040 41 61 24 3d b8 74 77 bc 1a 41 08 bd 7e 95 b2 bd
       0.04013181 -0.0151035115 -0.03326521 -0.087199196
000050 d4 91 7d 3c 9c 1b a2 ba 38 09 c6 3c 8c 6e b1 bd
       0.015476663 -0.0012367847 0.024174318 -0.08663663
000060 50 23 80 bd 23 37 22 be 91 01 e2 bd 1a 48 c4 3d
       -0.06256735 -0.15841345 -0.11035455 0.09584065
000070 f5 35 2f bd 26 fa c6 bd bd 91 92 3d 5b ae 2f bc
       -0.042776067 -0.09715681 0.071567036 -0.010722722
000080 a7 70 00 3c 77 3b b1 3d cd d4 30 3d da 68 3c 3d
       0.007839358 0.0865392 0.043171693 0.04599843
000090 d3 1c 81 3d d6 9e 4e bd 79 a1 b4 bc 24 ff 30 bd
       0.06304326 -0.050444447 -0.022049652 -0.04321207
0000a0 71 18 fa 3c 60 55 d7 bd 33 6e bb 3c 99 14 8b 3d
       0.030529233 -0.10514331 0.022879696 0.06791038
0000b0 1b 66 b2 bd 0f c1 46 3d 74 64 34 bc bc 54 30 bd
       -0.08710881 0.04852396 -0.011010278 -0.04304956
0000c0 5e 1f fe 38 5e af 39 3d 68 1a a3 3d 0c bc 03 be
       0.000121175064 0.04533326 0.07964021 -0.12864703
0000d0 bb 07 e6 bc a9 43 97 3d 59 42 b5 3d 50 de c0 3d
       -0.028079858 0.07385952 0.088505454 0.09417403
0000e0 fe a1 24 be 7a 14 9a 3d 01 dc f4 3d 88 5a e6 bc
       -0.1607742 0.07523437 0.11956025 -0.02811934
0000f0 eb 07 a2 3c 3f 33 b1 bd 32 0c 8c 3d a4 d7 84 bd
       0.019779166 -0.086523525 0.068382636 -0.06486443
000100 65 6b 5c bc 61 e1 f8 bd fd cc ad bd e1 76 18 bd
       -0.013453339 -0.121523626 -0.08486364 -0.037222747
000110 4d 3e e4 3d 18 11 47 bd 9b d5 e1 3c eb a9 f8 3d
       0.111446954 -0.048600286 0.027567675 0.12141784
000120 47 b3 72 bd f9 20 03 3d 19 62 9e 3c 42 ec 6a 3d
       -0.059253003 0.032013867 0.019333886 0.05735422
000130 27 26 c7 bd 37 a3 df 3d 96 67 0e bd 2e 75 90 3d
       -0.09724074 0.10919803 -0.034766756 0.070536
000140 9a 46 1a be 1d c5 bd 3d 0b 8c e9 bd a0 7a 84 bd
       -0.15065995 0.09266112 -0.11403664 -0.06468701
000150 b7 2d 4e bd e2 e4 0e be 4e 42 fe 3c af 1d 71 3d
       -0.050336566 -0.139545 0.031037476 0.0588662
000160 1b 8b 8c 3d 4f dc b9 3c 7e 9d 09 be b3 7f 99 3d
       0.0686247 0.02268806 -0.13438985 0.0749506
000170 43 5c a9 3a 1d a2 2d 3b 73 24 89 bd 56 1c 85 bd
       0.0012921173 0.0026494332 -0.06696405 -0.06499545
000180 b2 a8 f7 bc be 3c 76 bd f1 9d 83 ba c7 53 9c 3c
       -0.030231807 -0.060116522 -0.0010041577 0.019082917
000190 e8 ca 38 3d 04 87 ed 3c ff 31 a3 3d 22 f8 e5 ba
       0.04511538 0.028995045 0.079685204 -0.0017545263
0001a0 5e c0 6c bd 21 29 08 3e 6f 2e 32 3d df 02 c6 3b
       -0.057800643 0.1329694 0.043501314 0.0060428227
0001b0 7d 5c e4 bd 13 b8 2a 3d 0e 78 6b bd a2 ec 91 3b
       -0.11150453 0.041679453 -0.05748754 0.0044532577
0001c0 f2 a4 9c 3d 89 54 b1 bd 55 ce ae bc 98 be d9 bd
       0.07648648 -0.08658702 -0.021338621 -0.10632056
0001d0 20 28 d0 3c 9d 61 35 bd 68 a7 d2 3d 3e 74 1b bc
       0.025409758 -0.044282544 0.102858365 -0.0094881635
0001e0 83 15 1b bd 56 42 e2 bd 4d 0e 7b 3d de 9e b5 bd
       -0.037862312 -0.11047809 0.061292935 -0.08868192
0001f0 36 77 46 bd 1a 47 c7 3c fa 90 27 3c ed 52 19 3d
       -0.048453532 0.024325896 0.010227436 0.0374326
000200 07 2c e4 bc f1 65 b3 bd 91 66 f6 3b a1 97 ca bd
       -0.027853025 -0.08759678 0.007519551 -0.09892202
000210 5d 86 82 3d c6 96 b8 3d ff f5 d4 bd 41 7a a5 3c
       0.06373284 0.09013133 -0.103984825 0.020199897
000220 63 7c 26 bd 8b d5 52 3d 5c f7 8d 3a f5 e3 92 3d
       -0.04064597 0.05147318 0.0010831165 0.071723856
000230 19 64 0c 3d 29 7a 8c bd 4a b1 de 3d a3 b6 dd bc
       0.034275148 -0.06859238 0.10873659 -0.027064627
000240 6b b4 1a bc fc 54 03 bd 28 1c cc 3d 44 69 d5 3d
       -0.009442429 -0.03206347 0.09966308 0.104204684
000250 ba b0 4f 3d 8c 8a 83 bd b8 6a 8c 3d b2 36 05 3c
       0.05070565 -0.0642291 0.068562925 0.008130716
000260 e4 37 ea 3c 6a 0a 16 3d 5b 87 3d 3d 36 3f 8d bd
       0.028591104 0.036631025 0.046271663 -0.06896822
000270 42 65 e0 bd 4d 51 c7 bd c3 0b ff 3b 79 cd 1c ba
       -0.109568134 -0.09732304 0.0077833845 -0.00059815455
000280 52 50 3d bd 8b 66 04 3c 5a de 7d bd b6 fa d0 bd
       -0.046219178 0.008081089 -0.06197963 -0.10204069
000290 6f e6 80 3b 89 f2 69 bd 51 2c 89 bd eb c5 a1 bd
       0.00393372 -0.057116065 -0.06697906 -0.07899078
0002a0 e9 82 95 3d 07 9b 09 bd 6f 3d a2 bd fa d2 94 bb
       0.0730036 -0.03359511 -0.07921874 -0.004541752
0002b0 21 c6 11 bc be 7e 73 3d 91 b3 02 be bb 54 ce bc
       -0.008897335 0.059447043 -0.12763812 -0.025186887
0002c0 92 f5 ce 3d cd 49 5f 3d 85 50 04 3d 4c 02 81 3d
       0.101054326 0.05451374 0.032303352 0.06299266
0002d0 23 fd ed 3c 4d c9 5c bd 83 be fa 3c b4 18 c6 bc
       0.029051369 -0.053902913 0.030608421 -0.024181701
0002e0 43 cc fb bd da 9a 7f bd cf 66 7a 3c 8b 63 bc 3d
       -0.12294819 -0.062403537 0.015283301 0.09198674
0002f0 ce 4f 4b 3d 8d 58 d8 3c b6 2c 4d 3d 4c 6a 82 bc
       0.049636655 0.026409412 0.050091468 -0.015919827
000300 b1 00 1a bd 74 1f 98 3d a9 79 c2 3c 07 c3 ca bd
       -0.037598316 0.07427874 0.023739653 -0.0990048
000310 51 53 42 bd 9e 2a 86 3d b8 76 db bd 81 d1 aa 3d
       -0.047442738 0.06551097 -0.10716003 0.08340741
000320 6c 6b 69 bd 5f 1a a0 bd 15 89 21 be a0 bd 50 be
       -0.05698721 -0.0781753 -0.15774949 -0.20384836
000330 91 24 88 3c 71 68 f5 bd 9c 79 03 be 06 3a 05 be
       0.016618999 -0.11982811 -0.12839359 -0.13010415
000340 54 bf 99 bd 29 15 9d bc ce 3b c4 bd 37 6f b5 3b
       -0.07507196 -0.019175129 -0.09581719 0.0055369395
000350 a9 39 3e 3d 10 36 86 3d ba f3 e6 bd 5b b1 25 be
       0.046441708 0.0655328 -0.11276956 -0.16180937
000360 5c 9b 84 bd 31 92 1f 3d c8 54 85 bd df 56 af bd
       -0.06474945 0.03895778 -0.06510311 -0.08561491
000370 d6 31 3b bd 2c ec 6f 3d 6c 3d 0e be d1 ae a3 3c
       -0.045701824 0.05857484 -0.13890618 0.01998082
000380 ce 74 78 3d 6d 56 02 3d c0 77 27 3d 07 b9 b7 3d
       0.06065827 0.031820703 0.040885687 0.08970838
000390 c4 61 6b bc 76 4f 5b bd 49 72 01 3b bb 81 82 3d
       -0.014366571 -0.053542577 0.0019751957 0.063724004
0003a0 81 d0 36 bc 8b a2 fc ba 83 64 86 3c 61 43 70 3b
       -0.01115811 -0.0019274516 0.01640535 0.0036661255
0003b0 68 4d 8a 3d 24 d2 04 be 0e 72 98 bd 0e b6 99 3d
       0.06753045 -0.12970787 -0.07443629 0.07505427
0003c0 7a e7 3e bd c7 3b 82 3c c5 be 1a ba 41 da 6d bd
       -0.046607472 0.015897645 -0.00059030607 -0.05806947
0003d0 5b 33 8e bd cc 04 c3 3c 5e f9 b8 bd 9f 88 84 3d
       -0.06943389 0.023805998 -0.09031938 0.06471371
0003e0 55 75 23 bd b9 b5 bc bd 7a cb 5c bc 9d 12 f6 3c
       -0.03990682 -0.09214348 -0.013476247 0.030038172
0003f0 74 b0 a1 bd 2d 97 3d 3d 30 92 76 3d 39 df 05 3e
       -0.07894984 0.04628675 0.06019801 0.13073434

gru.weight_hh_l0 f4 [384, 128]
000000 5b 4e 67 3c c4 c8 6d bd 8d d9 33 bd 38 55 be 3c
       0.0141178025 -0.058052793 -0.043908644 0.023233995
000010 47 6f bb 3b 7d 8c 6d bc a2 cd 54 bd 27 5a d1 3b
       0.0057200524 -0.014498827 -0.05195392 0.006388921
000020 26 9a 17 3d f5 3f a2 bc 25 56 ad bd 78 4a 90 3d
       0.03701224 -0.019805888 -0.084636964 0.07045454
000030 7f 91 9b 3d 50 cc 62 bb 13 3e cf 3c 2a fc 3b bd
       0.075961106 -0.0034606643 0.025298154 -0.04589478
000040 d3 f3 db 3c ff ac 0c 3e e9 68 11 3d 2b e5 38 3d
       0.026849663 0.13737868 0.03550044 0.045140427
000050 09 50 0e 3c ff 10 9e bc ee 10 f3 3c 29 0c 8e 3c
       0.008686074 -0.019295214 0.029671159 0.017339783
000060 98 72 0b 3d 4b c9 13 ba 56 9f 39 bc 82 2a a2 3d
       0.034044832 -0.00056376 -0.011329493 0.07918264
000070 8c b9 0c 3d b8 95 ca 3b af 50 4a bd cb cf a1 3d
       0.03435664 0.0061823986 -0.049393352 0.079009615
000080 66 d6 17 bd 67 f2 13 3c dc b8 6a bd 02 15 10 3d
       -0.0370697 0.009029961 -0.057305202 0.035176285
000090 cd 00 09 3d 75 e6 6a 3c 10 b4 1a 3d c5 23 d2 bc
       0.03344803 0.014337172 0.037769377 -0.025651822
0000a0 09 d6 70 bd 97 2d a9 bc 5c 15 c4 3d 10 c7 57 3d
       -0.05879787 -0.020651622 0.095743865 0.052680075
0000b0 09 2e c2 3b eb f8 fd bc 5d b0 e9 3d 84 c7 82 bc
       0.005925898 -0.031002482 0.11410592 -0.015964277
0000c0 b1 d1 15 be a7 48 a9 3d 1d 89 03 bc b6 5a 58 3d
       -0.14630772 0.082658105 -0.008028296 0.052820884
0000d0 94 17 cd bc 25 50 3b bd 5e 7e 8b bd 08 67 e6 3c
       -0.025035657 -0.04573073 -0.06811212 0.028125301
0000e0 48 cf 1c 3d 95 55 af bd bc 55 d7 3c 51 4b dd 3c
       0.038283616 -0.08561245 0.026285999 0.027013453
0000f0 df 58 87 bd e6 63 f8 3d d0 bb a8 bd b2 47 39 bd
       -0.06608748 0.12128429 -0.082389474 -0.04523439
000100 f1 2b 84 3d 87 7b 0e 3d 39 9b 38 bc 9f ba 26 bc
       0.06453694 0.034785774 -0.011267477 -0.01017633
000110 ca c9 1d 3e 29 34 ea 3d 6e 65 a7 3c 1a 9d 32 3d
       0.15409008 0.1143573 0.020434108 0.043606855
000120 f4 ca 92 bd 4e 42 20 3d 9a 49 6b 3b a8 49 86 3d
       -0.071676165 0.039125733 0.0035902024 0.065570176
000130 49 6c 0c bd 03 7f d2 3d aa 62 4a 3d 24 ae 7c bd
       -0.034282956 0.10278132 0.0494105 -0.06168951
000140 cc 0b ac 3c 12 10 c1 bb 52 23 bb 3b c8 f6 ab 3b
       0.021001719 -0.0058918083 0.0057109976 0.0052479245
000150 d8 2f 07 3d 31 ed 0b bd 64 9a df 3b 33 ab 15 3d
       0.03300461 -0.03416175 0.0068238247 0.03654022
000160 3e 11 be 3c 78 80 4c bd af 88 09 bd ca 82 c2 bd
       0.023201581 -0.049927205 -0.033577617 -0.09497602
000170 3a 5f d2 3d e2 87 54 bd a6 40 29 3e fb 36 dc 3b
       0.10272069 -0.0518874 0.16528568 0.0067204214
000180 6d 13 e6 bd 77 1e 6b bb 0a 22 ce 3d 02 73 3f bb
       -0.11234174 -0.0035876313 0.10065086 -0.0029212837
000190 27 39 26 bc b4 89 4c bd a3 6d a9 3d 1a 20 9c 3c
       -0.010145462 -0.04993601 0.08272865 0.019058276
0001a0 d6 53 2f bd e8 bf dc 3a 04 05 77 bd 12 7d eb bc
       -0.04280456 0.001684186 -0.060307518 -0.028746162
0001b0 26 4a 6b 3d de a1 86 bd df 60 90 bc 23 68 e5 3c
       0.05744376 -0.065738425 -0.017624317 0.028003758
0001c0 72 17 fb 3c f7 ef b5 bc 84 a8 b3 3c 87 c2 c2 3b
       0.030650828 -0.02220915 0.02193094 0.0059435996
0001d0 5d 07 d0 3c b8 99 a6 3b 86 3f 64 3d 7e 11 0c bd
       0.025394136 0.0050842427 0.055724643 -0.03419637
0001e0 97 eb bf bd ba 3f 76 3d 61 ec 46 bd d6 e3 34 bd
       -0.09371107 0.060119368 -0.048565272 -0.044162594
0001f0 0b c2 80 bc 8d a9 c3 bc 14 b1 8a bd e9 23 03 bd
       -0.015717527 -0.023884559 -0.06772056 -0.03201667
000200 ae 73 49 3d 82 ba 6a 3d 62 ba 3b 3a 94 94 87 3d
       0.049182586 0.057306774 0.0007161257 0.06620136
000210 88 af 6a bc 87 a5 5e bd 92 47 44 bd 0f f8 2b 3d
       -0.0143240765 -0.054357078 -0.047919817 0.041984614
000220 87 63 c2 bb 75 93 1e bb 15 ff 90 bd c0 48 c2 bc
       -0.0059322747 -0.0024196778 -0.07079903 -0.02371633
000230 cb a6 ba bd 40 e0 09 3d 06 ea 2b bc da 84 88 3c
       -0.091138445 0.033661127 -0.010492807 0.016664911
000240 16 41 4c bc cf be 37 bd 07 60 80 3a 0f 93 ac bd
       -0.01246669 -0.044859704 0.0009794243 -0.08426487
000250 02 cc 25 3d 58 cb d0 bb b1 81 1b bd 52 aa 7d 3d
       0.04047776 -0.0063718967 -0.03796548 0.06193001
000260 c1 0d e5 ba c9 e5 9c 3c 7a 4e 7b 3c 20 fa c2 3d
       -0.0017475412 0.019152539 0.0153385345 0.09520364
000270 8b 40 96 bd d9 5e 8a 3d 0a 25 71 bd 2c e7 57 bd
       -0.07336529 0.06756372 -0.058873214 -0.052710697
000280 ba da fd bc f5 95 73 3d 41 68 23 3d e2 d7 4b bc
       -0.030988086 0.059469182 0.039894346 -0.012441607
000290 04 81 8a bc bd 1b 2c 3d 27 d2 29 3d 73 8f 95 3d
       -0.016907223 0.04201864 0.041460183 0.073027514
0002a0 3e d8 8e 3c a1 af 57 3d e3 ac dc bb f0 d9 c0 3b
       0.017437097 0.052657727 -0.006734477 0.005885355
0002b0 17 aa b6 bc d7 8c 14 bd 7c fd 0b 3c 92 03 8e 3d
       -0.022297902 -0.036267128 0.008544322 0.06934275
0002c0 68 c3 37 bd 67 f2 92 3d 60 a8 c0 bb 08 e2 48 3d
       -0.04486409 0.07175141 -0.005879447 0.049043685
0002d0 be d3 ab bc 09 75 cf bb b9 fc f0 bc 69 d4 87 bc
       -0.02097499 -0.0063310903 -0.029417383 -0.016580777
0002e0 4a e1 42 3d 97 50 6e 3c 0f 5a 39 bd 50 11 e8 3d
       0.047578134 0.014545581 -0.045251902 0.11331427
0002f0 90 76 12 be d0 ea e5 bb 5d b2 ef 3c 35 75 cf bd
       -0.1430304 -0.007016517 0.029259855 -0.10129777
000300 bd 39 a2 bd 67 c1 f3 3d ee c3 ea 3d 3c 59 c8 3c
       -0.07921169 0.11902123 0.11463152 0.024456613
000310 6c 79 d4 3c a8 40 a8 3c 67 3f 87 3d 52 bc 35 bd
       0.025936805 0.020538643 0.0660389 -0.04436905
000320 16 67 cb ba 99 df 3a 3c 58 0f f4 3c 54 1e 23 bd
       -0.0015518393 0.011405849 0.029792473 -0.039823845
000330 88 a3 0e bd e9 80 a7 bc a3 98 31 3d dc 9f 26 bc
       -0.034823924 -0.020447211 0.043358456 -0.010169949
000340 21 fd 78 3c ef 25 33 be 73 7e 3e bd 6d 27 48 3d
       0.015197069 -0.1749494 -0.04650731 0.048865724
000350 59 71 c3 bd 5b 36 b6 3c 8d eb be 3c cf 99 47 bd
       -0.09543104 0.022242716 0.023305679 -0.048730668
000360 5a 93 6e bd 68 fa 14 bd 1a d3 e2 bc c8 e8 28 3d
       -0.058245994 -0.03637162 -0.027688552 0.041237622
000370 ce 95 24 3d c5 d7 bb bd 6b 88 68 3c 17 a1 1a 3d
       0.040181927 -0.09172014 0.014192681 0.037751283
000380 90 42 d5 3d 7a 34 58 bd 66 f0 5d bd 26 1b 7f 3d
       0.104130864 -0.05278442 -0.05418434 0.06228175
000390 b4 2b 29 bd fb b8 09 bd a8 52 4e bc 61 fc 5a 3d
       -0.041301444 -0.033623677 -0.012592949 0.053463344
0003a0 ad db 7f 3d a3 f6 88 3c c4 68 20 bd 3d 48 37 3d
       0.06246536 0.016719168 -0.039162412 0.044746626
0003b0 f7 2f ea bc 77 02 ba 3d ca 3f 9b 3d 5a 66 71 bd
       -0.028587325 0.090825014 0.07580526 -0.0589355
0003c0 40 36 23 3d f4 d7 b8 3c 5e 9e 35 bd 25 0b 6f 3d
       0.03984666 0.022563912 -0.044340484 0.058360238
0003d0 1c ff 2f 3c 13 21 d2 bd c7 23 8b 3d c1 cf a6 3b
       0.010741975 -0.10260215 0.06793933 0.005090684
0003e0 05 a0 fc bc e2 48 2c 3c f3 0c 9b bc d9 49 b7 3c
       -0.030838022 0.0105154235 -0.018927073 0.02237408
0003f0 b5 2d 13 bc a8 0b 0a be 23 a3 8a bd 4c 28 ca 3a
       -0.008983065 -0.13481009 -0.06769397 0.0015423386

gru.bias_ih_l0 f4 [384]
000000 01 ab 51 bc 29 15 4e 3b 17 0d 0c 3c 94 8e fa 3c
       -0.012797118 0.0031445718 0.008548043 0.030585565
000010 84 ad 65 3b a5 b7 59 3c 08 6f 07 3c 77 67 c0 3c
       0.003504605 0.013288413 0.008266218 0.023486836
000020 e4 b9 72 3c e0 13 31 3a 6e 51 7f bb 42 06 d8 bc
       0.014814828 0.0006754976 -0.0038958448 -0.026370171
000030 81 d6 bf 3a 5f e1 4d ba cc 6e c4 3c ab 52 b0 3c
       0.0014636071 -0.00078537123 0.023978613 0.021523794
000040 a6 40 78 3b 2c c0 3c 3c e2 c5 97 3a fb af 06 3d
       0.003788033 0.011520427 0.0011579359 0.03288267
000050 69 87 9a bb c0 c9 cc 3c ee 0c 81 3c 0d db 38 ba
       -0.004715849 0.024998546 0.015753236 -0.0007051684
000060 39 0c bb 3c b0 40 b3 3c b6 55 b4 3c f4 85 4a b8
       0.022832977 0.021881431 0.022013526 -4.8285307e-05
000070 21 c9 40 3d 79 26 d5 3c 32 d7 d1 3c 51 02 48 bc
       0.04706681 0.026019322 0.025615308 -0.0122075835
000080 cf 09 a7 3c 7a 8b 37 3d b4 d0 b3 3c 39 ac 4e 3c
       0.02039042 0.04481075 0.021950103 0.012614303
000090 6d bd 0e bb 66 5d 20 3d f6 c4 95 3c 45 55 1b 3d
       -0.0021780387 0.03915157 0.018282395 0.037923116
0000a0 4f a0 f9 3c d2 7b 0e 3c 26 8a 8c 3c 6f cb d0 3c
       0.030471949 0.008696513 0.017155718 0.02548763
0000b0 fc 0d 84 3c bf c4 ec b9 fd 68 dc bc cb 37 69 b5
       0.01611995 -0.00045160015 -0.026905531 -8.6880453e-07
0000c0 87 4d 58 3d 24 b3 fd bc 69 6b 84 3b 81 cb b0 3c
       0.05280831 -0.03096921 0.0040411246 0.021581413
0000d0 d9 13 d7 bb 94 08 b4 3c 32 6e be 3c c4 55 5f bc
       -0.0065636453 0.021976747 0.023245905 -0.013631288
0000e0 ac fb c2 3c 5c 6f a0 3b 9c eb 56 3d 11 8f 8e 39
       0.023801647 0.0048960876 0.05247079 0.00027190943
0000f0 53 6e 2f 3d 52 97 a6 3a 08 86 ca 3c bb 5b ab 3c
       0.042829823 0.0012709892 0.024722114 0.020917764
000100 94 d6 2e 39 02 4e f5 3c 5b 9e b4 3c bd 7a a7 3c
       0.0001667387 0.029944424 0.022048166 0.020444268
000110 b1 ff aa 3c 10 18 60 3c 5b fe a7 3c 10 e3 cc 3c
       0.020873876 0.013677612 0.020507028 0.025010616
000120 56 9f 23 3d a9 25 da 3c 85 a4 77 3c ee 6c 48 bc
       0.039946876 0.026629286 0.015114908 -0.012233002
000130 f4 c8 22 3c 94 3e 05 3c 2e cb 7b 3c 45 de e9 3a
       0.009935606 0.008132596 0.015368266 0.0017842731
000140 1d 2d 8d 3c 53 8b 67 bc 67 67 fe 3c ba 1d cb bb
       0.017233426 -0.014132339 0.031055165 -0.006198612
000150 d1 1a d1 3c b6 ce 8c 3c 39 35 87 3c 55 d7 ac 3c
       0.025525482 0.017188411 0.01650487 0.021098772
000160 fc 1a 72 3c 78 bb 26 3d b0 af 1d bc 86 be 13 3d
       0.014776941 0.040706128 -0.009624407 0.03607037
000170 63 fd 34 bb c8 50 ce 3b 80 10 f2 3b 25 df 85 bc
       -0.002761685 0.006296251 0.007387221 -0.016341755
000180 ec b0 d4 3c 5e f5 bd bc ff 49 0b 3d f0 bd 11 3c
       0.02596327 -0.02318829 0.034006115 0.008895382
000190 e8 22 05 3d f5 b3 96 3c 09 8f 75 3a b4 35 77 3c
       0.032503992 0.018396357 0.0009367322 0.015088487
0001a0 64 aa c3 3c 4b f0 fc 3b 93 ec b6 3c 61 ff d0 3c
       0.02388496 0.007719075 0.022329604 0.0255124
0001b0 f6 1e 27 3d 35 c3 76 3c 13 bd fb 3a 15 c5 5a 3c
       0.04080101 0.015061189 0.0019206129 0.013352652
0001c0 c3 e7 2b 3d 82 33 bb 3c 57 6a 27 3c 7e 4c fb 3c
       0.041969072 0.02285171 0.0102182245 0.030676123
0001d0 95 c4 75 3c dc 77 38 3d 2b 58 52 3c 47 ca 8f 3c
       0.015000482 0.04503618 0.012838404 0.017552508
0001e0 86 85 03 3c 22 89 1f bc 59 80 a3 3a cb 87 c2 3b
       0.00802744 -0.009737285 0.0012474164 0.005936598
0001f0 e9 29 e6 3b 75 fb 16 3c 0c ec e0 3c ae b1 8c 3c
       0.007024039 0.009215225 0.027456306 0.017174568
000200 38 49 4f bc e6 18 db 3c 37 01 aa 3b 65 76 27 bb
       -0.012651734 0.026745271 0.005188133 -0.0025552746
000210 a8 15 e6 3c 80 7d 77 bc 7d 77 1b 3d a3 ac 08 bd
       0.028086498 -0.015105605 0.03795575 -0.033367764
000220 04 94 82 bc 10 7f 86 bc 69 bc f3 bc 91 8e dd 3b
       -0.01593972 -0.01641801 -0.029752927 0.00676138
000230 5a bf da bc e5 47 1a 3d 5f 45 73 3c f0 e0 19 b9
       -0.026702572 0.03766622 0.014848082 -0.00014675013
000240 4a 29 42 3c 5f 0e 15 bd 71 8a 8a 3c e5 ad 89 3c
       0.011850664 -0.03639066 0.016911717 0.016806552
000250 19 ee c1 ba c8 87 17 bc 07 cf c3 3b 11 9b 87 bd
       -0.001479569 -0.009248681 0.0059756073 -0.066213734
000260 cc 66 2f 3b 3a 73 cf 3c fa ce c3 bc a5 fd 52 3c
       0.0026764153 0.025323499 -0.023902405 0.012877856
000270 d1 f6 ea bc c6 50 60 3c e3 ac eb 3c 9d d4 0e bd
       -0.028682144 0.013691133 0.028768962 -0.034870733
000280 c1 f6 42 3a 2b f3 a1 3b c6 fd 8d 3b b4 1c f6 3c
       0.0007437282 0.004942318 0.0043332307 0.030042984
000290 ce 3c 10 3d fc cd 9a bc 46 c9 48 3c c7 01 80 bc
       0.035214238 -0.01889705 0.012255019 -0.015625848
0002a0 d6 30 c9 3b b2 1b 8f 39 36 f9 35 3b 25 5a 4a bc
       0.006139855 0.0002729572 0.002776695 -0.012350594
0002b0 f3 fd 91 bc 2a 1d 83 3c 15 f7 0d 3d 83 f8 2a bb
       -0.017821288 0.016005117 0.034659464 -0.0026088066
0002c0 ae 78 53 bd 68 54 00 bd 8e ba a4 3c a2 cf 0b bd
       -0.05162876 -0.031330496 0.020108487 -0.03413356
0002d0 cd da 45 3c 6c 05 96 bc 70 7d 23 bc ef a0 21 bd
       0.012076092 -0.018313132 -0.009978637 -0.03946012
0002e0 47 85 78 ba 27 31 81 3c 9f 67 a3 bd 39 67 17 3c
       -0.0009480309 0.015770508 -0.079787485 0.009240919
0002f0 63 53 66 bc 5e fe c9 bc 8a 47 4e bc d0 d2 f1 bc
       -0.014057967 -0.024657425 -0.012590298 -0.029519469
000300 60 75 0b 3d 6f 2c e7 3b bc ff 90 bc 99 ff a2 3c
       0.034047484 0.0070548574 -0.017700069 0.01989727
000310 71 de 18 bd 70 b6 46 3c 36 95 3f bb 47 2a 2a bd
       -0.03732151 0.012128457 -0.0029233224 -0.041544225
000320 3d 5a 87 bd ad 03 2e 3c 31 04 93 3c cf 63 9b bd
       -0.066090085 0.010620994 0.017946335 -0.07587396
000330 25 c7 ed bb 93 4b 47 3c bc 7a 5d bb dd c3 c5 3c
       -0.007256406 0.012164014 -0.003379508 0.024141246
000340 1c 6e ed 3c 78 b8 ae bc 93 b4 09 3d e6 cd da 3b
       0.028983168 -0.021328196 0.033619475 0.006677377
000350 73 59 11 3c e6 4e b2 3c dc f9 dd bc 92 26 1a 3c
       0.008871424 0.021766137 -0.027096681 0.00940861
000360 be d3 aa bc 65 c7 20 bd ca 27 1d 3c 1d 0c 9f bd
       -0.02085292 -0.039252657 0.009592006 -0.07765982
000370 60 0a bb bc 7e 93 67 bb 47 77 14 3c 43 d2 22 3c
       -0.022832096 -0.0035335715 0.009061641 0.009937826
000380 6e 86 a6 bc 8e 9a 0d 3b f8 d4 8a 3c f7 79 34 bc
       -0.020327773 0.0021607014 0.016947255 -0.011015407
000390 f1 f4 52 3c e2 91 ed 3b 05 00 09 bd 6d 81 c0 3c
       0.012875781 0.0072500566 -0.033447284 0.023499215
0003a0 84 64 0f 3d 6e 54 23 bb b5 8b c0 ba 21 cb cf 3b
       0.03500797 -0.002492215 -0.0014690073 0.0063413535
0003b0 8e 92 76 bd 60 2f f7 bc 4b 68 1a bd 92 1b df 3a
       -0.06019836 -0.030173957 -0.037697118 0.0017021766
0003c0 ac e3 6f bc 06 32 6b 3c ef 2b 58 3c d1 9a 64 bd
       -0.014641684 0.014355188 0.013194068 -0.055811707
0003d0 ab 5e 36 3d 0d 09 c2 b9 74 86 c2 bc 2a 08 25 bd
       0.044523876 -0.00037009307 -0.023745753 -0.04029099
0003e0 56 60 9c 39 bc 3b 9e 3c 0d 53 e7 3c 13 82 09 3d
       0.00029826415 0.019315593 0.028237844 0.033571314
0003f0 ef 2e 31 bc fb 46 12 3b a9 b4 ea bb 7b 0e 26 3c
       -0.0108144125 0.002232014 -0.0071626497 0.010135288

gru.bias_hh_l0 f4 [384]
000000 01 ab 51 bc 29 15 4e 3b 17 0d 0c 3c 94 8e fa 3c
       -0.012797118 0.0031445718 0.008548043 0.030585565
000010 84 ad 65 3b a5 b7 59 3c 08 6f 07 3c 77 67 c0 3c
       0.003504605 0.013288413 0.008266218 0.023486836
000020 e4 b9 72 3c e0 13 31 3a 6e 51 7f bb 42 06 d8 bc
       0.014814828 0.0006754976 -0.0038958448 -0.026370171
000030 81 d6 bf 3a 5f e1 4d ba cc 6e c4 3c ab 52 b0 3c
       0.0014636071 -0.00078537123 0.023978613 0.021523794
000040 a6 40 78 3b 2c c0 3c 3c e2 c5 97 3a fb af 06 3d
       0.003788033 0.011520427 0.0011579359 0.03288267
000050 69 87 9a bb c0 c9 cc 3c ee 0c 81 3c 0d db 38 ba
       -0.004715849 0.024998546 0.015753236 -0.0007051684
000060 39 0c bb 3c b0 40 b3 3c b6 55 b4 3c f4 85 4a b8
       0.022832977 0.021881431 0.022013526 -4.8285307e-05
000070 21 c9 40 3d 79 26 d5 3c 32 d7 d1 3c 51 02 48 bc
       0.04706681 0.026019322 0.025615308 -0.0122075835
000080 cf 09 a7 3c 7a 8b 37 3d b4 d0 b3 3c 39 ac 4e 3c
       0.02039042 0.04481075 0.021950103 0.012614303
000090 6d bd 0e bb 66 5d 20 3d f6 c4 95 3c 45 55 1b 3d
       -0.0021780387 0.03915157 0.018282395 0.037923116
0000a0 4f a0 f9 3c d2 7b 0e 3c 26 8a 8c 3c 6f cb d0 3c
       0.030471949 0.008696513 0.017155718 0.02548763
0000b0 fc 0d 84 3c bf c4 ec b9 fd 68 dc bc cb 37 69 b5
       0.01611995 -0.00045160015 -0.026905531 -8.6880453e-07
0000c0 87 4d 58 3d 24 b3 fd bc 69 6b 84 3b 81 cb b0 3c
       0.05280831 -0.03096921 0.0040411246 0.021581413
0000d0 d9 13 d7 bb 94 08 b4 3c 32 6e be 3c c4 55 5f bc
       -0.0065636453 0.021976747 0.023245905 -0.013631288
0000e0 ac fb c2 3c 5c 6f a0 3b 9c eb 56 3d 11 8f 8e 39
       0.023801647 0.0048960876 0.05247079 0.00027190943
0000f0 53 6e 2f 3d 52 97 a6 3a 08 86 ca 3c bb 5b ab 3c
       0.042829823 0.0012709892 0.024722114 0.020917764
000100 94 d6 2e 39 02 4e f5 3c 5b 9e b4 3c bd 7a a7 3c
       0.0001667387 0.029944424 0.022048166 0.020444268
000110 b1 ff aa 3c 10 18 60 3c 5b fe a7 3c 10 e3 cc 3c
       0.020873876 0.013677612 0.020507028 0.025010616
000120 56 9f 23 3d a9 25 da 3c 85 a4 77 3c ee 6c 48 bc
       0.039946876 0.026629286 0.015114908 -0.012233002
000130 f4 c8 22 3c 94 3e 05 3c 2e cb 7b 3c 45 de e9 3a
       0.009935606 0.008132596 0.015368266 0.0017842731
000140 1d 2d 8d 3c 53 8b 67 bc 67 67 fe 3c ba 1d cb bb
       0.017233426 -0.014132339 0.031055165 -0.006198612
000150 d1 1a d1 3c b6 ce 8c 3c 39 35 87 3c 55 d7 ac 3c
       0.025525482 0.017188411 0.01650487 0.021098772
000160 fc 1a 72 3c 78 bb 26 3d b0 af 1d bc 86 be 13 3d
       0.014776941 0.040706128 -0.009624407 0.03607037
000170 63 fd 34 bb c8 50 ce 3b 80 10 f2 3b 25 df 85 bc
       -0.002761685 0.006296251 0.007387221 -0.016341755
000180 ec b0 d4 3c 5e f5 bd bc ff 49 0b 3d f0 bd 11 3c
       0.02596327 -0.02318829 0.034006115 0.008895382
000190 e8 22 05 3d f5 b3 96 3c 09 8f 75 3a b4 35 77 3c
       0.032503992 0.018396357 0.0009367322 0.015088487
0001a0 64 aa c3 3c 4b f0 fc 3b 93 ec b6 3c 61 ff d0 3c
       0.02388496 0.007719075 0.022329604 0.0255124
0001b0 f6 1e 27 3d 35 c3 76 3c 13 bd fb 3a 15 c5 5a 3c
       0.04080101 0.015061189 0.0019206129 0.013352652
0001c0 c3 e7 2b 3d 82 33 bb 3c 57 6a 27 3c 7e 4c fb 3c
       0.041969072 0.02285171 0.0102182245 0.030676123
0001d0 95 c4 75 3c dc 77 38 3d 2b 58 52 3c 47 ca 8f 3c
       0.015000482 0.04503618 0.012838404 0.017552508
0001e0 86 85 03 3c 22 89 1f bc 59 80 a3 3a cb 87 c2 3b
       0.00802744 -0.009737285 0.0012474164 0.005936598
0001f0 e9 29 e6 3b 75 fb 16 3c 0c ec e0 3c ae b1 8c 3c
       0.007024039 0.009215225 0.027456306 0.017174568
000200 38 49 4f bc e6 18 db 3c 37 01 aa 3b 65 76 27 bb
       -0.012651734 0.026745271 0.005188133 -0.0025552746
000210 a8 15 e6 3c 80 7d 77 bc 7d 77 1b 3d a3 ac 08 bd
       0.028086498 -0.015105605 0.03795575 -0.033367764
000220 04 94 82 bc 10 7f 86 bc 69 bc f3 bc 91 8e dd 3b
       -0.01593972 -0.01641801 -0.029752927 0.00676138
000230 5a bf da bc e5 47 1a 3d 5f 45 73 3c f0 e0 19 b9
       -0.026702572 0.03766622 0.014848082 -0.00014675013
000240 4a 29 42 3c 5f 0e 15 bd 71 8a 8a 3c e5 ad 89 3c
       0.011850664 -0.03639066 0.016911717 0.016806552
000250 19 ee c1 ba c8 87 17 bc 07 cf c3 3b 11 9b 87 bd
       -0.001479569 -0.009248681 0.0059756073 -0.066213734
000260 cc 66 2f 3b 3a 73 cf 3c fa ce c3 bc a5 fd 52 3c
       0.0026764153 0.025323499 -0.023902405 0.012877856
000270 d1 f6 ea bc c6 50 60 3c e3 ac eb 3c 9d d4 0e bd
       -0.028682144 0.013691133 0.028768962 -0.034870733
000280 c1 f6 42 3a 2b f3 a1 3b c6 fd 8d 3b b4 1c f6 3c
       0.0007437282 0.004942318 0.0043332307 0.030042984
000290 ce 3c 10 3d fc cd 9a bc 46 c9 48 3c c7 01 80 bc
       0.035214238 -0.01889705 0.012255019 -0.015625848
0002a0 d6 30 c9 3b b2 1b 8f 39 36 f9 35 3b 25 5a 4a bc
       0.006139855 0.0002729572 0.002776695 -0.012350594
0002b0 f3 fd 91 bc 2a 1d 83 3c 15 f7 0d 3d 83 f8 2a bb
       -0.017821288 0.016005117 0.034659464 -0.0026088066
0002c0 ae 78 53 bd 68 54 00 bd 8e ba a4 3c a2 cf 0b bd
       -0.05162876 -0.031330496 0.020108487 -0.03413356
0002d0 cd da 45 3c 6c 05 96 bc 70 7d 23 bc ef a0 21 bd
       0.012076092 -0.018313132 -0.009978637 -0.03946012
0002e0 47 85 78 ba 27 31 81 3c 9f 67 a3 bd 39 67 17 3c
       -0.0009480309 0.015770508 -0.079787485 0.009240919
0002f0 63 53 66 bc 5e fe c9 bc 8a 47 4e bc d0 d2 f1 bc
       -0.014057967 -0.024657425 -0.012590298 -0.029519469
000300 60 75 0b 3d 6f 2c e7 3b bc ff 90 bc 99 ff a2 3c
       0.034047484 0.0070548574 -0.017700069 0.01989727
000310 71 de 18 bd 70 b6 46 3c 36 95 3f bb 47 2a 2a bd
       -0.03732151 0.012128457 -0.0029233224 -0.041544225
000320 3d 5a 87 bd ad 03 2e 3c 31 04 93 3c cf 63 9b bd
       -0.066090085 0.010620994 0.017946335 -0.07587396
000330 25 c7 ed bb 93 4b 47 3c bc 7a 5d bb dd c3 c5 3c
       -0.007256406 0.012164014 -0.003379508 0.024141246
000340 1c 6e ed 3c 78 b8 ae bc 93 b4 09 3d e6 cd da 3b
       0.028983168 -0.021328196 0.033619475 0.006677377
000350 73 59 11 3c e6 4e b2 3c dc f9 dd bc 92 26 1a 3c
       0.008871424 0.021766137 -0.027096681 0.00940861
000360 be d3 aa bc 65 c7 20 bd ca 27 1d 3c 1d 0c 9f bd
       -0.02085292 -0.039252657 0.009592006 -0.07765982
000370 60 0a bb bc 7e 93 67 bb 47 77 14 3c 43 d2 22 3c
       -0.022832096 -0.0035335715 0.009061641 0.009937826
000380 6e 86 a6 bc 8e 9a 0d 3b f8 d4 8a 3c f7 79 34 bc
       -0.020327773 0.0021607014 0.016947255 -0.011015407
000390 f1 f4 52 3c e2 91 ed 3b 05 00 09 bd 6d 81 c0 3c
       0.012875781 0.0072500566 -0.033447284 0.023499215
0003a0 84 64 0f 3d 6e 54 23 bb b5 8b c0 ba 21 cb cf 3b
       0.03500797 -0.002492215 -0.0014690073 0.0063413535
0003b0 8e 92 76 bd 60 2f f7 bc 4b 68 1a bd 92 1b df 3a
       -0.06019836 -0.030173957 -0.037697118 0.0017021766
0003c0 ac e3 6f bc 06 32 6b 3c ef 2b 58 3c d1 9a 64 bd
       -0.014641684 0.014355188 0.013194068 -0.055811707
0003d0 ab 5e 36 3d 0d 09 c2 b9 74 86 c2 bc 2a 08 25 bd
       0.044523876 -0.00037009307 -0.023745753 -0.04029099
0003e0 56 60 9c 39 bc 3b 9e 3c 0d 53 e7 3c 13 82 09 3d
       0.00029826415 0.019315593 0.028237844 0.033571314
0003f0 ef 2e 31 bc fb 46 12 3b a9 b4 ea bb 7b 0e 26 3c
       -0.0108144125 0.002232014 -0.0071626497 0.010135288

gru.weight_ih_l0_reverse f4 [384, 29]
000000 7d 04 60 3b 28 64 86 bb 97 25 10 3d eb 7b 40 bc
       0.0034182363 -0.004101295 0.0351921 -0.011748294
000010 45 74 ac 3d c9 86 20 3d 31 76 f4 bd 0d 1a 4b 3d
       0.08420614 0.03919104 -0.11936606 0.04958539
000020 11 4f 30 bd f7 4c 85 3d 50 95 75 3c 64 98 ba 3d
       -0.043044154 0.065088205 0.014989212 0.091110975
000030 e6 22 52 3c f4 1c ba 3d 49 d6 46 bd 3d ff 92 3d
       0.012825703 0.090875536 -0.048544202 0.07177589
000040 5e 65 fc 3c 58 17 91 bd 73 0e 13 be c6 27 ec bd
       0.030810054 -0.070845306 -0.1436098 -0.11531024
000050 16 a4 87 3d 78 c3 dd 3c 12 0e 27 3d 7f 3c b9 bc
       0.06623094 0.027070746 0.040784903 -0.022611855
000060 6c 9d 52 3c 44 f7 d6 bd 27 67 b3 bd 63 2b 64 3d
       0.012854915 -0.10496381 -0.08759909 0.05570544
000070 d4 8d da bd 82 40 bf 3b ba 33 72 bd fe 3d 1a be
       -0.10671583 0.0058365474 -0.05913136 -0.1506271
000080 b4 a5 1e bd f4 d4 9b bd ed 4a f4 bd 72 b6 27 bd
       -0.038732246 -0.07608977 -0.119283535 -0.040945478
000090 68 43 93 bd 01 31 1f 3d c1 f6 dc bd 4d f3 40 3d
       -0.07190591 0.038865093 -0.10789252 0.04710703
0000a0 45 a4 d5 bd 25 2f bd bd f6 a6 d3 3c 6c d1 dd bd
       -0.104317226 -0.09237508 0.02583645 -0.1083096
0000b0 67 da 05 be 22 8f ae bd 64 2b 2a bd 8a c8 8b bc
       -0.13071595 -0.08523394 -0.041545287 -0.017063398
0000c0 fa cd 91 bd a2 6c 3d bb 59 63 5f 3c 6b cf 13 3e
       -0.07119365 -0.0028903862 0.013634526 0.14434592
0000d0 ce 73 87 3d 50 2c 18 3d d1 e9 f3 3c 9d ae ef bd
       0.06613885 0.037151635 0.029774578 -0.11703227
0000e0 3b dc 4e bc 94 0e cb bd e5 a9 5c 3d 5e b7 81 3d
       -0.012625749 -0.0991489 0.05387296 0.06333803
0000f0 8a ca b1 bd c4 f6 3a bd 15 89 b6 3d 77 31 ad bc
       -0.086812094 -0.04564549 0.08912865 -0.02114175
000100 b8 67 66 bd 7c 2d a2 3d ff 10 ec bb 2d 72 de 3d
       -0.056251258 0.07918832 -0.0072041745 0.10861621
000110 4e dd 03 3e 3a c4 f3 bc ed 0c 79 bd e3 55 df 3d
       0.1287739 -0.029756654 -0.060803343 0.109050535
000120 8e 8e 5c 3d dc 3a e4 3d c3 b1 05 3e 08 7e 00 3e
       0.05384689 0.11144039 0.13056092 0.12548077
000130 ea 08 a1 3d bb 41 94 3d e4 ab b4 3d ff 4a 2b 3d
       0.07863028 0.072390996 0.08821848 0.04181957
000140 3f a2 f1 bc 3b 2b 5e bd ee 09 9e bd ef e8 3d bd
       -0.02949631 -0.054240447 -0.07716738 -0.04636472
000150 6d e5 5d 3d b2 d1 45 3b 8e e1 92 ba 76 6e a2 bb
       0.054173876 0.0030184803 -0.0011206137 -0.0049570156
000160 99 d4 12 3e 39 9f fd 3d 0a c7 80 3d df 66 4f 3d
       0.14338912 0.12383885 0.06287964 0.050635215
000170 be bd 99 bd 53 a6 b9 3c f0 03 82 3d c0 d7 8a bd
       -0.075068936 0.022662317 0.06348407 -0.06779432
000180 c8 d4 4a 3d f1 90 c3 bd b1 49 c9 bd d4 70 a9 3d
       0.04951933 -0.0954913 -0.09828509 0.082734734
000190 e7 a3 e1 3d 4b 8c 4d bd a3 cc 4b 3d c3 8c 72 3d
       0.1101759 -0.050182622 0.049755704 0.059216272
0001a0 cf 6f 04 3e 25 f9 9a 3d 50 a2 8e bc c4 ca 83 3d
       0.12933277 0.07567052 -0.017411381 0.06435159
0001b0 20 b6 e4 bd 01 6b 12 be 71 fe 79 3d 21 51 6f 3c
       -0.1116755 -0.14298631 0.06103367 0.014606745
0001c0 06 8d a7 bd d8 a1 ed 3d 32 4a 05 3d e0 51 db 3d
       -0.08181195 0.11603135 0.03254146 0.10708976
0001d0 db e4 4c 3c 07 ce 6d 3d 28 95 fa bd 3f fc 47 bd
       0.012505735 0.05805781 -0.122354805 -0.048824545
0001e0 0b 6d 3a 3c 4a d0 ad bc 0c fb e5 3c 40 65 3f bd
       0.011378537 -0.021217484 0.02807381 -0.04672742
0001f0 8a 80 e6 bd 58 11 f4 3d 67 fa 2f 3d 18 58 ab 3c
       -0.11254986 0.119173706 0.04296341 0.02091603
000200 d5 4d 06 3d 94 ad e6 3b ea 8a 9a 3d 62 00 f7 bb
       0.03278907 0.007039735 0.07546027 -0.0075378874
000210 61 69 0d 3d 95 f1 cf 3c 84 1f 06 3d 1b 25 7f bd
       0.034524325 0.02538375 0.0327449 -0.062291246
000220 07 67 ac bb 82 13 e8 3d 1e b5 50 3c f5 16 b2 bc
       -0.0052613053 0.11331846 0.012738494 -0.021739462
000230 d5 12 81 bd 8d 2f 83 3d 0f b9 72 3c c9 4e 9b 3c
       -0.0630242 0.06405554 0.014814629 0.018958466
000240 78 8e 91 bd 57 58 12 3e 73 c1 8e bd 91 54 45 bd
       -0.07107252 0.14291511 -0.06970491 -0.048176352
000250 44 04 4a bd 77 86 21 3e e5 3c 7f bd fa f8 b0 3c
       -0.049320474 0.1577395 -0.062313933 0.021603096
000260 6f 63 ba 3c f1 b5 0f bc 79 30 dd 3d d4 da 33 bd
       0.022752492 -0.008771406 0.10800261 -0.043909863
000270 94 ae e0 3d 67 8e a9 3d 92 9f 66 bd 58 66 99 3d
       0.10970798 0.08279114 -0.05630452 0.07490224
000280 04 d0 31 bd c2 1c e0 3d cd df 99 bc 08 17 05 bd
       -0.04341127 0.10942985 -0.018783474 -0.032492667
000290 88 58 bb bc 8c a9 1b bd 93 69 81 bc c1 5b 99 3d
       -0.022869363 -0.03800349 -0.015797412 0.07488204
0002a0 a6 33 ae 3c 6f a1 29 be 1b a8 6d 3d 92 0f b1 bd
       0.021264862 -0.16565488 0.058021646 -0.08645548
0002b0 30 81 71 bd 64 9b 18 3d bd 15 53 3c b8 7b f8 bc
       -0.058961093 0.037257567 0.012883601 -0.030332431
0002c0 2c e9 a6 bd a3 26 cc 3d c9 62 c2 3d cf 04 97 3b
       -0.08149943 0.09968307 0.09491498 0.0046087275
0002d0 48 b5 aa 3d 46 87 e8 3b af e0 09 3e 98 4a 15 3d
       0.08335358 0.007096204 0.13464616 0.03644809
0002e0 c4 fd cb 3d 1b 48 e8 bc 68 bd 0c 3e f4 b2 df 3c
       0.09960511 -0.028354695 0.13744128 0.027307011
0002f0 92 4b 88 3c 80 a4 62 bd b8 d9 fc 3d 16 9a ad bd
       0.016637597 -0.05533266 0.12346214 -0.08476655
000300 f1 fe 9a 3d 43 51 ab bb 6f be 87 bd 35 52 be bd
       0.075681575 -0.005228193 -0.06628119 -0.092930235
000310 48 1f 13 3d 3a 5d f8 3d f3 dc f7 bd 0f 2c 9b bd
       0.035918504 0.121271566 -0.121026896 -0.07576763
000320 04 93 2c bd 50 5c f7 bd c7 8d 9f bd fb 30 2a bb
       -0.042132393 -0.12078154 -0.07790714 -0.0025969136
000330 83 ad bc bd 49 6b 83 bd 36 13 ad 3d 59 35 11 be
       -0.09212782 -0.064169474 0.0845093 -0.14180507
000340 e4 fe 1d be c8 c5 80 3d 78 89 00 3a f4 75 49 3c
       -0.15429264 0.06287724 0.0004903297 0.012296189
000350 e5 9c da bc 5b f3 43 3d 8d c4 04 bd 5c e0 11 be
       -0.026686141 0.047839504 -0.032414008 -0.14245743
000360 eb 85 ed 3c 70 d1 32 3d a0 14 10 be 64 6a aa bd
       0.028994521 0.043656766 -0.14070368 -0.08321074
000370 c8 2c 9c 3d 3e d9 be bd 6c 54 43 3d 84 1f 31 bd
       0.07625729 -0.093187794 0.047687933 -0.043242946
000380 ae 1a 2b bd d2 df ff 3d 3a 86 29 bd d7 9b c0 3b
       -0.04177349 0.12493862 -0.041387774 0.0058779526
000390 3e f5 bd 3b a9 70 a1 3d 38 17 18 bd 2a a0 ec 3d
       0.0057970574 0.07882816 -0.037131518 0.11553986
0003a0 22 32 98 3c e0 6d 5f 3d 7c 56 0e 3e 84 8b 33 3d
       0.018578593 0.054548144 0.13900179 0.043834224
0003b0 c6 1d 75 bd 2d cb 88 bd e9 e5 07 3e 8c 7d 01 3e
       -0.059842847 -0.06679378 0.13271298 0.12645549
0003c0 b6 cc 0d 3e 4b c2 bc 3b 4c 02 02 3c 27 c3 8a bd
       0.13847622 0.005760466 0.007935118 -0.067755036
0003d0 1a 62 0d 3e 80 c0 eb 3d 0a 3c 7a bd 3e bb 0c 3d
       0.13806954 0.11511326 -0.061092414 0.034358256
0003e0 fa e4 e2 3d fd 10 f9 3d 53 89 2d bd a9 30 45 bd
       0.1107883 0.121614434 -0.04236729 -0.04814211
0003f0 f9 12 d7 3d e0 6c 01 3c 16 41 0f 3e c7 4c 0f 3e
       0.105016656 0.007899493 0.13989672 0.13994132

gru.weight_hh_l0_reverse f4 [384, 128]
000000 00 c7 ff 3c 70 b4 a7 3d 7b ad 05 bd 40 27 a8 ba
       0.03122282 0.081887126 -0.032636147 -0.001282908
000010 68 2f ca 3b 8e 40 9d bd df fe 44 bd 82 6e 00 3c
       0.006170202 -0.076783285 -0.048094627 0.007838847
000020 04 27 ec bc c8 2c fa 3c 5c d3 45 bc d2 e1 41 bd
       -0.028827198 0.030538931 -0.012074318 -0.0473345
000030 74 85 09 3c e6 66 67 3d 3e 31 98 bd 38 08 1d bc
       0.008393634 0.056494616 -0.07431267 -0.009584479
000040 d0 46 35 bd 30 ff f6 bc ed c6 96 bc 88 ba 81 3d
       -0.044256985 -0.03015098 -0.018405402 0.06334406
000050 5b eb 22 bd 0f c9 ca 3c fe cd b4 bd 70 cd b1 bd
       -0.039775234 0.024754075 -0.088283524 -0.08681762
000060 52 0a 95 3b 1c 1a 80 3c d8 5c 73 3b 90 7b a1 bc
       0.0045483494 0.01563745 0.0037134197 -0.01971224
000070 70 e3 91 3d 50 d2 92 3b 9e 4f ec bc 5b 1f 8b bd
       0.071234584 0.0044806376 -0.028846558 -0.0679309
000080 5d e0 c0 3d 49 d3 22 3d 29 c2 12 bd 2d a4 fa 39
       0.09417794 0.03975228 -0.035829697 0.00047806036
000090 35 08 d5 3c 9b 40 f1 bd d4 fe f8 bb cb ae 9e bd
       0.02600489 -0.11779901 -0.0075987373 -0.07748183
0000a0 26 ff 3c 3c e9 37 e9 3c e1 2e 44 3d df 38 06 3d
       0.0115354415 0.028469043 0.04789627 0.03276908
0000b0 98 40 20 3e 84 83 a2 bc d2 0a 10 bd d0 af 7e bd
       0.1564964 -0.019838102 -0.03516657 -0.062179387
0000c0 7b 3e a9 bd 13 eb 10 3c 6f a9 03 be d0 b0 3b bd
       -0.0826387 0.008845109 -0.12857603 -0.04582292
0000d0 63 fb 50 3d ec b8 88 bd 44 b5 c3 bc 25 74 30 3d
       0.05102099 -0.06675896 -0.023890145 0.043079514
0000e0 62 5e 20 ba 9f 90 ac bd b2 ba ab 3c 42 0b fa 3a
       -0.000611758 -0.08426022 0.020963047 0.0019076841
0000f0 f2 00 05 3d 95 cb 11 bd 91 b2 d9 3c bb f2 7e bc
       0.032471605 -0.03559454 0.026574405 -0.015560801
000100 fa 4a a3 3c d7 09 5b bd e8 29 ae 3d 8c 7f 80 3d
       0.019933213 -0.05347618 0.08504087 0.06274328
000110 50 d4 49 bd e9 ee ae bc 3f 42 38 bd 53 40 38 3c
       -0.049274743 -0.021354156 -0.044985052 0.011245805
000120 77 28 a1 bd fd d7 b5 3c 35 40 74 bd b3 41 cd 3c
       -0.07869046 0.022197718 -0.059631545 0.025055742
000130 b0 72 85 3d 68 64 45 3d 84 13 a1 3c 8e b0 81 3c
       0.065160155 0.048191458 0.019662626 0.015831258
000140 f2 6a 23 be 08 8a 99 bd 56 3f c9 3b 9b a0 33 3b
       -0.15958765 -0.074970305 0.0061415834 0.002740896
000150 65 aa c8 bc 06 0f 8d 3d ed 11 ba 3c 37 a5 0d bd
       -0.024495313 0.06887631 0.022713626 -0.03458139
000160 6c 7b 7e bb e8 34 bc bd 0d 98 5e bc 4d 7a 68 bd
       -0.003883089 -0.091897786 -0.013586056 -0.05675726
000170 8d 89 2e bd 2f b2 11 bd ec fa 80 bc 07 50 0d bd
       -0.042611647 -0.03557032 -0.015744649 -0.03450015
000180 a4 97 fd bc 2e 75 04 3d dd c7 90 3d c4 0e ac 3d
       -0.030956097 0.032338314 0.07069371 0.08401254
000190 44 41 00 3d 77 00 68 bd f0 71 11 bd a7 51 9e 3c
       0.031312242 -0.05664107 -0.03550905 0.019326044
0001a0 91 3f 12 bc 9c 9b 21 bc b3 9c 69 3d 2b 56 05 bd
       -0.008926288 -0.00986376 0.057034206 -0.03255288
0001b0 4d f8 35 bd 51 99 2c 3b c6 18 4e bd 54 72 86 3c
       -0.04442625 0.00263365 -0.050316595 0.016411938
0001c0 e3 dd 06 3c 17 30 71 bd fc 23 aa 3d ea 65 ad 3b
       0.008231613 -0.058883753 0.08307645 0.00529169
0001d0 df 95 36 3d 91 ac 45 3d 94 35 2d 3b 41 53 91 3d
       0.044576522 0.048260275 0.002642964 0.070959575
0001e0 92 a8 83 3c 6b d4 dd bc b0 10 8b bd 42 87 c7 3d
       0.016071592 -0.027078828 -0.06790292 0.09742595
0001f0 0d 1f bd 3d 5a 11 67 bd e4 b0 f2 bb 5b e0 ae 3c
       0.09234438 -0.056413032 -0.007406341 0.021347215
000200 fe 02 6c 3d 40 03 d6 3c 3c 1a 47 bd 1b cc a6 3c
       0.05762004 0.026124597 -0.048609003 0.020360997
000210 9e 46 c6 bd d4 ea 76 bd 56 b9 91 bb 51 ad c5 3d
       -0.09681438 -0.060282543 -0.0044471426 0.09652198
000220 e7 0d 4a bc f8 d3 45 39 a8 6f 78 3d c2 d6 b3 3c
       -0.012332416 0.00018866349 0.06065336 0.02195299
000230 0e e5 f6 3b 42 7b 0a bd 44 32 a2 3d f7 17 7c 3d
       0.0075346297 -0.033808954 0.07919744 0.061546292
000240 38 f5 23 3d 25 27 0a bd 98 0c 2b bd 95 4c 83 bc
       0.04002878 -0.033728737 -0.041760057 -0.016027728
000250 d4 e8 8f 3c 05 8d 64 bc c7 ca b5 3c 88 b8 28 bc
       0.017567076 -0.013949637 0.022191418 -0.010297902
000260 65 bb eb bd f7 a2 e5 bd e7 21 2b 3d 6a 28 d6 bc
       -0.11510352 -0.11212724 0.04178038 -0.026142318
000270 cc 19 f1 bc e3 d0 2a bd 70 49 bd bc c0 fb 26 3d
       -0.029431246 -0.041703116 -0.023106307 0.04076743
000280 cd cf f8 bc 73 8a bf 3d fc 10 e8 bc 5c 27 9d bc
       -0.030372525 0.09352579 -0.028328411 -0.019183807
000290 78 b7 43 3d cd e1 c0 3d 03 39 e0 bd ec a0 9a 3c
       0.04778239 0.09418068 -0.10948374 0.018875562
0002a0 72 ab 37 bd d1 93 02 3c 35 c8 00 3d bd e2 e8 3c
       -0.044841237 0.0079698125 0.031440932 0.02842843
0002b0 e0 e4 55 bd dd 01 40 3d d8 b5 a6 bd ba 9a 24 3b
       -0.052220225 0.046876777 -0.08140153 0.0025116638
0002c0 10 73 d9 bc b3 1e 4a 3d 04 f5 4b 3d 2d f6 60 3c
       -0.026544124 0.049345683 0.049794212 0.013730568
0002d0 a9 4b 93 bc d0 d6 fa ba 89 55 2b bd 71 41 e2 bc
       -0.017980414 -0.0019137505 -0.04182962 -0.027619096
0002e0 d3 0e b4 3c 24 45 94 bd e8 79 2e bd dd 78 2b 3d
       0.021979725 -0.0723975 -0.042596728 0.04186331
0002f0 bc ca 11 bc cd a0 28 be c8 cb ff bb 0a 05 01 3d
       -0.008898433 -0.1646759 -0.007806275 0.031498946
000300 45 a0 25 bd a7 70 c9 3c 3b c9 2c bd d1 63 c3 bd
       -0.040436048 0.02458985 -0.042184096 -0.09540523
000310 c2 5a 0c bd 00 6a 73 3d de ba 3b bc 0a 82 6b 3c
       -0.03426624 0.05942726 -0.011458127 0.014374265
000320 34 4c 7d 3d 2d e3 be 3c c9 81 8a 3d 3c a4 ee 3c
       0.06184025 0.023301685 0.06763036 0.029131047
000330 01 44 98 3b 06 13 41 bd 4d 7c 31 bd 68 2c 40 bc
       0.0046467786 -0.047137283 -0.043331433 -0.011729337
000340 08 08 06 bc f4 55 9e 3d 46 f4 62 bd 34 74 bf 3c
       -0.008180626 0.07731238 -0.05540874 0.02337084
000350 c1 04 47 3d 74 11 3a 3c 7c 98 a1 3d c6 cf 83 bc
       0.048588518 0.0113567 0.07890412 -0.016090285
000360 4d 65 a8 bc 80 f9 a6 bb d1 f1 94 bc 05 e0 6e bc
       -0.020556116 -0.0050956607 -0.018181713 -0.014579778
000370 36 c8 79 bd 40 a7 46 bc a8 0e 5b 3d 30 0d c6 bb
       -0.06098195 -0.012124836 0.053480774 -0.0060440525
000380 c0 0c b2 bd 17 cc 86 3d c3 61 8b bc 43 44 8b bc
       -0.08693838 0.06581896 -0.01701439 -0.017000323
000390 d9 60 70 bc 19 a2 72 3d 1c e4 f7 3a 11 f3 80 bd
       -0.014671528 0.05923662 0.0018912586 -0.06296361
0003a0 6e 12 7a bd 9c 20 6a bc 32 0f d1 bc 15 b2 75 bc
       -0.061052732 -0.014290001 -0.025519941 -0.014996071
0003b0 1d b1 94 bd e3 b4 37 bd 8e 29 53 3d 22 92 80 3d
       -0.07260344 -0.04485024 0.0515533 0.062778726
0003c0 d4 fc 24 bd f6 66 50 bd 52 fc 25 3d 88 cc 1e 3d
       -0.04028018 -0.05087944 0.040523835 0.038769275
0003d0 a9 ee 1f 3b 76 e4 b0 bb 58 fe 57 bd 02 62 be bd
       0.0024403727 -0.0053983284 -0.052732795 -0.09296037
0003e0 d8 49 86 bc 41 75 ea bc 47 36 5a bd 93 e9 88 bb
       -0.016392633 -0.028620364 -0.05327442 -0.004178235
0003f0 6d 5e ff 3d 95 f8 ab ba b4 2e ad 3c 35 a8 9f 3c
       0.12469182 -0.0013120348 0.021140434 0.019489387
