ckpt/model_lr_0.001_emb_16_hid_64_layers_3.pth (torch, 849554 bytes, 34 tensors)

class_embedding.weight f4 [8, 16]
-0.027952919 0.07437484 0.011084336 -0.0035004357 0.056566566 0.030966667 -0.048829384 -0.1560334
0.019203207 -0.003729693 0.050316572 0.04507869 -0.0011205763 -0.0028683788 0.02888674 0.019144883
-0.04080037 -0.0052024135 0.0228522 -0.041615732 0.060745887 0.045359027 -0.026891945 -0.004505756
-0.012380558 -0.035250172 0.04640995 0.024449838 0.038056836 -0.030996336 0.035053585 0.020407356
0.06987499 -0.039263785 -0.027527293 0.03241875 -0.084623724 -0.03150888 0.078247294 0.14102481
0.04618435 0.043637875 -0.088454835 -0.022736609 -0.00401016 0.03744644 -0.055475134 -0.022710651
-0.05382269 0.07530265 0.026964199 -0.04645034 0.0142056 0.025304297 -0.036118217 -0.049524263
-0.021259192 -0.02176401 0.031497627 0.031713236 -0.00063879555 -0.026653564 0.010609647 0.02949905
-0.007963832 -0.029720562 0.03143694 -0.023672897 0.01401446 -0.004956214 0.023649162 0.118489176
-0.013314143 -0.015448178 -0.023491325 -0.000864216 0.025707684 0.0029762029 -0.0025084966 -0.036497142
-0.025261847 -0.039134417 -0.03270812 0.00064840703 0.04793388 0.010117597 -0.031217521 -0.04590382
-0.09006845 0.041218944 0.0051056803 -0.015004472 0.02099437 -0.0058318186 0.0030013293 0.038007423
0.044806194 0.0067085735 -0.030633494 0.025204554 -0.026381183 -0.030703574 0.034938548 0.002233932
0.020838873 0.018118372 -0.020212857 -0.017444294 -0.038259793 0.017656652 -0.041422915 -0.0025345073
-0.0048603876 -0.008747716 0.007942462 0.0018565849 0.0039914344 -0.017379334 -0.0058755325 0.003558287
-0.0064063566 -0.0032039855 -0.00089855865 -0.008798239 -0.004161084 -0.0027288932 -0.0023143827 0.0011079841
00000000: 85fd e4bc d651 983d 139b 353c 9167 65bb
00000010: 58b2 673d cfad fd3c 5201 48bd 38c7 1fbe
00000020: 0b50 9d3c dd6d 74bb c018 4e3d 6fa4 383d
00000030: 4de0 92ba 69fb 3bbb e2a3 ec3c bbd5 9c3c
00000040: 4a1e 27bd 0279 aabb 8934 bb3c 4275 2abd
00000050: aed0 783d 63ca 393d 7f4c dcbc 05a5 93bb
00000060: d3d7 4abc 7c62 10bd 5c18 3e3d 074b c83c
00000070: 7ce1 1b3d 07ec fdbc 5994 0f3d 542d a73c
00000080: 9e1a 8f3d 10d3 20bd eb80 e1bc 86c9 043d
00000090: 344f adbd 750f 01bd 1e40 a03d cf68 103e
000000a0: cd2b 3d3d a1bd 323d cf27 b5bd 2042 babc
000000b0: a967 83bb 7061 193d e539 63bd b00b babc
000000c0: 2e75 5cbd 4738 9a3d 06e4 dc3c b642 3ebd
000000d0: 9bbe 683c f54a cf3c b2f0 13bd f4d9 4abd
000000e0: c227 aebc 704a b2bc a803 013d bde5 013d
000000f0: d874 27ba 9358 dabc 16d4 2d3c fea7 f13c
00000100: bb7a 02bc 8978 f3bc 05c4 003d aaed c1bc
00000110: e89c 653c bd67 a2bb e3bb c13c 74aa f23d
00000120: 9023 5abc 5b1a 7dbc e170 c0bc 8e8c 62ba
00000130: ec98 d23c 660c 433b 9765 24bb 077e 15bd
00000140: eff1 cebc 694b 20bd f3f8 05bd dcf9 293a
00000150: 5156 443d 47c4 253c e3bb ffbc a505 3cbd
00000160: cf75 b8bd 32d5 283d 8d4d a73b 51d5 75bc
00000170: 63fc ab3c d718 bfbb f3b1 443b acad 1b3d
00000180: b386 373d 98d3 db3b 18f3 fabc c879 ce3c
00000190: 5a1d d8bc 1086 fbbc b91b 0f3d 2967 123b
000001a0: 49b6 aa3c fb6c 943c 6f95 a5bc 56e7 8ebc
000001b0: 4db6 1cbd afa4 903c 13ab 29bd fa19 26bb
000001c0: e343 9fbb 9552 0fbc 1a21 023c a758 f33a
000001d0: 94ca 823b 1b5f 8ebc 8a87 c0bb 2632 693b
000001e0: 6aec d1bb f5f9 51bb 408d 6bba 7d26 10bc
000001f0: b459 88bb 3bd7 32bb e6ac 17bb c739 913a

class_counts_projection.weight f4 [8, 5]
-0.5904415 0.15845808 0.20656085 0.25451714 -0.2133881 0.1326237 0.28870183 -0.7133243
-0.39664796 -0.39209938 -0.14144543 0.7026209 -0.17420171 -0.04441787 0.2581381 -0.45734504
0.08939594 -0.57242554 -0.1428603 -0.6477412 -0.3735807 0.09106367 0.61507344 0.5054947
0.3908342 -0.26783755 0.6625282 0.36732057 0.047307815 -0.2323588 -0.40991813 0.21887013
-0.1402117 -0.54446256 -0.58605963 0.031184757 -0.24065901 -0.62643397 0.46626493 0.18971506
00000000: 2d27 17bf d642 223e b084 533e 1250 823e
00000010: 6982 5abe 82ce 073e bad0 933e 6c9c 36bf
00000020: 7115 cbbe 40c1 c8be 12d7 10be f7de 333f
00000030: ef61 32be 83ef 35bd ad2a 843e 2129 eabe
00000040: 3815 b73d 7b8a 12bf f849 12be 5ed2 25bf
00000050: f845 bfbe 977f ba3d 7475 1d3f 1a68 013f
00000060: 6c1b c83e 0122 89be 739b 293f 7111 bc3e
00000070: d7c5 413d 77ef 6dbe cae0 d1be 7e1f 603e
00000080: a893 0fbe e661 0bbf 0108 16bf 2d77 ff3c
00000090: 516f 76be fa5d 20bf 47ba ee3e aa44 423e

class_counts_projection.bias f4 [8]
-0.027460648 -0.028531123 0.09046292 -0.023871707 0.020473069 0.05962704 -0.017925104 0.0045666075
00000000: 27f5 e0bc 1aba e9bc a044 b93d 998e c3bc
00000010: 23b7 a73c 7c3b 743d abd7 92bc 7ba3 953b

layer_norm.weight f4 [29]
1.0482507 0.98260826 1.0019504 1.0099226 1.048711 0.994035 1.0542952 1.1158566
1.0259808 1.0326637 1.0390756 0.9898819 1.0109634 1.0108005 1.0236517 0.9922024
1.0134822 1.0616543 0.9880937 1.0071554 0.9917749 1.0162452 1.0489179 1.0056493
0.98128814 1.0458475 1.0308257 0.9984179 1.0313336
00000000: 142d 863f 378c 7b3f e93f 803f 2545 813f
00000010: 293c 863f 1479 7e3f 25f3 863f 64d4 8e3f
00000020: 5753 833f 532e 843f 6e00 853f e668 7d3f
00000030: 4067 813f e961 813f 0507 833f fa00 7e3f
00000040: c9b9 813f 4ae4 873f b5f3 7c3f 78ea 803f
00000050: f6e4 7d3f 5314 823f f142 863f 1eb9 803f
00000060: b335 7b3f 55de 853f 19f2 833f 5198 7f3f
00000070: bd02 843f

layer_norm.bias f4 [29]
-0.01161579 0.0081344815 0.010260652 -0.007552313 0.018636538 0.013774363 0.0062639066 -0.004182462
0.0058442573 0.011045389 0.011770914 0.016288264 -0.0076748254 -0.0058064773 0.008365004 0.025038974
0.012055282 0.0059479037 -0.013451352 -0.0050722114 -0.015090334 -0.010275825 0.0056423447 0.028884405
0.009935023 -0.007185783 -0.003935869 -0.004549302 0.010343566
00000000: 2850 3ebc 7d46 053c 4b1c 283c 6579 f7bb
00000010: a7ab 983c dead 613c 7541 cd3b 090d 89bb
00000020: 2f81 bf3b b8f7 343c cbda 403c f76e 853c
00000030: 1a7d fbbb 4344 bebb 5f0d 093c 891e cd3c
00000040: 8483 453c a2e6 c23b 0f63 5cbc cb34 a6bb
00000050: 733d 77bc ef5b 28bc 6be3 b83b fd9e ec3c
00000060: 82c6 223c b776 ebbb 76f8 80bb 5012 95bb
00000070: 0f78 293c

gru.weight_ih_l0 f4 [192, 29]
-0.006564501 0.036632624 -0.017975532 0.174703 -0.012032079 -0.12797116 0.18599533 -0.04334022
0.059679326 0.045854874 -0.18007953 0.07300907 0.07518741 0.008134592 -0.11805452 0.18118198
-0.05917432 0.10738838 -0.14153245 -0.050958574 -0.09406434 -0.061802935 0.075402424 0.10411425
-0.10097306 -0.12684257 -0.124647655 0.076163806 -0.045142505 0.1943746 0.16677536 -0.19557507
0.19551043 -0.16206956 0.037922297 0.101415806 0.015617722 -0.096442714 -0.0064621763 -0.16414486
-0.16248195 -0.17014876 0.101245634 0.019386316 -0.06926416 0.06254638 -0.057511233 0.13457534
0.13298124 -0.015824066 0.06826885 -0.13304797 0.046323262 -0.13223512 -0.048374243 -0.036824387
0.05956402 -0.030806577 0.13580033 0.04315308 -0.119483195 0.13590665 0.056081682 -0.07715126
0.10919369 0.0925243 -0.23674515 0.12371568 -0.16587351 0.06673144 -0.14251655 -0.033631343
-0.044917107 0.121701114 -0.038773738 -0.015023033 -0.025956586 -0.098503314 -0.051212583 0.11867117
-0.14744318 0.16978256 -0.039785907 0.16178814 0.043284364 -0.14513503 0.048824754 -0.096735656
-0.07906042 0.0008613613 -0.106883034 -0.20254387 -0.03528631 -0.022432702 0.1294851 0.058047257
0.15011491 0.0853798 0.0160916 0.06483298 0.061210297 -0.016158544 0.052027795 -0.09663586
-0.11183435 -0.10132626 0.020554706 -0.1060231 -0.059024576 -0.10951868 -0.17610185 0.10084675
0.07480548 -0.06323618 0.043134406 -0.021646388 -0.039432414 -0.006687258 0.02132063 0.13281518
-0.017408995 -0.099012375 -0.014682539 -0.0981718 -0.1510517 -0.03241784 -0.05943775 -0.014854736
-0.123174325 -0.14691705 -0.0028606346 0.17501055 0.064355895 -0.16323489 0.07586653 0.17532082
-0.11278812 0.037314735 -0.05120053 0.15521404 -0.11198416 0.14927395 -0.116600364 0.1408493
0.025443416 0.023476817 0.10874943 -0.10668036 0.11179225 0.1773457 -0.025843028 0.08737117
0.11482881 -0.034365386 0.07247461 -0.017850557 0.06776854 0.13739623 -0.16938347 0.10980318
-0.060422238 -0.05130441 0.043246347 -0.12160858 -0.066718586 0.000539997 0.09989794 0.034025956
-0.15889359 0.06840025 -0.020395828 0.029777577 -0.009628234 0.09489631 0.16018806 0.08017062
-0.20224236 -0.13749759 0.026437223 -0.0103630535 -0.0747329 -0.04170084 0.105719976 -0.042938497
0.0072730025 -0.12476928 -0.051615544 0.051345292 -0.2161716 -0.08257002 -0.11176832 0.11117937
0.10074883 0.17472331 0.13977003 0.09506992 -0.081222676 0.03401478 -0.16596435 0.1638781
-0.10592542 -0.002778601 -0.023414569 0.12541059 0.12741102 -0.13127437 0.09191102 -0.111611985
-0.122321635 0.009462302 -0.1774296 0.07665556 0.07239338 -0.036373287 -0.13265574 -0.16879708
0.18060696 -0.14615533 0.10832371 0.14830497 -0.044161543 -0.102995075 0.05719738 0.05889774
-0.15642776 0.15054774 0.13052334 -0.054964107 0.04590279 0.060522743 0.0917814 0.007259603
0.13289738 0.08715949 -0.20928463 0.024598364 0.0326749 -0.017936917 0.084141314 -0.016223742
0.07622335 0.15980422 0.04650286 -0.088300854 -0.0958212 0.075374216 -0.12766704 -0.09205137
-0.13708074 -0.086902134 0.13276406 0.08319564 -0.10006868 0.1314194 -0.057452906 0.045928672
00000000: 071b d7bb 170c 163d 6c41 93bc 58e5 323e
00000010: 3222 45bc df0a 03be 8f75 3e3e 8485 31bd
00000020: 4f72 743d 52d2 3b3d c566 38be c785 953d
00000030: dbfb 993d f446 053c 91c6 f1bd c587 393e
00000040: c660 72bd 70ee db3d e2ed 10be f0b9 50bd
00000050: cea4 c0bd 1325 7dbd 966c 9a3d da39 d53d
00000060: f7ca cebd 05e3 01be 4547 ffbd c5fb 9b3d
00000070: 59e7 38bd 230a 473e 29c7 2a3e d544 48be
00000080: e333 483e 90f5 25be 6954 1b3d 17b3 cf3d
00000090: 79e1 7f3c c283 c5bd aac0 d3bb 9715 28be
000000a0: ab61 26be 7a3b 2ebe df59 cf3d 0dd0 9e3c
000000b0: 5eda 8dbd 5118 803d e690 6bbd 1ece 093e
000000c0: 3c2c 083e 79a1 81bc 8ad0 8b3d ba3d 08be
000000d0: 76bd 3d3d a568 07be 1224 46bd 2bd5 16bd
000000e0: 67f9 733d 135e fcbc 3e0f 0b3e 49c1 303d
000000f0: 9bb3 f4bd 1d2b 0b3e e8b5 653d 7b01 9ebd
00000100: f1a0 df3d 617d bd3d 526d 72be a55e fd3d
00000110: bfda 29be 7eaa 883d dcef 11be 05c1 09bd
00000120: 00fb 37bd 6f3e f93d 36d1 1ebd 2b23 76bc
00000130: e8a2 d4bc 1bbc c9bd 49c4 51bd df09 f33d
00000140: 58fb 16be 7bdb 2d3e 8cf6 22bd caab 253e
00000150: f24a 313d 479e 14be 77fc 473d 581d c6bd
00000160: 6eea a1bd facc 613a 7ee5 dabd a967 4fbe
00000170: 6188 10bd c9c4 b7bc be97 043e f6c2 6d3d
00000180: b9b7 193e 9bdb ae3d 88d2 833c 27c7 843d
00000190: a6b7 7a3d ec5e 84bc 191b 553d 06e9 c5bd
000001a0: 6809 e5bd 2484 cfbd 5862 a83c a422 d9bd
000001b0: c1c3 71bd 544b e0bd 0b54 34be be88 ce3d
000001c0: 9e33 993d f881 81bd b4ad 303d c453 b1bc
000001d0: e283 21bd c920 dbbb 9aa8 ae3c b400 083e
000001e0: 4f9d 8ebc 00c7 cabd 088f 70bc 4c0e c9bd
000001f0: 4cad 1abe 92c8 04bd 0075 73bd 4761 73bc
00000200: d242 fcbd 6c71 16be 7c79 3bbb f735 333e
00000210: 06cd 833d 0c27 27be e95f 9b3d 4d87 333e
00000220: 75fd e6bd 56d7 183d a6b7 51bd 6ef0 1e3e
00000230: f457 e5bd 45db 183e 2ccc eebd cd3a 103e
00000240: b66e d03c 7452 c03c 05b8 de3d 3c7b dabd
00000250: 56f3 e43d 1c9a 353e c2b4 d3bc a8ef b23d
00000260: 5e2b eb3d b8c2 0cbd 916d 943d 553b 92bc
00000270: 3bca 8a3d 99b1 0c3e dc72 2dbe 7de0 e03d
00000280: 4f7d 77bd 9324 52bd 1523 313d eb0d f9bd
00000290: c1a3 88bd 968e 0d3a 4b97 cc3d cd5e 0b3d
000002a0: 00b5 22be 6e15 8c3d 2715 a7bc 1bf0 f33c
000002b0: bebf 1dbc ff58 c23d 5708 243e 7e30 a43d
000002c0: 9f18 4fbe 2bcc 0cbe e092 d83c ccc9 29bc
000002d0: 900d 99bd 80ce 2abd b783 d83d 47e0 2fbd
000002e0: 5e52 ee3b 0987 ffbd d26a 53bd 714f 523d
000002f0: 175c 5dbe 781a a9bd cae6 e4bd 02b2 e33d
00000300: 6755 ce3d abea 323e e01f 0f3e 05b4 c23d
00000310: 1358 a6bd 1553 0b3d 8ff2 29be a9cf 273e
00000320: 6def d8bd 3019 36bb e9cf bfbc a26b 003e
00000330: 0978 023e ca6c 06be d83b bc3d d394 e4bd
00000340: c483 fabd c507 1b3c 1bb0 35be 97fd 9c3d
00000350: fb42 943d 28fc 14bd e8d6 07be 24d9 2cbe
00000360: 08f1 383e bea9 15be d2d8 dd3d 42dd 173e
00000370: bce2 34bd 15ef d2bd cd47 6a3d c23e 713d
00000380: 992e 20be 3029 1a3e e9a7 053e 0b22 61bd
00000390: 9004 3c3d b2e6 773d e3f7 bb3d f7e1 ed3b
000003a0: 4016 083e ad80 b23d b64e 56be 8282 c93c
000003b0: 1ed6 053d 71f0 92bc 4852 ac3d a7e7 84bc
000003c0: fd1a 9c3d b8a3 233e c879 3e3d 14d7 b4bd
000003d0: e83d c4bd cc5d 9a3d 26bb 02be 6e85 bcbd
000003e0: e55e 0cbe bff9 b1bd 4df3 073e 7a62 aa3d
000003f0: cff0 ccbd cf92 063e bd53 6bbd b41f 3c3d

gru.weight_hh_l0 f4 [192, 64]
-0.11584829 0.02761305 -0.094495334 0.037871405 -0.11728748 -0.08592029 0.094075285 0.039098833
0.10418004 -0.10688256 -0.02958435 -0.026509805 -0.04456531 -0.028538521 0.124512054 0.08678745
0.16832802 -0.09338762 0.044145253 0.023121169 -0.049658705 0.005388333 0.04558177 -0.14238971
0.034190483 -0.109777056 -0.019517845 -0.17632432 0.022620643 -0.03366385 0.050234217 0.06594457
0.1003575 0.020969423 0.14565417 -0.011942638 0.076633126 0.0566999 0.017126827 -0.14017011
0.053673103 -0.06873121 0.015203631 0.038300104 -0.04818979 0.12172002 -0.029457992 0.029519526
-0.053460732 -0.084788114 0.008511954 -0.106879994 -0.042163942 0.040014066 0.043044746 -0.047352415
-0.13277185 0.022755338 -0.041858975 0.11348875 0.09100329 0.09127489 -0.023112811 -0.07468809
-0.18743153 0.10533635 0.082174815 0.06863474 0.008335666 0.057764817 -0.1299883 0.05607452
-0.10106533 -0.09336451 0.0008096212 0.11536176 0.114045 0.012857219 0.100312606 0.099732056
0.11230986 -0.046413843 -0.060438935 -0.06892671 0.022912811 0.024381058 -0.023225717 0.097727835
-0.029358365 -0.073727615 0.020054009 -0.052434918 0.052956462 -0.001249427 -0.1104307 -0.02358141
-0.07856958 0.034839056 0.102953054 -0.051721588 -0.032166015 -0.057560775 0.028067755 -0.086356245
0.0064994516 -0.0075291726 -0.036785267 0.044588614 0.098845884 -0.022974107 0.0154938325 0.0043112
0.10141106 -0.07668586 -0.07633302 0.019991063 0.037213515 0.13060267 0.0624346 0.02718486
0.0403349 -0.0012953907 -0.08190346 0.096714355 -0.035428155 -0.069408566 -0.14974812 -0.1269896
-0.04571277 0.016226307 0.09940183 0.032497518 0.028652726 -0.070821725 0.06954401 -0.030049395
-0.044502877 -0.16904202 -0.06827952 -0.019270707 -0.07443339 -0.11126455 -0.029861696 -0.029417643
0.124864876 0.059463967 0.096671596 0.11885446 0.12507781 0.020473652 0.1318304 0.12061538
0.07071338 -0.1692276 0.08175748 -0.03755441 -0.0234802 0.10458269 0.043922737 0.14445896
0.07395145 0.04871838 0.037846245 0.033481438 -0.0019079939 0.05498902 0.0007007636 0.09052123
-0.05377737 0.019698795 0.14698966 -0.020884797 -0.043109093 -0.02614723 0.1042963 0.057162654
0.19113421 -0.0367979 -0.037211727 -0.13217501 0.048181593 -0.025711495 -4.346122e-05 0.060872965
0.08575208 0.067714036 -0.10085583 0.12432656 -0.06644509 0.0027700209 -0.10422789 0.07009999
0.072267696 0.07984724 -0.038062237 -0.051778466 0.055100054 -0.015746422 0.0043117083 -0.017680014
0.025997093 -0.079955816 -0.03898484 0.09534021 -0.113328844 -0.038548846 -0.020826261 0.12562633
0.05495169 0.049705938 -0.05006998 0.008275114 0.10275021 -0.029224437 0.016799064 -0.0858444
0.12480426 -0.09531188 -0.04606376 0.16639613 0.14655559 0.048344355 0.07631673 0.0041220393
0.008152518 -0.11180211 0.03463511 0.025378495 0.14719425 -0.008196519 -0.023340167 -0.108888306
0.013151016 0.14381163 0.1523273 -0.038989693 -0.085060045 -0.06565495 -0.037675742 0.0987039
-0.10242913 0.0630434 0.031701226 0.04797798 0.14536597 -0.10562878 0.023319727 0.040904094
0.0064808438 0.0057827663 -0.117569216 -0.07127086 0.04277736 -0.038747396 0.0036653387 -0.11326374
00000000: de41 edbd c334 e23c c586 c1bd 0c1f 1b3d
00000010: 6b34 f0bd faf6 afbd 8baa c03d 1926 203d
00000020: 585c d53d 3ee5 dabd e15a f2bc 172b d9bc
00000030: 1d8a 36bd 9ec9 e9bc 2d00 ff3d 9ebd b13d
00000040: 2e5e 2c3e 0242 bfbd a7d1 343d 9b68 bd3c
00000050: ed66 4bbd 9d90 b03b f3b3 3a3d 9cce 11be
00000060: 520b 0c3d cbd2 e0bd e3e3 9fbc 5d8e 34be
00000070: ed4e b93c 1be3 09bd 65c2 4d3d f20d 873d
00000080: 3c88 cd3d 11c8 ab3c 5e26 153e 0eab 43bc
00000090: d4f1 9c3d 283e 683d 8f4d 8c3c c188 0fbe
000000a0: 54d8 5b3d f3c2 8cbd a618 793c 92e0 1c3d
000000b0: a862 45bd 5948 f93d e351 f1bc efd2 f13c
000000c0: a4f9 5abd 64a5 adbd b975 0b3c e6e3 dabd
000000d0: 19b4 2cbd cae5 233d b04f 303d 9bf4 41bd
000000e0: 58f5 07be 6769 ba3c 5174 2bbd ca6c e83d
000000f0: ef5f ba3d 54ee ba3d 1457 bdbc 12f6 98bd
00000100: 0dee 3fbe 96ba d73d 454b a83d 5f90 8c3d
00000110: 5192 083c cd9a 6c3d a71b 05be 65ae 653d
00000120: 57fb cebd e435 bfbd c23c 543a c942 ec3d
00000130: 6d90 e93d 16a7 523c b270 cd3d 5240 cc3d
00000140: b602 e63d 711c 3ebd d18e 77bd 7229 8dbd
00000150: a6b3 bb3c c9ba c73c dc43 bebc 8825 c83d
00000160: f480 f0bc 81fe 96bd 4e48 a43c ffc5 56bd
00000170: e0e8 583d d0c3 a3ba 7e29 e2bd cd2d c1bc
00000180: 17e9 a0bd 66b3 0e3d 0dd9 d23d 04da 53bd
00000190: 83c0 03bd d9c4 6bbd 59ee e53c 8bdb b0bd
000001a0: 5af9 d43b 47b7 f6bb 26ac 16bd 8da2 363d
000001b0: b66f ca3d 3234 bcbc d8d9 7d3c f844 8d3b
000001c0: 9ab0 cf3d 7a0d 9dbd 7d54 9cbd 4cc4 a33c
000001d0: 336d 183d b5bc 053e 6cbb 7f3d c9b2 de3c
000001e0: 3536 253d 19ca a9ba 00bd a7bd 2d12 c63d
000001f0: 1d1d 11bd 1426 8ebd 9257 19be 9009 02be
00000200: 503d 3bbd 08ed 843c 3093 cb3d 1e1c 053d
00000210: 1fb9 ea3c fb0a 91bd 176d 8e3d 262a f6bc
00000220: a648 36bd 5a19 2dbe 22d6 8bbd 9add 9dbc
00000230: 8870 98bd abde e3bd 84a0 f4bc 45fd f0bc
00000240: 28b9 ff3d 7d90 733d c2fb c53d f869 f33d
00000250: 6614 003e 5cb8 a73c 8cfe 063e 3205 f73d
00000260: 2dd2 903d 004a 2dbe 7770 a73d a7d2 19bd
00000270: 8c59 c0bc 732f d63d 54e8 333d 0ded 133e
00000280: dc73 973d ed8c 473d aa04 1b3d d523 093d
00000290: a715 faba 2b3c 613d 73b3 373a 3263 b93d
000002a0: a945 5cbd 5e5f a13c 7584 163e 9816 abbc
000002b0: 2993 30bd b732 d6bc 4c99 d53d 6323 6a3d
000002c0: b0b8 433e 65b9 16bd 536b 18bd e358 07be
000002d0: 105a 453d eaa0 d2bc 214a 36b8 ee55 793d
000002e0: c99e af3d a8ad 8a3d 808d cebd ec9e fe3d
000002f0: 5d14 88bd 3d89 353b 6f75 d5bd 9590 8f3d
00000300: 1601 943d f386 a33d 26e7 1bbd a815 54bd
00000310: 98b0 613d a4fe 80bc 3b49 8d3b add5 90bc
00000320: dbf7 d43c e0bf a3bd 91ae 1fbd ba41 c33d
00000330: f418 e8bd 65e5 1dbd d69b aabc 30a4 003e
00000340: 0615 613d 7498 4b3d 2e16 4dbd 5894 073c
00000350: b46e d23d 1668 efbc 319e 893c 30cf afbd
00000360: 6099 ff3d e032 c3bd 5aad 3cbd bf63 2a3e
00000370: ab12 163e bb04 463d f24b 9c3d 2c12 873b
00000380: 2492 053c 81f8 e4bd 8cdd 0d3d 90e6 cf3c
00000390: 17ba 163e b14a 06bc e133 bfbc d500 dfbd
000003a0: 5c77 573c 5b43 133e b0fb 1b3e a8b3 1fbd
000003b0: f633 aebd 1a76 86bd e151 1abd 4525 ca3d
000003c0: 5dc6 d1bd e61c 813d 25d9 013d 8f84 443d
000003d0: d1da 143e e753 d8bd 0309 bf3c 0d8b 273d
000003e0: 425d d43b 5c7d bd3b 21c8 f0bd 75f6 91bd
000003f0: 5037 2f3d 97b5 1ebd 2e36 703b d2f6 e7bd

gru.bias_ih_l0 f4 [192]
0.036539067 0.009824399 -0.00013531168 0.011452496 -0.0008904935 -0.054192875 0.024942579 0.01590629
0.027435401 0.004451559 0.014439139 -0.02679943 0.030310698 -0.006480175 0.011194598 0.031700432
-0.013790641 -5.7214897e-05 0.005836985 -0.013786403 0.019346252 0.00023147583 -0.0119672455 0.005594598
0.05636684 0.018957594 0.030332105 0.012659216 0.014769454 0.033074703 -0.015312456 0.017531918
-0.0003112268 0.022757936 -0.010116654 -0.008623813 0.02093323 0.008980867 0.025059719 -0.021478206
0.016247705 0.012099126 0.02396652 0.029294401 -0.021893406 0.024025261 0.01926353 0.015429583
0.00680835 0.030861061 -0.0015132272 0.050118834 0.013446957 -0.0025471994 0.026061798 0.03765524
0.03231884 0.022402817 0.021872237 -0.02880367 0.019594721 -0.020793417 -0.010420508 -0.069365576
-0.01862146 0.0029957483 0.025404682 0.014621661 -0.014291279 0.035971124 -0.005682181 -0.03701729
-0.010394504 -0.011650031 -0.0052788695 0.002318088 -0.0075481907 -0.025535187 -0.0034114816 -0.024153613
-0.009988718 -0.013216717 0.06332536 0.0474663 0.0029420059 -0.04353416 0.039332 -0.009077487
0.00019509632 0.02858021 -0.017892536 -0.05346368 0.01385238 -0.021946799 -0.00549804 0.03396738
0.018939072 0.0039839023 0.016746255 0.0502637 -0.031659625 -0.0005521232 -0.017619183 -0.0364062
-0.030701736 -0.031798325 0.038404204 -0.034089748 0.02193767 -0.0036279236 -0.027525647 0.0060487
0.047426738 -0.039132427 0.02532288 -0.015699457 0.038645416 0.024535239 0.019324368 0.00090753706
0.07049775 0.004512136 -0.010781294 0.03445241 -0.031780746 -0.04534292 -0.04225082 0.008071934
-0.00041355653 -0.005950853 0.0041169315 0.010063432 -0.0032595869 0.020003956 0.005625398 0.031464003
0.0054214774 -2.79325e-05 0.01669802 0.0041527217 -0.0016739038 -0.017220762 0.009057983 -0.011453224
0.0036095476 -0.022528438 0.0022701568 0.013306799 -0.013059531 -0.00790247 0.026681168 -0.014700959
0.012407683 -0.01659453 -0.008074527 -0.04469034 0.024373367 0.04318329 0.008391921 -0.00185102
-0.0043219323 0.0011040764 0.016339105 0.0062358463 0.005700489 0.0009449658 -0.0072272313 0.015324031
0.0058562355 0.023952879 -0.0005627189 0.003968194 -0.015821986 -0.0069307624 0.005428542 0.009796209
-0.0001878526 -0.0061685895 -0.0040525147 -0.022376053 0.0066451603 0.018669343 -0.013474712 0.0046051424
-0.00010205523 0.028114341 0.0032732387 -0.0074928747 -0.018745178 0.017533207 0.008318227 0.021009177
00000000: fda9 153d 84f6 203c 74e2 0db9 40a3 3b3c
00000010: 0270 69ba 59f9 5dbd 6154 cc3c e84d 823c
00000020: 35c0 e03c 62de 913b 2392 6c3c 7a8a dbbc
00000030: 244e f83c a657 d4bb 8c69 373c 50d8 013d
00000040: 24f2 61bc 07fa 6fb8 2e44 bf3b 5ee0 61bc
00000050: 087c 9e3c 52b8 7239 4412 44bc e452 b73b
00000060: eae0 663d f54c 9b3c 097b f83c 9a68 4f3c
00000070: 94fb 713c 5779 073d 18e1 7abc 199f 8f3c
00000080: 272c a3b9 da6e ba3c 53c0 25bc e54a 0dbc
00000090: 2a7c ab3c 7d24 133c 0a4a cd3c 10f3 afbc
000000a0: e819 853c 6a3b 463c 6f55 c43c d0fa ef3c
000000b0: cd59 b3bc a0d0 c43c 8dce 9d3c 5dcc 7c3c
000000c0: 9418 df3b 56d0 fc3c 7b57 c6ba 6849 4d3d
000000d0: a050 5c3c eaee 26bb 8d7f d53c 623c 1a3d
000000e0: c360 043d 1d86 b73c 682d b33c adf5 ebbc
000000f0: 1c85 a03c f556 aabc c7ba 2abc 8a0f 8ebd
00000100: 088c 98bc 5154 443b 7b1d d03c b18f 6f3c
00000110: f825 6abc 7556 133d 9731 babb 719f 17bd
00000120: b64d 2abc c6df 3ebc 5efa acbb 10eb 173b
00000130: d056 f7bb 2b2f d1bc 2a93 5fbb ccdd c5bc
00000140: b8a7 23bc ee8a 58bc bab0 813d 066c 423d
00000150: abce 403b e050 32bd 971a 213d bdb9 14bc
00000160: c592 4c39 0b21 ea3c 5e93 92bc bbfc 5abd
00000170: 18f5 623c c6c9 b3bc e728 b4bb 6121 0b3d
00000180: 1d26 9b3c 658b 823b 712f 893c 4fe1 4d3d
00000190: 86ad 01bd 5cbc 10ba 1b56 90bc ab1e 15bd
000001a0: 3582 fbbc f63e 02bd ba4d 1d3d b1a1 0bbd
000001b0: a1b6 b33c 75c2 6dbb 777d e1bc 2c34 c63b
000001c0: 8a42 423d 5349 20bd ee71 cf3c 269c 80bc
000001d0: a84a 1e3d 20fe c83c 234e 9e3c c8e7 6d3a
000001e0: 2061 903d 8ada 933b 06a4 30bc f81d 0d3d
000001f0: 872c 02bd 7fb9 39bd 320f 2dbd 2540 043c
00000200: 9ed2 d8b9 60ff c2bb 53e7 863b 18e1 243c
00000210: cb9e 55bb 56df a33c 4255 b83b 66e0 003d
00000220: a6a6 b13b 9650 eab7 49ca 883c 8e13 883b
00000230: e466 dbba 8e12 8dbc ef67 143c 4ea6 3bbc
00000240: 298e 6c3b 8f8d b8bc e9c6 143b c304 5a3c
00000250: a5f7 55bc 5d79 01bc 7792 da3c 4bdc 70bc
00000260: 9849 4b3c 40f1 87bc 054b 04bc 380d 37bd
00000270: a8aa c73c f6e0 303d 457e 093c ed9d f2ba
00000280: ff9e 8dbb a8b6 903a 96d9 853c 1256 cc3b
00000290: 2bcb ba3b 95b7 773a 69d2 ecbb a511 7b3c
000002a0: aae5 bf3b d438 c43c 6d83 13ba a007 823b
000002b0: 1c9d 81bc 731b e3bb e9e1 b13b 4780 203c
000002c0: 4cfa 44b9 e121 cabb f5ca 84bb fc4d b7bc
000002d0: a5bf d93b 73f0 983c 0ac5 5cbc bce6 963b
000002e0: 7c06 d6b8 0c50 e63c d583 563b ca86 f5bb
000002f0: 7d8f 99bc cda1 8f3c 2c49 083c 701b ac3c

gru.bias_hh_l0 f4 [192]
0.036539067 0.009824399 -0.00013531168 0.011452496 -0.0008904935 -0.054192875 0.024942579 0.01590629
0.027435401 0.004451559 0.014439139 -0.02679943 0.030310698 -0.006480175 0.011194598 0.031700432
-0.013790641 -5.7214897e-05 0.005836985 -0.013786403 0.019346252 0.00023147583 -0.0119672455 0.005594598
0.05636684 0.018957594 0.030332105 0.012659216 0.014769454 0.033074703 -0.015312456 0.017531918
-0.0003112268 0.022757936 -0.010116654 -0.008623813 0.02093323 0.008980867 0.025059719 -0.021478206
0.016247705 0.012099126 0.02396652 0.029294401 -0.021893406 0.024025261 0.01926353 0.015429583
0.00680835 0.030861061 -0.0015132272 0.050118834 0.013446957 -0.0025471994 0.026061798 0.03765524
0.03231884 0.022402817 0.021872237 -0.02880367 0.019594721 -0.020793417 -0.010420508 -0.069365576
-0.01862146 0.0029957483 0.025404682 0.014621661 -0.014291279 0.035971124 -0.005682181 -0.03701729
-0.010394504 -0.011650031 -0.0052788695 0.002318088 -0.0075481907 -0.025535187 -0.0034114816 -0.024153613
-0.009988718 -0.013216717 0.06332536 0.0474663 0.0029420059 -0.04353416 0.039332 -0.009077487
0.00019509632 0.02858021 -0.017892536 -0.05346368 0.01385238 -0.021946799 -0.00549804 0.03396738
0.018939072 0.0039839023 0.016746255 0.0502637 -0.031659625 -0.0005521232 -0.017619183 -0.0364062
-0.030701736 -0.031798325 0.038404204 -0.034089748 0.02193767 -0.0036279236 -0.027525647 0.0060487
0.047426738 -0.039132427 0.02532288 -0.015699457 0.038645416 0.024535239 0.019324368 0.00090753706
0.07049775 0.004512136 -0.010781294 0.03445241 -0.031780746 -0.04534292 -0.04225082 0.008071934
0.004493746 -0.0055197356 0.01082174 0.006760656 -0.008210608 0.023699643 0.005651193 0.049654264
0.00042835725 -0.002041162 0.019587537 -0.0017338878 -0.0051170243 -0.010902343 0.010906803 -0.013341713
0.004221173 -0.0027031074 0.0039887833 0.010120263 -0.014955087 -0.010446491 0.027583797 -0.012421937
0.012042565 -0.014346395 0.002531682 -0.039685182 0.028534427 0.043742403 0.016484687 -0.0006096745
-0.009054326 0.002856907 0.01115442 0.00780328 0.0086094 0.0012235257 -0.010737888 0.025111878
0.011850735 0.0236151 -0.0021078715 0.0039667333 -0.018725177 -0.009463926 0.0009169735 0.0048222574
-0.0005447548 -0.011017956 -0.009657855 -0.023028756 0.009069369 0.018147573 -0.007434152 0.0059037125
0.0003922444 0.024586258 0.0076354714 -0.0048531704 -0.022209644 0.036451146 0.011955095 0.028581487
00000000: fda9 153d 84f6 203c 74e2 0db9 40a3 3b3c
00000010: 0270 69ba 59f9 5dbd 6154 cc3c e84d 823c
00000020: 35c0 e03c 62de 913b 2392 6c3c 7a8a dbbc
00000030: 244e f83c a657 d4bb 8c69 373c 50d8 013d
00000040: 24f2 61bc 07fa 6fb8 2e44 bf3b 5ee0 61bc
00000050: 087c 9e3c 52b8 7239 4412 44bc e452 b73b
00000060: eae0 663d f54c 9b3c 097b f83c 9a68 4f3c
00000070: 94fb 713c 5779 073d 18e1 7abc 199f 8f3c
00000080: 272c a3b9 da6e ba3c 53c0 25bc e54a 0dbc
00000090: 2a7c ab3c 7d24 133c 0a4a cd3c 10f3 afbc
000000a0: e819 853c 6a3b 463c 6f55 c43c d0fa ef3c
000000b0: cd59 b3bc a0d0 c43c 8dce 9d3c 5dcc 7c3c
000000c0: 9418 df3b 56d0 fc3c 7b57 c6ba 6849 4d3d
000000d0: a050 5c3c eaee 26bb 8d7f d53c 623c 1a3d
000000e0: c360 043d 1d86 b73c 682d b33c adf5 ebbc
000000f0: 1c85 a03c f556 aabc c7ba 2abc 8a0f 8ebd
00000100: 088c 98bc 5154 443b 7b1d d03c b18f 6f3c
00000110: f825 6abc 7556 133d 9731 babb 719f 17bd
00000120: b64d 2abc c6df 3ebc 5efa acbb 10eb 173b
00000130: d056 f7bb 2b2f d1bc 2a93 5fbb ccdd c5bc
00000140: b8a7 23bc ee8a 58bc bab0 813d 066c 423d
00000150: abce 403b e050 32bd 971a 213d bdb9 14bc
00000160: c592 4c39 0b21 ea3c 5e93 92bc bbfc 5abd
00000170: 18f5 623c c6c9 b3bc e728 b4bb 6121 0b3d
00000180: 1d26 9b3c 658b 823b 712f 893c 4fe1 4d3d
00000190: 86ad 01bd 5cbc 10ba 1b56 90bc ab1e 15bd
000001a0: 3582 fbbc f63e 02bd ba4d 1d3d b1a1 0bbd
000001b0: a1b6 b33c 75c2 6dbb 777d e1bc 2c34 c63b
000001c0: 8a42 423d 5349 20bd ee71 cf3c 269c 80bc
000001d0: a84a 1e3d 20fe c83c 234e 9e3c c8e7 6d3a
000001e0: 2061 903d 8ada 933b 06a4 30bc f81d 0d3d
000001f0: 872c 02bd 7fb9 39bd 320f 2dbd 2540 043c
00000200: 4640 933b e6de b4bb ab4d 313c 7e88 dd3b
00000210: c985 06bc c125 c23c a52d b93b 4562 4b3d
00000220: 2395 e039 04c5 05bb 0b76 a03c 9f43 e3ba
00000230: b6ac a7bb be9f 32bc 73b2 323c 3397 5abc
00000240: c451 8a3b 9e26 31bb 57b4 823b 76cf 253c
00000250: 2e06 75bc c227 2bbc 6af7 e13c 6185 4bbc
00000260: 2e4e 453c 240d 6bbc 93ea 253b ee8c 22bd
00000270: 08c1 e93c 3c2b 333d e50a 873c 90d2 1fba
00000280: 9958 14bc f23a 3b3b 07c1 363c a8b2 ff3b
00000290: 710e 0d3c b65e a03a f7ed 2fbc 6db7 cd3c
000002a0: 9629 423c 7474 c13c 3724 0abb 5ffb 813b
000002b0: 8b65 99bc 950e 1bbc 0d61 703a 0704 9e3b
000002c0: e0cd 0eba a884 34bc fb3b 1ebc cda6 bcbc
000002d0: b197 143c 38aa 943c 309a f3bb ee73 c13b
000002e0: 27a6 cd39 1f69 c93c fa32 fa3b 5807 9fbb
000002f0: 00f1 b5bc cc4d 153d 4edf 433c b923 ea3c

gru.weight_ih_l0_reverse f4 [192, 29]
-0.031616025 0.21295707 -0.116444565 0.09262334 -0.030511374 -0.04898973 -0.010646224 -0.120412655
0.1254816 0.02910387 0.23803183 0.050292198 -0.109617956 0.09569622 0.06032609 0.13432877
-0.13462403 -0.12520066 0.08141022 -0.15164042 -0.07993382 0.085965745 0.03618649 0.049948886
0.12473887 0.27647758 0.14653614 -0.110576265 -0.024985882 -0.1842373 0.010852959 0.08520504
-0.12814017 -0.12931566 -0.13389094 0.09097824 -0.1425837 0.053153396 0.039950356 0.05996772
-0.11594791 -0.10681654 0.022794992 -0.08458951 -0.060562134 0.10526995 -0.029340751 0.18447287
0.02592205 -0.07812326 -0.18880934 -0.010129426 0.129375 -0.1341868 0.068698056 -0.07810427
-0.084047385 0.032556973 0.20119253 -0.037219305 0.2031667 -0.021149464 0.080918 -0.002802203
-0.06780667 -0.059088245 -0.10496347 0.18212733 0.05423435 0.024335865 -0.06561198 0.052164815
-0.103506304 -0.0008443921 -0.17276321 -0.16365916 -0.16815855 -0.16885105 -0.118047535 -0.11016622
-0.03851134 0.07114145 0.071276486 -0.022287665 0.07517004 0.17948498 -0.12238484 -0.11717526
0.00070070714 0.0038091524 -0.043997724 0.122184 0.03655743 -0.06465435 -0.19141735 -0.019531285
-0.04257004 0.11182865 0.10341603 0.08242491 -0.083298035 0.03262729 0.14612184 0.05116284
0.061849006 -0.10191523 0.1325157 0.08190414 -0.13919228 -0.04931394 -0.07858393 -0.18363097
0.008812436 0.115111314 -0.13593961 -0.03190913 -0.14762953 -0.0012902785 -0.02042691 0.059206948
-0.04129308 0.03566451 -0.093028896 0.022511674 -0.14648215 -0.041315995 -0.12558633 -0.14498979
-0.11935521 -0.2004695 0.05082509 -0.097394876 0.04991234 -0.084837765 -0.06844227 -0.06328175
0.1023636 0.15958378 -0.05258442 0.10306412 -0.12913081 0.1589957 0.018990533 -0.12647744
-0.06325774 -0.13194212 0.08948045 0.029304272 0.001959576 -0.06673117 0.11427203 -0.18051443
-0.062080033 0.10287731 -0.08588051 -0.089649744 0.057113428 0.16076913 0.07481139 -0.079631284
0.15567279 0.028621217 -0.0322606 -0.06727551 0.077127956 0.1516463 -0.020155141 -0.038489446
0.13995412 0.044601876 -0.05059997 0.010038952 -0.008578573 -0.0076300213 -0.2450313 -0.1162723
0.10679143 0.022748264 -0.0059250053 0.1131128 0.00749161 -0.013859551 -0.098702714 0.028078813
0.039980292 -0.00473942 -0.13164699 -0.08260918 -0.022379464 -0.0587999 0.09775542 -0.006188248
0.14804584 0.103739165 0.07169149 -0.1253669 0.13728555 0.08179732 0.060414482 -0.11535061
0.062795535 -0.024974808 0.0022351267 0.00038677864 -0.114881255 0.08792991 0.022953343 -0.007495728
-0.033284485 0.106696025 -0.0032631145 -0.12102044 -0.1331501 -0.079043634 0.014080534 0.12842456
-0.10784448 -0.11766362 -0.15665881 0.13017005 0.09948564 -0.012840938 0.08377641 0.014653224
0.17389397 -0.029304879 0.005831192 0.015003618 0.11882348 -0.16430877 -0.045264833 -0.04076928
0.020167433 -0.18175371 0.13561474 -0.13052651 -0.07876422 0.0021015778 -0.0988708 -0.08363703
0.16442882 0.108696066 0.0949964 -0.15219899 0.15054144 0.007748957 0.04277337 -0.059876554
-0.16132094 -0.071334824 0.01769682 -0.12947431 -0.007676877 0.18914668 -0.081838936 0.128873
00000000: ce7f 01bd 6b11 5a3e 7d7a eebd 4eb1 bd3d
00000010: fdf2 f9bc 75a9 48bd 806d 2ebc e99a f6bd
00000020: 407e 003e 3d6b ee3c 9ebe 733e 31ff 4d3d
00000030: 617f e0bd 61fc c33d 7d18 773d 7b8d 093e
00000040: e2da 09be 9a34 00be 67ba a63d a047 1bbe
00000050: 58b4 a3bd cf0e b03d 4938 143d 3497 4c3d
00000060: 1877 ff3d 788e 8d3e 920d 163e cf75 e2bd
00000070: 31af ccbc b4a8 3cbe 9cd0 313c fb7f ae3d
00000080: 2d37 03be 536b 04be b51a 09be cd52 ba3d
00000090: 7601 12be 60b7 593d fca2 233d b6a0 753d
000000a0: 1976 edbd a1c2 dabd 90bc ba3c 443d adbd
000000b0: 0010 78bd c697 d73d 045c f0bc 75e6 3c3e
000000c0: 7b5a d43c 16ff 9fbd 3c57 41be e4f5 25bc
000000d0: e17a 043e 4468 09be 91b1 8c3d 22f5 9fbd
000000e0: 0921 acbd 765a 053d 6a05 4e3e 4573 18bd
000000f0: ee0a 503e a441 adbc 56b8 a53d 2aa5 37bb
00000100: 39de 8abd 8406 72bd 16f7 d6bd 967f 3a3e
00000110: d624 5e3d 025c c73c 935f 86bd c6aa 553d
00000120: 1dfb d3bd 325a 5dba d7e8 30be 4496 27be
00000130: c131 2cbe 4ae7 2cbe e8c2 f1bd d49e e1bd
00000140: 11be 1dbd 9cb2 913d 68f9 913d 9f94 b6bc
00000150: c0f2 993d e9ca 373e e7a4 fabd 95f9 efbd
00000160: a9af 373a f9a2 793b f536 34bd 9b3b fa3d
00000170: 3ebd 153d 8069 84bd e902 44be 1300 a0bc
00000180: ec5d 2ebd 6b06 e53d c9cb d33d 64ce a83d
00000190: 2998 aabd 31a4 053d f7a0 153e 2090 513d
000001a0: 6255 7d3d efb8 d0bd 32b2 073e 5cbd a73d
000001b0: 6c88 0ebe 6afd 49bd 9df0 a0bd c209 3cbe
000001c0: 0962 103c 7bbf eb3d c133 0bbe 26b3 02bd
000001d0: 322c 17be 901e a9ba 5656 a7bc fc82 723d
000001e0: ef22 29bd f314 123d ef85 bebd 676a b83c
000001f0: 6bff 15be f63a 29bd b499 00be 3478 14be
00000200: 8170 f4bd e047 4dbe f82d 503d f776 c7bd
00000210: e270 4c3d 6cbf adbd 762b 8cbd dd99 81bd
00000220: 02a4 d13d ee69 233e c362 57bd 4813 d33d
00000230: de3a 04be c5cf 223e 0992 9b3c 4d83 01be
00000240: 468d 81bd d61b 07be 8741 b73d 830f f03c
00000250: 3b6c 003b 5aaa 88bd 7407 ea3d c6d8 38be
00000260: a247 7ebd 57b1 d23d 1fe2 afbd 499a b7bd
00000270: c5ef 693d aaa0 243e b736 993d ba15 a3bd
00000280: b068 1f3e 0b77 ea3c b123 04bd bec7 89bd
00000290: 43f5 9d3d 2b49 1b3e 651c a5bc 1ca7 1dbd
000002a0: 2250 0f3e 75b0 363d ea41 4fbd 6b7a 243c
000002b0: 258d 0cbc 4205 fabb 7ce9 7abe 2c20 eebd
000002c0: 77b5 da3d 915a ba3c 8c26 c2bb afa7 e73d
000002d0: 2e7c f53b 2c13 63bc a624 cabd 8a05 e63c
000002e0: 60c2 233d 234d 9bbb 78ce 06be 002f a9bd
000002f0: 2355 b7bc 2ad8 70bd fe33 c83d c9c6 cabb
00000300: 5499 173e 3375 d43d fdd2 923d 2e60 00be
00000310: 9594 0c3e 5a85 a73d 2d75 773d f13c ecbd
00000320: f29a 803d f897 ccbc 347b 123b 8dc8 ca39
00000330: dd46 ebbd 9914 b43d a608 bc3c b99e f5bb
00000340: 5055 08bd 7283 da3d fad9 55bb 90d9 f7bd
00000350: 8058 08be a1e1 a1bd 0ab2 663c ba81 033e
00000360: 91dd dcbd a0f9 f0bd 2b6b 20be 4c4b 053e
00000370: 21bf cb3d cc62 52bc f792 ab3d 1314 703c
00000380: 4311 323e c910 f0bc 9513 bf3b bcd1 753c
00000390: ba59 f33d 8f40 28be 9e67 39bd b0fd 26bd
000003a0: 2c36 a53c a51d 3abe 97de 0a3e bea8 05be
000003b0: 234f a1bd a0ba 093b c67c cabd e449 abbd
000003c0: 0760 283e 0b9c de3d 798d c23d 0dda 1bbe
000003d0: 8927 1a3e f6ea fd3b 2133 2f3d 1e41 75bd
000003e0: 5131 25be fe17 92bd ecf8 903c ea94 04be
000003f0: 508e fbbb abaf 413e 2c9b a7bd 49f7 033e

gru.weight_hh_l0_reverse f4 [192, 64]
0.14957663 -0.008253563 0.1402494 0.097567506 0.011900382 0.10687115 0.027933717 0.0010282524
-0.05988197 0.022568455 0.15178093 -0.009925248 -0.03178379 0.042804122 -0.042051803 -0.03636712
-0.05309474 0.10454768 -0.12715106 0.1268212 -0.0031868657 -0.051601626 -0.08051263 0.13602056
-0.050305784 -0.01883149 0.08244683 0.06258893 -0.10881524 0.09421663 -0.06728294 0.008844583
0.03484462 -0.020183655 -0.028584322 -0.08260624 -0.030431598 -0.03070863 -0.08699051 -0.016076192
0.027780721 -0.16034798 -0.096449785 -0.15616436 0.043964837 0.14045931 -0.07660838 0.094465524
-0.051401373 -0.03817685 0.06529875 -0.073377915 -0.011740885 0.08237436 -0.13330035 -0.0233136
0.0779697 0.14171363 -0.03776121 -0.039826207 0.15802495 0.044233106 -0.029600017 0.041397244
0.11382276 0.03809664 0.018911667 -0.015196049 0.08236622 0.08699006 -0.08539786 0.031967882
-0.081021436 -0.032130487 -0.040411513 -0.037094533 -0.053483013 0.085322626 0.15332781 0.03684257
0.07212464 0.089849465 0.025937239 -0.018856687 -0.03573919 0.0009758973 -0.09566233 -0.013501997
-0.00092742173 -0.10547734 0.16062094 -0.024919719 -0.036986504 -0.074334525 -0.09815525 0.06999882
0.028839787 -0.011010064 -0.055584412 0.0030490926 -0.12091397 -0.084051795 0.1491261 0.024342423
0.030686487 0.12543312 0.0004528391 -0.04098698 -0.00027494068 -0.1895499 0.059181757 0.039338797
0.063006684 -0.09114686 0.026327962 0.027490871 0.016671536 -0.102690674 0.11333709 0.021148972
-0.17120036 -0.11262744 0.025245817 0.06846198 -0.060033925 -0.09697329 0.10674026 -0.12163746
-0.023566525 -0.045807134 0.111029364 0.06714923 0.21791123 -0.13752939 0.14774138 -0.14306094
0.03794788 -0.05055906 0.059548352 -0.08054933 -0.015446823 -0.04315473 -0.062202465 -0.05958174
0.00030278086 -0.029699275 -0.13784045 0.08616369 0.030312164 -0.08486622 0.04797084 0.11045701
0.05563631 -0.1040392 -0.010672734 -0.061523374 0.016604926 0.09658869 -0.038405508 -0.10484542
0.087708116 0.073960096 0.015892584 0.045606866 -0.010016507 0.14268686 0.012463269 0.18287699
-0.16781524 -0.08482597 0.09089969 0.1345025 0.0042367107 0.11896011 -0.15873839 -0.2120279
-0.12520745 0.023007378 0.09268125 0.05815277 0.18556163 0.05741557 -0.1570473 0.1208917
0.15909135 0.02843832 0.042194933 0.053219378 -0.022702225 -0.102745265 -0.06413021 0.095993124
-0.07139375 -0.02761384 -0.047358863 -0.19375746 0.040002123 0.005264804 0.04934086 0.061578125
-0.18894507 -0.06386749 0.07915679 0.08983253 0.14077629 -0.12751244 0.05891693 0.07409774
0.009796734 0.109151855 0.17003302 -0.04678021 0.0719927 -0.07930172 -0.17327581 -0.0049082385
-0.13421644 -0.015644867 -0.009965164 -0.09922292 -0.13251849 -0.085572064 0.056508657 0.030003743
-0.08276135 -0.044763528 0.013557683 0.10382807 -0.15631697 -0.17273322 -0.011637146 0.03154112
-0.16125174 0.07794886 0.088781305 -0.065159686 0.042071134 -0.1407716 0.080467194 -0.0024532243
-0.041835006 -0.13208424 0.030353548 0.07303869 -0.06906076 0.06148857 0.012033173 -0.000456086
0.05528803 0.045601632 -0.08764978 0.10177552 0.14618073 -0.013773193 0.019092822 -0.095621206
00000000: 9e2a 193e f439 07bc 8a9d 0f3e 79d1 c73d
00000010: d2f9 423c 43df da3d 40d5 e43c 6dc6 863a
00000020: cc46 75bd 7be1 b83c 766c 1b3e 829d 22bc
00000030: b82f 02bd 6053 2f3d 833e 2cbd b0f5 14bd
00000040: df79 59bd 181d d63d e333 02be 6bdd 013e
00000050: bcda 50bb 3a5c 53bd cee3 a4bd f948 0b3e
00000060: 700d 4ebd 7f44 9abc e2d9 a83d a02e 803d
00000070: 86da debd a6f4 c03d a3cb 89bd dfe8 103c
00000080: 3bb9 0e3d 3158 a5bc ab29 eabc 762d a9bd
00000090: b04b f9bc aa90 fbbc 1528 b2bd 38b2 83bc
000000a0: 6594 e33c 4332 24be 7787 c5bd 8de9 1fbe
000000b0: 7914 343d 91d4 0f3e dbe4 9cbd 2477 c13d
000000c0: 3f8a 52bd 545f 1cbd 5abb 853d 2947 96bd
000000d0: d75c 40bc e3b3 a83d e37f 08be 2afc bebc
000000e0: 94ae 9f3d 611d 113e 80ab 1abd ce20 23bd
000000f0: 4bd1 213e c62d 353d bc7b f2bc 2890 293d
00000100: e81b e93d 390b 1c3d a4ec 9a3c d9f8 78bc
00000110: 9faf a83d d827 b23d 13e5 aebd c1f0 023d
00000120: 91ee a5bd 429b 03bd 8b86 25bd 70f0 17bd
00000130: 0111 5bbd a1bd ae3d f701 1d3e 3ce8 163d
00000140: 15b6 933d ff02 b83d 557a d43c 5779 9abc
00000150: 4263 12bd 5cd3 7f3a 9dea c3bd 7b37 5dbc
00000160: 381e 73ba 8104 d8bd d179 243e 7024 ccbc
00000170: 297f 17bd b33c 98bd 9f05 c9bd 8b5b 8f3d
00000180: 6b41 ec3c 8e63 34bc 7bac 63bd 49d3 473b
00000190: bea1 f7bd 5923 acbd 83b4 183e c369 c73c
000001a0: 3a62 fb3c 8a71 003e 096b ed39 f7e1 27bd
000001b0: ea25 90b9 5e19 42be 9268 723d b821 213d
000001c0: a609 813d 34ab babd bdad d73c 8934 e13c
000001d0: bf92 883c 7d4f d2bd 471d e83d 9c40 ad3c
000001e0: 264f 2fbe 37a9 e6bd 51d0 ce3c cb35 8c3d
000001f0: 22e6 75bd ef99 c6bd a39a da3d 101d f9bd
00000200: 960e c1bc 43a0 3bbd 5d63 e33d 8985 893d
00000210: 1f24 5f3e 81d4 0cbe 8449 173e 917e 12be
00000220: 3c6f 1b3d 0417 4fbd f9e8 733d 0cf7 a4bd
00000230: ac14 7dbc 04c3 30bd 03c8 7ebd fc0b 74bd
00000240: 8fbe 9e39 e54b f3bc 0c26 0dbe 9776 b03d
00000250: 3751 f83c 57ce adbd 127d 443d 4937 e23d
00000260: e6e2 633d 8112 d5bd b1dc 2ebc efff 7bbd
00000270: 0e07 883c 4bd0 c53d 184f 1dbd 32b9 d6bd
00000280: 50a0 b33d 6478 973d 2a31 823c 44ce 3a3d
00000290: 461c 24bc 811c 123e bd32 4c3c 1b44 3b3e
000002a0: c2d7 2bbe 3db9 adbd 9e29 ba3d 06bb 093e
000002b0: 1bd4 8a3b 5ca1 f33d 518c 22be d81d 59be
000002c0: 6236 00be f879 bc3c abcf bd3d 9931 6e3d
000002d0: de03 3e3e 972c 6b3d 02d1 20be 1196 f73d
000002e0: d8e8 223e 7bf7 e83c 98d4 2c3d 90fc 593d
000002f0: 04fa b9bc 1c6c d2bd b356 83bd 0b98 c43d
00000300: e336 92bd 6b36 e2bc 5efb 41bd 5b68 46be
00000310: 44d9 233d 6084 ac3b a419 4a3d 5839 7c3d
00000320: d17a 41be f5cc 82bd f51c a23d 1efa b73d
00000330: a927 103e 9f92 02be e152 713d 8ec0 973d
00000340: 7b82 203c 028b df3d 231d 2e3e 9b9c 3fbd
00000350: e970 933d f168 a2bd 376f 31be 4ad5 a0bb
00000360: 0970 09be aa29 80bc ed44 23bc 6335 cbbd
00000370: edb2 07be 6840 afbd 9f75 673d 69ca f53c
00000380: c87e a9bd f659 37bd 0b21 5e3c d0a3 d43d
00000390: 8e11 20be fae0 30be baa9 3ebc 4331 013d
000003a0: 2d1f 25be a7a3 9f3d f9d2 b53d 7172 85bd
000003b0: c852 2c3d 6e26 10be fccb a43d 46c6 20bb
000003c0: 2f5b 2bbd 1741 07be 01a8 f83c 4f95 953d
000003d0: ba6f 8dbd 70db 7b3d c926 453c d41e efb9
000003e0: b475 623d c7c8 3a3d ba81 b3bd af6f d03d
000003f0: 67b0 153e f5a8 61bc 8d68 9c3c 0dd5 c3bd

gru.bias_ih_l0_reverse f4 [192]
-0.033867307 0.043534055 -0.06359039 0.019175546 -0.0044977684 0.013850592 0.015414633 -0.0069685625
-0.012129836 -0.03205287 0.026464168 -0.019407922 0.0054845344 0.019058758 0.010107737 -0.01695091
0.042547893 0.01176231 -0.03941675 0.024244519 -0.0023043999 -0.031180097 -0.0011417121 0.035041183
0.023212869 0.0147673255 -0.013656857 0.0032181274 0.039439585 -0.02524148 0.035003882 -0.004554775
0.04437368 -0.01091903 0.029492779 0.038091213 -0.022685891 0.036586415 -0.03424974 -0.06662481
0.02279289 0.08361788 0.035845537 -0.026125781 0.013561761 0.021538569 -0.00069619564 -0.009871299
0.02670628 -0.005518362 0.026296338 0.015648415 -0.0026402858 -0.012409724 -0.0050856886 0.027013233
0.05874018 0.020617893 0.035812892 0.023383882 0.010626657 -0.019726563 -0.0033501456 -0.020963913
-0.021327343 0.018981371 0.0049450817 -0.0042729373 0.0022586512 0.012380979 -0.007306621 0.01996744
-0.00034919722 -0.008596507 -0.0064526564 0.005142058 -0.0036860434 0.016826313 0.018898088 -0.039834563
0.0092245005 -0.061875798 0.02203069 0.07407941 -0.019327728 0.049801063 -0.023577457 0.013199383
-0.024423297 0.018260447 -0.02627836 -0.014683524 -0.012271059 -0.009042095 0.008410118 0.026000196
0.012136262 -0.04211246 0.04163594 -0.0015688292 0.0031405366 0.01361236 -0.037604917 0.008627347
0.0085339425 0.014608772 0.026934318 -0.0446126 -0.049005345 0.039613817 0.011113669 0.006787215
0.0012744435 -0.007505078 -0.013773604 0.007508028 0.015548669 0.0045455983 0.02781386 -0.016017186
0.012518585 0.017671414 -0.013797597 -0.017108789 0.019664899 -0.011467358 -0.024976851 0.008903913
0.017675718 -0.0025971157 0.010402577 -0.007091352 0.0028797244 -0.015059019 0.0033805924 -0.016766274
-0.0029965404 -0.01696115 -0.011543703 0.011455489 0.0067553753 -0.0048403735 -0.0048934263 -0.011953737
-0.002266149 0.022617433 -0.00019078364 0.04425889 0.0046175034 -0.022776004 -0.0014546072 0.014608052
0.0028629752 -0.013024588 0.0008122558 -0.00089866953 -0.00265464 -0.017860103 -0.020416588 0.024214271
0.0045289192 -0.009465883 0.0060046967 -0.015733892 0.0020516966 -0.017129874 -0.01914217 -0.002285209
0.011737534 -0.032257978 0.0032198355 -0.016231868 -0.027166542 0.003216386 -0.0074680513 -0.0027531718
0.011637223 0.011527884 -0.0027577328 -0.0007747331 0.013741182 0.0038605828 -0.014609338 -0.021446535
0.018215328 0.0068591926 0.012282361 0.008541208 0.012585371 0.022608507 0.03352375 -0.010707732
00000000: 72b8 0abd c450 323d ae3b 82bd 0916 9d3c
00000010: 0462 93bb 98ed 623c a88d 7c3c 8a58 e4bb
00000020: 38bc 46bc df49 03bd 62cb d83c 5dfd 9ebc
00000030: 9cb7 b33b 1d21 9c3c ec9a 253c a3dc 8abc
00000040: b346 2e3d b4b6 403c 7573 21bd 719c c63c
00000050: 6a05 17bb 676d ffbc 80a5 95ba 5887 0f3d
00000060: ea28 be3c a7f2 713c 03c1 5fbc 38e7 523b
00000070: 678b 213d 38c7 cebc 3b60 0f3d 3940 95bb
00000080: 2dc1 353d bbe5 32bc d79a f13c 8805 1c3d
00000090: c3d7 b9bc a3db 153d 7549 0cbd 9772 88bd
000000a0: 28b8 ba3c da3f ab3d c5d2 123d bc05 d6bc
000000b0: 2632 5e3c a771 b03c e680 36ba 3bbb 21bc
000000c0: 21c7 da3c 60d3 b4bb 6b6b d73c 1b31 803c
000000d0: a508 2dbb 2852 4bbc d9a5 a6bb db4a dd3c
000000e0: 8b99 703d dbe6 a83c 8ab0 123d 8e8f bf3c
000000f0: 6e1b 2e3c 9a99 a1bc 1e8e 5bbb 83bc abbc
00000100: aeb6 aebc d27e 9b3c 5a0a a23b ff03 8cbb
00000110: e105 143b 97d9 4a3c 616c efbb c292 a33c
00000120: 7514 b7b9 5dd8 0cbc ce70 d3bb b57e a83b
00000130: 8c91 71bb 56d7 893c 2ad0 9a3c 9129 23bd
00000140: 5c22 173c 7a71 7dbd b579 b43c f2b6 973d
00000150: 2f55 9ebc 33fc 4b3d 8325 c1bc 3a42 583c
00000160: 5e13 c8bc ef96 953c b745 d7bc 2a93 70bc
00000170: 8d0c 49bc 4c25 14bc 97ca 093c 5dfe d43c
00000180: 2cd7 463c 1d7e 2cbd 738a 2a3d 2ca1 cdba
00000190: 76d1 4d3b 6006 5f3c 9d07 1abd b759 0d3c
000001a0: f3d1 0b3c a159 6f3c 5ca5 dc3c b4bb 36bd
000001b0: d4b9 48bd 1942 223d 1b16 363c 4967 de3b
000001c0: 3a0b a73a 28ed f5bb afaa 61bc e705 f63b
000001d0: d8bf 7e3c 3ef3 943b e4d9 e33c 7936 83bc
000001e0: c01a 4d3c a4c3 903c 510f 62bc bb27 8cbc
000001f0: 4818 a13c 96e1 3bbc 419c ccbc b8e1 113c
00000200: abcc 903c 5f34 2abb 926f 2a3c 925e e8bb
00000210: c2b9 3c3b 1bba 76bc ee8c 5d3b 6d59 89bc
00000220: 9b61 44bb 1cf2 8abc cd21 3dbc ceaf 3b3c
00000230: 325c dd3b ff9b 9ebb 0959 a0bb 9bd9 43bc
00000240: ac83 14bb 3248 b93c 180d 48b9 cf48 353d
00000250: 6d4e 973b be94 babc 85a8 beba 9c56 6f3c
00000260: c1a0 3b3b 1565 55bc 90ed 543a b194 6bba
00000270: 78f9 2dbb 5a4f 92bc b040 a7bc 025d c63c
00000280: 5467 943b ca16 1bbc 0cc3 c43b 5de4 80bc
00000290: c275 063b f353 8cbc 0ad0 9cbc 72c3 15bb
000002a0: c94e 403c f120 04bd e003 533b b2f8 84bc
000002b0: 5e8c debc 01ca 523b 8eb6 f4bb 8f6e 34bb
000002c0: 0daa 3e3c 73df 3c3c 14bb 34bb 7517 4bba
000002d0: b222 613c d501 7d3b 015c 6fbc a5b0 afbc
000002e0: 5038 953c 14c3 e03b f53b 493c 6cf0 0b3c
000002f0: df32 4e3c 7a35 b93c 3350 093d 7c6f 2fbc

gru.bias_hh_l0_reverse f4 [192]
-0.033867307 0.043534055 -0.06359039 0.019175546 -0.0044977684 0.013850592 0.015414633 -0.0069685625
-0.012129836 -0.03205287 0.026464168 -0.019407922 0.0054845344 0.019058758 0.010107737 -0.01695091
0.042547893 0.01176231 -0.03941675 0.024244519 -0.0023043999 -0.031180097 -0.0011417121 0.035041183
0.023212869 0.0147673255 -0.013656857 0.0032181274 0.039439585 -0.02524148 0.035003882 -0.004554775
0.04437368 -0.01091903 0.029492779 0.038091213 -0.022685891 0.036586415 -0.03424974 -0.06662481
0.02279289 0.08361788 0.035845537 -0.026125781 0.013561761 0.021538569 -0.00069619564 -0.009871299
0.02670628 -0.005518362 0.026296338 0.015648415 -0.0026402858 -0.012409724 -0.0050856886 0.027013233
0.05874018 0.020617893 0.035812892 0.023383882 0.010626657 -0.019726563 -0.0033501456 -0.020963913
-0.021327343 0.018981371 0.0049450817 -0.0042729373 0.0022586512 0.012380979 -0.007306621 0.01996744
-0.00034919722 -0.008596507 -0.0064526564 0.005142058 -0.0036860434 0.016826313 0.018898088 -0.039834563
0.0092245005 -0.061875798 0.02203069 0.07407941 -0.019327728 0.049801063 -0.023577457 0.013199383
-0.024423297 0.018260447 -0.02627836 -0.014683524 -0.012271059 -0.009042095 0.008410118 0.026000196
0.012136262 -0.04211246 0.04163594 -0.0015688292 0.0031405366 0.01361236 -0.037604917 0.008627347
0.0085339425 0.014608772 0.026934318 -0.0446126 -0.049005345 0.039613817 0.011113669 0.006787215
0.0012744435 -0.007505078 -0.013773604 0.007508028 0.015548669 0.0045455983 0.02781386 -0.016017186
0.012518585 0.017671414 -0.013797597 -0.017108789 0.019664899 -0.011467358 -0.024976851 0.008903913
0.014462672 -1.8767658e-05 0.02049924 -0.0067855283 -0.004181187 -0.015874114 -0.0023191052 -0.016467463
0.0017620424 -0.014360642 -0.0073545203 0.01357716 0.0071530226 -0.00237518 -0.0003846969 -0.0107780425
-0.004248647 0.022109846 0.0014631959 0.047041304 0.007995219 -0.02180541 -0.0008204174 0.014130143
0.0047739693 -0.011034115 0.006634692 0.006409513 0.002542421 -0.016022302 -0.015298865 0.028234972
0.007208958 -0.013619607 0.0039790873 -0.014388796 0.0023487592 -0.018861588 -0.02414277 -0.004087837
0.011197147 -0.02401096 0.0035882578 -0.017362546 -0.02004055 0.0022505461 -0.00847407 -0.002189714
0.01385999 0.010869183 0.001225014 -0.0008668278 0.013388562 0.0014080962 -0.0150112705 -0.020999162
0.020975787 0.0066580144 0.009306863 -0.006528251 0.010396577 0.024831176 0.02837343 -0.00827871
00000000: 72b8 0abd c450 323d ae3b 82bd 0916 9d3c
00000010: 0462 93bb 98ed 623c a88d 7c3c 8a58 e4bb
00000020: 38bc 46bc df49 03bd 62cb d83c 5dfd 9ebc
00000030: 9cb7 b33b 1d21 9c3c ec9a 253c a3dc 8abc
00000040: b346 2e3d b4b6 403c 7573 21bd 719c c63c
00000050: 6a05 17bb 676d ffbc 80a5 95ba 5887 0f3d
00000060: ea28 be3c a7f2 713c 03c1 5fbc 38e7 523b
00000070: 678b 213d 38c7 cebc 3b60 0f3d 3940 95bb
00000080: 2dc1 353d bbe5 32bc d79a f13c 8805 1c3d
00000090: c3d7 b9bc a3db 153d 7549 0cbd 9772 88bd
000000a0: 28b8 ba3c da3f ab3d c5d2 123d bc05 d6bc
000000b0: 2632 5e3c a771 b03c e680 36ba 3bbb 21bc
000000c0: 21c7 da3c 60d3 b4bb 6b6b d73c 1b31 803c
000000d0: a508 2dbb 2852 4bbc d9a5 a6bb db4a dd3c
000000e0: 8b99 703d dbe6 a83c 8ab0 123d 8e8f bf3c
000000f0: 6e1b 2e3c 9a99 a1bc 1e8e 5bbb 83bc abbc
00000100: aeb6 aebc d27e 9b3c 5a0a a23b ff03 8cbb
00000110: e105 143b 97d9 4a3c 616c efbb c292 a33c
00000120: 7514 b7b9 5dd8 0cbc ce70 d3bb b57e a83b
00000130: 8c91 71bb 56d7 893c 2ad0 9a3c 9129 23bd
00000140: 5c22 173c 7a71 7dbd b579 b43c f2b6 973d
00000150: 2f55 9ebc 33fc 4b3d 8325 c1bc 3a42 583c
00000160: 5e13 c8bc ef96 953c b745 d7bc 2a93 70bc
00000170: 8d0c 49bc 4c25 14bc 97ca 093c 5dfe d43c
00000180: 2cd7 463c 1d7e 2cbd 738a 2a3d 2ca1 cdba
00000190: 76d1 4d3b 6006 5f3c 9d07 1abd b759 0d3c
000001a0: f3d1 0b3c a159 6f3c 5ca5 dc3c b4bb 36bd
000001b0: d4b9 48bd 1942 223d 1b16 363c 4967 de3b
000001c0: 3a0b a73a 28ed f5bb afaa 61bc e705 f63b
000001d0: d8bf 7e3c 3ef3 943b e4d9 e33c 7936 83bc
000001e0: c01a 4d3c a4c3 903c 510f 62bc bb27 8cbc
000001f0: 4818 a13c 96e1 3bbc 419c ccbc b8e1 113c
00000200: d8f4 6c3c 3d6f 9db7 06ee a73c 2359 debb
00000210: 5702 89bb 6e0a 82bc 21fc 17bb c6e6 86bc
00000220: 55f4 e63a e648 6bbc 30fe f0bb bd72 5e3c
00000230: e763 ea3b e8a8 1bbb 25b1 c9b9 6396 30bc
00000240: 3c38 8bbb b51f b53c b5c8 bf3a 62ae 403d
00000250: 61fe 023c 42a1 b2bc 4811 57ba 1e82 673c
00000260: f56e 9c3b 6fc8 34bc d567 d93b e406 d23b
00000270: bf9e 263b 3441 83bc 17a8 7abc 074d e73c
00000280: 1f39 ec3b c624 5fbc 0163 823b fcbe 6bbc
00000290: a4ed 193b 9e83 9abc 0fc7 c5bc 43f3 85bb
000002a0: 3d74 373c a2b2 c4bc fa28 6b3b e63b 8ebc
000002b0: 142c a4bc e67d 133b d3d6 0abc 4e81 0fbb
000002c0: 0315 633c a814 323c a690 a03a d43b 63ba
000002d0: b35b 5b3c de8f b83a d5f1 75bc 6f06 acbc
000002e0: 6ad5 ab3c 792b da3b d07b 183c f0ea d5bb
000002f0: 6856 2a3c c06a cb3c 656f e83c 6da3 07bc
