Pein/ckpt/class_on_detect.pth (torch, 32040 bytes, 16 tensors)

class_embedding.weight f4 [7, 4]
0	0xbc59f5a7	-0.013303197
1	0x3cbdb72a	0.023158628
2	0xbcab85d8	-0.020937845
3	0xbb40bc73	-0.00294092
4	0x3ca7c356	0.020478886
5	0x3caac7a1	0.020847144
6	0x3c84f4ef	0.016230075
7	0xbcadaf90	-0.021201879
8	0xbc86744a	-0.016412873
9	0x3d256804	0.0403824
10	0xbc51b35c	-0.01279911
11	0x3d05da56	0.032678925
12	0xbbad5c9b	-0.0052905804
13	0x3ca89067	0.020576669
14	0xbb1861ce	-0.0023251656
15	0x3cdef094	0.027214326
16	0xbc133728	-0.008985318
17	0x3d0c2cae	0.034222297
18	0xbc6fccc1	-0.0146362195
19	0x3c83133a	0.016000379
20	0x39534e8b	0.00020151788
21	0xbc84551e	-0.016153868
22	0xbbc4e485	-0.006008687
23	0xbbd5ecce	-0.0065284735
24	0x3a58a3e1	0.0008264166
25	0x3d28b350	0.04118663
26	0xbc2f2a86	-0.010691291
27	0xbbb3142b	-0.0054650507

layer_norm.weight f4 [9]
0	0x3f7daa48	0.99087954
1	0x3f83ad7d	1.028732
2	0x3f80a1d8	1.0049391
3	0x3f80d0e4	1.0063748
4	0x3f83ff83	1.0312351
5	0x3f83ffb1	1.0312406
6	0x3f8150e3	1.010281
7	0x3f8052c3	1.0025257
8	0x3f838dc6	1.0277641

layer_norm.bias f4 [9]
0	0xbcb47cb2	-0.022032116
1	0x3ce2d099	0.027687358
2	0xbc2d265c	-0.010568228
3	0x3c2a5698	0.010396622
4	0x3c84f42f	0.016229717
5	0x3cbd155b	0.023081472
6	0x3b556cc5	0.0032566052
7	0x3cc568e1	0.024097862
8	0x3d0120ef	0.03152555

gru.weight_ih_l0 f4 [48, 9]
0	0xbcf5e4a8	-0.030016258
1	0xbdf71562	-0.12064625
2	0xbd700f8c	-0.058608577
3	0xbd6676d2	-0.05626566
4	0xbc277a00	-0.010221958
5	0xbe33b771	-0.17550446
6	0xbe8f3521	-0.27970222
7	0x3e4601b0	0.19336581
8	0x3e6de812	0.23233059
9	0x3e985831	0.29754785
10	0xbe83e5c7	-0.25761244
11	0x3e8c6e8c	0.2742809
12	0x3eae6979	0.34064844
13	0xbddd5f22	-0.10809161
14	0x3e39a868	0.18130648
15	0xbe19d4dc	-0.15022606
16	0x3caa6cdd	0.020803863
17	0xbe1b9ee4	-0.1519733
18	0xbe8f6b31	-0.28011468
19	0xbe07ba4c	-0.1325466
20	0xbeb3473b	-0.35015282
21	0xbe831388	-0.2560084
22	0x3e9366dc	0.28789413
23	0xbe8bcde6	-0.27305526
24	0xbd95e255	-0.0731856
25	0x3c2fc553	0.010728198
26	0xbe1447bb	-0.14480488
27	0x3e9ce27b	0.3064154
28	0x3ea1dce3	0.31613836
29	0xbded2129	-0.115785904
30	0x3e584458	0.21119821
31	0x3c9ba839	0.019001113
32	0xbe07a614	-0.13246948
33	0x3cd464d4	0.025926985
34	0xbd90c2fe	-0.07068442
35	0x3e384857	0.17996345
36	0xbe5740ae	-0.21020767
37	0xbde5a7a0	-0.112136126
38	0x3e9b1c1c	0.30294883
39	0x3e0b94c3	0.13630967
40	0x3e2c7c93	0.16844396
41	0x3e215ea5	0.1575876
42	0xbd69bf43	-0.057067167
43	0xbd48cf41	-0.049025778
44	0x3d2ba1f3	0.041902494
45	0x3e985d41	0.29758647
46	0xbd56f602	-0.052480705
47	0x3d485e47	0.048918035
48	0xbda147df	-0.078750364
49	0x3d3b0634	0.045660213
50	0xbe2afd07	-0.16698085
51	0x3ddba09f	0.107239954
52	0xbdf8de30	-0.12151754
53	0x3ce3a8d1	0.027790459
54	0xbe159f53	-0.14611559
55	0x3ea3deb7	0.32005855
56	0xbe86389a	-0.2621506
57	0x3e4070d0	0.18793035
58	0x3e4babbb	0.19889729
59	0xbe5db80f	-0.21652244
60	0xbeafa740	-0.3430729
61	0x3e06bc75	0.13157828
62	0x3eb47d83	0.35252008
63	0xbda2b49a	-0.07944603
64	0xbe1d22e5	-0.15345342
65	0x3e471680	0.19442177
66	0x3d937ffc	0.072021455
67	0xbcaa9dd9	-0.02082722
68	0xbe846432	-0.25857693
69	0xbea0d7d4	-0.31414664
70	0x3cbd4095	0.023102084
71	0x3e26dee3	0.16295962
72	0x3e2d1135	0.16901095
73	0x3e4463eb	0.1917874
74	0x3e8e1e60	0.2775755
75	0x3c594b80	0.0132626295
76	0x3e05724b	0.1303188
77	0xbe3faba6	-0.18717822
78	0xbe8edc34	-0.27902377
79	0xbe3cdbc3	-0.18443207
80	0x3e8bb77e	0.2728843
81	0x3e030d61	0.12798072
82	0xbdebd2b9	-0.115148015
83	0xbe47d25d	-0.19513841
84	0x3d702514	0.05862911
85	0xbd1fc261	-0.039003734
86	0xbe82a6a7	-0.2551777
87	0x3e000902	0.12503436
88	0x3d77bb36	0.060481273
89	0xbdbbe947	-0.091753535
90	0xbd6d3cfa	-0.05791948
91	0xbea862fa	-0.32888013
92	0x3d6099df	0.054834243
93	0x3e5955bb	0.2122411
94	0x3d03e29a	0.032198526
95	0x3d3cc191	0.046083037
96	0xbd2542b1	-0.040346805
97	0x3e1f2f88	0.15545475
98	0xbe90b743	-0.28264818
99	0xbd0b6ddc	-0.034040317
100	0x3eb03d94	0.3442198
101	0x3e224077	0.15844904
102	0x3d7d40cc	0.061829373
103	0xbe7e867d	-0.2485599
104	0x3e39f64c	0.18160361
105	0xbe7555b8	-0.2395848
106	0x3e8ad1c4	0.27113163
107	0xbe14881f	-0.14505051
108	0xbe2be3d6	-0.16786131
109	0xbdc642f0	-0.09680736
110	0xbe8d8386	-0.27639407
111	0xbe8e9748	-0.27849793
112	0xbea7f99c	-0.32807624
113	0x3e566a93	0.20939092
114	0x3dc6858a	0.09693439
115	0xbe6b0df2	-0.22954538
116	0x3e828e40	0.25499153
117	0x3bec5654	0.0072124396
118	0x3e8f6d7a	0.2801321
119	0xbc73edd8	-0.014888249
120	0xbe680594	-0.22658378
121	0x3dbff0bf	0.093720905
122	0x3e0a70b7	0.1351956
123	0x3e88be2c	0.2670759
124	0x3dddef78	0.10836691
125	0xbd9f08a3	-0.07765319
126	0x3aa7c04d	0.0012798399
127	0x3e0cdcdb	0.13756125
128	0xbe2de7c1	-0.16982938
129	0x3e1ff727	0.15621625
130	0xbe807fc8	-0.2509749
131	0xbe151597	-0.14559017
132	0x3e368cfe	0.17827222
133	0xbc7300a5	-0.014831697
134	0x3e847fec	0.25878847
135	0x3e1289db	0.143104
136	0xbe978332	-0.29592282
137	0x3e92454e	0.285685
138	0x3e87eea8	0.26549268
139	0x3e7326a2	0.23745206
140	0xbe5594a9	-0.2085749
141	0xbdeedf6b	-0.11663707
142	0xbe9861c9	-0.29762104
143	0x3d191f8d	0.037383605
144	0xbe9f0092	-0.31055123
145	0x3e9a15f4	0.30094874
146	0x3bb81aaa	0.005618413
147	0xbdc779c4	-0.09740022
148	0xbcda0bc1	-0.026616933
149	0x3e676145	0.22595699
150	0x3e4c6e3e	0.19963929
151	0xbd7fb572	-0.0624289
152	0xbe4800b6	-0.19531521
153	0xb998ec74	-0.0002916787
154	0x3b0fd52e	0.0021947133
155	0xbdca5b57	-0.09880703
156	0x3d8da86c	0.069168895
157	0x3df24ba2	0.11830832
158	0x3d981c4e	0.07427274
159	0x3e30f6e8	0.17281687
160	0x3dad8005	0.084716834
161	0xbcbcf557	-0.023066206
162	0xbd21079f	-0.03931391
163	0x3e94d741	0.29070476
164	0x3dda7509	0.10666854
165	0xbe3d7ffd	-0.18505855
166	0xbce78dc3	-0.02826584
167	0xbe0c40a9	-0.13696541
168	0x3dbb88f5	0.09156982
169	0xbe0bcefd	-0.13653179
170	0x3d71264c	0.058874413
171	0x3c26f7b4	0.010190893
172	0x3e77452b	0.24147479
173	0xbe2d515c	-0.16925567
174	0xbe945762	-0.28972918
175	0x3ddf454d	0.1090189
176	0x3e9b02eb	0.30275664
177	0xbe9e93ef	-0.3097224
178	0x3d8d1947	0.06889587
179	0x3da4be1a	0.080440715
180	0x3e98dd44	0.29856312
181	0xbe9f1715	-0.31072298
182	0xbdb25c42	-0.08709003
183	0xbe381ec8	-0.17980492
184	0x3e25ec13	0.16203336
185	0x3b8b61b9	0.004253593
186	0x3e430464	0.19044644
187	0xbc73ed09	-0.014888057
188	0x3dde35a3	0.10850074
189	0x3e53585d	0.20639177
190	0xbdb741e4	-0.089481145
191	0xbda8dcdd	-0.08245251
192	0xbe1879da	-0.14890233
193	0x3ea7d5ee	0.32780403
194	0x3925a006	0.0001579524
195	0x3cdf54b8	0.027262077
196	0xbd752571	-0.05985016
197	0xbeaff3e0	-0.3436575
198	0xbe981bd4	-0.2970873
199	0xbbe0c962	-0.006859944
200	0xbe5b7c5f	-0.21434163
201	0x3e85842a	0.26077396
202	0xbe877784	-0.2645837
203	0x3ea78c4a	0.3272422
204	0xbe926eb5	-0.28600088
205	0xbe892f4b	-0.26793894
206	0xbe95378d	-0.29143944
207	0x3e0787aa	0.13235345
208	0x3e4dc448	0.20094407
209	0x3e0537a1	0.13009502
210	0x3e9ea7f4	0.30987513
211	0xbe516291	-0.20447756
212	0x3e4dfac6	0.20115194
213	0x3e56b32a	0.20966783
214	0xbe521991	-0.20517565
215	0x3c61e99c	0.013788607
216	0xbe4d8d25	-0.20073374
217	0xbe9a7fea	-0.30175716
218	0xbeae8079	-0.34082392
219	0x3e906d82	0.28208548
220	0xbeaa37fa	-0.33245832
221	0x3e95da93	0.2926832
222	0x3ea36188	0.31910348
223	0x3d6e9ab9	0.058253024
224	0x3e863e05	0.26219192
225	0xbe844d68	-0.25840306
226	0x3d803a15	0.06261078
227	0x3e1791be	0.1480169
228	0xbeabcdff	-0.335556
229	0x3df2e0ac	0.11859259
230	0x3e504926	0.20340404
231	0x3e32c356	0.17457327
232	0xbe302216	-0.17200503
233	0x3e82800f	0.25488326
234	0xbde866e8	-0.11347753
235	0x3e375e9c	0.17907184
236	0xbda0b0cf	-0.078462236
237	0xbd64cd51	-0.055859867
238	0xbeb265a8	-0.34843183
239	0xbe05b379	-0.13056745
240	0x3e4bcffc	0.19903558
241	0xbe884c92	-0.2662092
242	0x3e0dfb19	0.13865317
243	0xbe1fb427	-0.15596066
244	0xbe72f4e9	-0.23726238
245	0xbba25289	-0.0049536866
246	0xbe66afec	-0.22528046
247	0x3e20f929	0.15720047
248	0x3e950e4d	0.29112473
249	0x3e3dd65f	0.18538807
250	0x3e07d50f	0.13264869
251	0xbe991b09	-0.2990344
252	0x3e1b954a	0.15193668
253	0xbbe0312f	-0.0068418006
254	0xbe9cd510	-0.30631304
255	0x3e8fb234	0.28065646

gru.weight_hh_l0 f4 [48, 16]
0	0xbe17a064	-0.14807278
1	0xbd3a44d8	-0.04547581
2	0x3dec3ffd	0.11535642
3	0xbdd1fdaa	-0.10253461
4	0x3dcb10e3	0.0991533
5	0xbec24f1b	-0.37950978
6	0x3e2358a0	0.15951777
7	0x3bf53592	0.0074831927
8	0x3de9a8ca	0.11409147
9	0x3dc56d2e	0.09639965
10	0x3e93af38	0.2884462
11	0xbd26b12b	-0.040696304
12	0xbe084831	-0.13308789
13	0xbe124c48	-0.14286911
14	0x3de1142c	0.109901756
15	0x3e31b893	0.17355566
16	0xbce07b90	-0.02740267
17	0x3e0ff8f3	0.1405981
18	0x3d695bf9	0.056972478
19	0x3de589cb	0.112079225
20	0x3ca9332e	0.020654287
21	0x3e8cfb41	0.27535442
22	0x3d4570d6	0.04820331
23	0xbe8fdd07	-0.28098318
24	0x3ecbf80d	0.39837685
25	0x3b360421	0.0027773457
26	0x3e373c63	0.1789413
27	0xbd9024ed	-0.07038293
28	0x3c7e28ad	0.015512628
29	0xbe5ea657	-0.21743141
30	0x3e474746	0.19460782
31	0x3db57ba1	0.08861471
32	0x3dfe6a15	0.12422577
33	0x3d1b3e04	0.03790094
34	0xbc48a4d7	-0.012246332
35	0xbe3ad9cd	-0.18247147
36	0x3e08968b	0.13338678
37	0x3e7a92be	0.2447004
38	0xbdec4189	-0.11535937
39	0xbdf0dc4c	-0.11760768
40	0xbe128ef4	-0.14312345
41	0xbe741df8	-0.23839557
42	0x3e72cfdd	0.23712106
43	0xbd165e16	-0.03671082
44	0xbd15739b	-0.036487203
45	0xbc5b4942	-0.013384165
46	0x3e533bf7	0.20628344
47	0x3e11ab83	0.14225583
48	0x3e18e22c	0.14930028
49	0x3dd578f4	0.104234606
50	0xbdf1a3b7	-0.11798804
51	0xbd429deb	-0.047513884
52	0xbe2703e9	-0.16310085
53	0x3da3b1c1	0.07992888
54	0xbdf60943	-0.12013485
55	0xbe54af3c	-0.20769972
56	0xbd1123a3	-0.035434376
57	0x3dfabe81	0.12243367
58	0x3bfe4d1c	0.007760657
59	0x3d85153e	0.06498192
60	0xbe0d214f	-0.13782237
61	0xbc709bd1	-0.014685587
62	0xbd8c52a3	-0.06851699
63	0xbd9fdccb	-0.07805785
64	0xbdb95fd6	-0.090514824
65	0xbeaf46d0	-0.34233713
66	0x3e07133f	0.13190936
67	0xbd1478a7	-0.036247876
68	0xbd504529	-0.050847206
69	0xbccacb48	-0.024755135
70	0xbdfb8a48	-0.122822344
71	0x3dce038a	0.10059269
72	0x3d47887b	0.048714142
73	0xbd955eef	-0.07293498
74	0xba416909	-0.0007378017
75	0xbd21b77c	-0.039481625
76	0xbdb88605	-0.09009937
77	0xbe7a6e0e	-0.24456045
78	0x3dc51b54	0.09624353
79	0xbd94b3d5	-0.07260863
80	0xbc44db42	-0.012015166
81	0xbe229416	-0.15876803
82	0x3e1097d8	0.14120424
83	0x3c93ad9d	0.018027121
84	0xbe860fb8	-0.26183867
85	0x3e11363c	0.14180845
86	0x3e923d3b	0.2856234
87	0x3cf2ad81	0.029623749
88	0x3e8f1c2c	0.2795118
89	0xbe370951	-0.17874648
90	0xbd2d2573	-0.042272042
91	0xbd9ac033	-0.0755619
92	0x3d8e5572	0.06949891
93	0x3cf14ee7	0.029456569
94	0x3e995c1f	0.29953095
95	0xbc048970	-0.008089408
96	0xbdb5afb8	-0.08871406
97	0x3d7024be	0.05862879
98	0x3e10d1e1	0.14142562
99	0x3ea5a6c8	0.32353806
100	0x3ce681bd	0.028138036
101	0x3dab9e34	0.08379784
102	0x3e08e36e	0.13368008
103	0x3c46c69d	0.012132314
104	0xbccc52b9	-0.024941789
105	0xbd88d490	-0.06681168
106	0x3e36db03	0.17856984
107	0x3b8cb785	0.004294338
108	0xbd68a172	-0.05679459
109	0x3dbebd09	0.09313399
110	0xbe1edd48	-0.155141
111	0xbe0d73aa	-0.13813654
112	0x3e7525da	0.2394022
113	0xbe15bbf2	-0.14622477
114	0xbe90e4eb	-0.2829965
115	0x3cf8ef85	0.03038765
116	0x3dd92622	0.106029764
117	0x3ba2d1ff	0.004968881
118	0x3ce4b3f1	0.027917834
119	0xbe18562e	-0.14876625
120	0xbddfc890	-0.10926926
121	0x3da0acd9	0.07845468
122	0x3dbfa22f	0.09357106
123	0x3e2e5fcd	0.17028733
124	0x3db8beb3	0.09020748
125	0xbe956038	-0.29174972
126	0x3ea69862	0.32538134
127	0xbc1c04d4	-0.0095226355
128	0x3c7f06bd	0.015565571
129	0x3d9d93a1	0.076941736
130	0x3e81958e	0.25309414
131	0xbe383916	-0.17990527
132	0xbcdb0a86	-0.026738416
133	0xbd4aa1ea	-0.04947082
134	0xbc557dbe	-0.013030468
135	0x3da77a2d	0.081776
136	0x3d8243a9	0.063605614
137	0xbe16152e	-0.14656517
138	0xbc8171f2	-0.015801404
139	0x3d9f9ff2	0.07794179
140	0x3e44c8f7	0.19217287
141	0xbe12d606	-0.14339456
142	0xbe8d3305	-0.27577987
143	0x3dc66fff	0.0968933
144	0xbd9ac1bd	-0.07556484
145	0x3e047bcb	0.12937848
146	0xbd52eca4	-0.05149521
147	0x3e420b69	0.18949665
148	0x3e14e319	0.14539756
149	0xbe65a442	-0.2242594
150	0x3eb8912c	0.36048257
151	0xbd25b44c	-0.040455148
152	0xbd5d443b	-0.054020148
153	0xbe7c5ff8	-0.24645984
154	0x3dc12ecf	0.09432756
155	0x3da61775	0.08109943
156	0xbdd1f274	-0.102513224
157	0xbde11d81	-0.109919555
158	0x3d6059d3	0.054773163
159	0xbd80c5e2	-0.06287743
160	0xbe16ef8c	-0.14739817
161	0xbda2e4b1	-0.07953776
162	0xbde00e94	-0.109402806
163	0x3dcc2f85	0.09970001
164	0xbddbaaa4	-0.107259065
165	0x3d9b9428	0.07596618
166	0xbcca674a	-0.024707455
167	0xbdcd6516	-0.10029046
168	0xbdb0479b	-0.08607408
169	0x3e9eddcc	0.31028593
170	0x3e2b38f8	0.1672095
171	0xbd9156b0	-0.070966125
172	0x3e359101	0.17731096
173	0x3dabe854	0.083939224
174	0x3e15dac3	0.14634232
175	0x3c6c0846	0.014406269
176	0xbd421eb1	-0.04739255
177	0xbd8f5962	-0.0699947
178	0xbdc5aec0	-0.096524715
179	0xbe292d07	-0.16521083
180	0xbde0c166	-0.10974388
181	0xbcb8ee27	-0.022574497
182	0xbdee6fbc	-0.116424054
183	0x3e50dfbd	0.2039785
184	0x3d4066ab	0.04697291
185	0xbcbdedc9	-0.023184674
186	0x3e5f56f8	0.2181052
187	0xbe57978a	-0.21053901
188	0x3e1efef4	0.15526944
189	0x3d30487d	0.04303788
190	0x3dcebe5a	0.100949004
191	0xbcb00054	-0.021484531
192	0x3ee46091	0.44604924
193	0x3ddaadda	0.10677691
194	0x3d561d18	0.05227384
195	0xbde37d9e	-0.11107944
196	0xbdb8e289	-0.09027583
197	0xbe919959	-0.28437307
198	0x3ce8b32d	0.02840575
199	0xbc636373	-0.013878691
200	0xbe09dc0f	-0.13462852
201	0x3e23d723	0.16000037
202	0x3dbb64ea	0.09150107
203	0xbe0d2aec	-0.13785905
204	0x3dd2ee7a	0.10299392
205	0x3d9718a6	0.07377748
206	0xbda91e3c	-0.0825772
207	0x3d7233c8	0.059131414
208	0x3cfb3fd4	0.030670084
209	0xbe18c914	-0.14920455
210	0x3dcbc839	0.09950299
211	0xbe1cda2e	-0.15317604
212	0x3e09756a	0.13423696
213	0xbdbff0d4	-0.09372106
214	0x3c407cf6	0.011748543
215	0xbcffd274	-0.031228282
216	0x3ca2d835	0.019878486
217	0x3d381533	0.044942092
218	0xbe00c1ec	-0.12573975
219	0xbea66527	-0.32499048
220	0xbd7379aa	-0.0594422
221	0x3e347858	0.17624032
222	0x3e0733af	0.1320331
223	0x3d518bc8	0.051158696
224	0xbd0e77c8	-0.0347822
225	0xbc6efa26	-0.014586007
226	0x3bf81054	0.007570306
227	0x3d39a9a2	0.04532779
228	0xbe8e7d43	-0.27829942
229	0xbdde081b	-0.1084139
230	0x3e42deb9	0.19030274
231	0xbe5e5dc8	-0.21715462
232	0xbd3939d0	-0.04522115
233	0xbd72d667	-0.0592865
234	0x3c893eda	0.016753603
235	0xbe26386d	-0.16232462
236	0xbd34124a	-0.043962754
237	0xbde39a4e	-0.11113416
238	0x3bba88ec	0.005692592
239	0xbe86fb2d	-0.26363507
240	0xba930e93	-0.0011219553
241	0xbd8d786f	-0.069077365
242	0xbdf3d1d0	-0.11905253
243	0xbe7bf1b1	-0.24603917
244	0xbcb46adc	-0.02202361
245	0x3e1bec2c	0.15226811
246	0xbdd1854d	-0.10230503
247	0xbe88c930	-0.26715994
248	0x3d9b09cc	0.07570228
249	0xbe6f38e0	-0.2336154
250	0xbdd776ec	-0.105207294
251	0xbe2391d6	-0.15973601
252	0xbd4c174f	-0.049826916
253	0xbe894282	-0.26808554
254	0xbe3d6e60	-0.18499136
255	0x3e060bf9	0.13090505

gru.bias_ih_l0 f4 [48]
0	0xbcd8fc06	-0.026487362
1	0xbced8a24	-0.028996535
2	0xbceb5367	-0.028726293
3	0xbbabd503	-0.005243899
4	0x3c7848a8	0.015154041
5	0x3c910806	0.017704021
6	0x3d0064ec	0.031346247
7	0x3b625e98	0.0034541246
8	0xbcdf83e8	-0.027284577
9	0x3c412507	0.011788613
10	0x3c7b0640	0.015321314
11	0x3cf11f36	0.029433828
12	0xbc527a19	-0.012846493
13	0xba91512f	-0.0011086817
14	0xbc9fbf8c	-0.019500516
15	0xbca56f35	-0.02019463
16	0x3c99fba6	0.018796753
17	0xbceb5e1d	-0.0287314
18	0xbcf5a5c4	-0.02998627
19	0x3c5efe0e	0.013610376
20	0xbc8e05b0	-0.017336696
21	0xbc890ae4	-0.016728826
22	0xbcd92265	-0.026505658
23	0x3ce053cc	0.027383707
24	0xbcb86ca8	-0.022512749
25	0x3ce87425	0.028375695
26	0x3c4a907c	0.012363549
27	0xbcbb0980	-0.022831678
28	0xbb6192cd	-0.0034419775
29	0x3a3babf1	0.0007159105
30	0x3ccfda92	0.025372777
31	0xbccd605f	-0.025070367
32	0x3c850a47	0.016240252
33	0x3cf46a5a	0.029835869
34	0x3ceee2c8	0.029160872
35	0xbc3f42fc	-0.011673685
36	0x3c627864	0.013822649
37	0x3c3a514c	0.011371922
38	0x3cdf9575	0.027292946
39	0xbb15d0e0	-0.0022860095
40	0x3ce56961	0.02800435
41	0xbce62869	-0.028095441
42	0xbc738f58	-0.014865719
43	0x3c8af321	0.016961636
44	0x3c8e8b49	0.0174004
45	0xba35db7f	-0.00069373095
46	0xbcbf2de7	-0.023337318
47	0x3ccb7c48	0.024839535

gru.bias_hh_l0 f4 [48]
0	0xbcd8fc06	-0.026487362
1	0xbced8a24	-0.028996535
2	0xbceb5367	-0.028726293
3	0xbbabd503	-0.005243899
4	0x3c7848a8	0.015154041
5	0x3c910806	0.017704021
6	0x3d0064ec	0.031346247
7	0x3b625e98	0.0034541246
8	0xbcdf83e8	-0.027284577
9	0x3c412507	0.011788613
10	0x3c7b0640	0.015321314
11	0x3cf11f36	0.029433828
12	0xbc527a19	-0.012846493
13	0xba91512f	-0.0011086817
14	0xbc9fbf8c	-0.019500516
15	0xbca56f35	-0.02019463
16	0x3c99fba6	0.018796753
17	0xbceb5e1d	-0.0287314
18	0xbcf5a5c4	-0.02998627
19	0x3c5efe0e	0.013610376
20	0xbc8e05b0	-0.017336696
21	0xbc890ae4	-0.016728826
22	0xbcd92265	-0.026505658
23	0x3ce053cc	0.027383707
24	0xbcb86ca8	-0.022512749
25	0x3ce87425	0.028375695
26	0x3c4a907c	0.012363549
27	0xbcbb0980	-0.022831678
28	0xbb6192cd	-0.0034419775
29	0x3a3babf1	0.0007159105
30	0x3ccfda92	0.025372777
31	0xbccd605f	-0.025070367
32	0x3ca2e19a	0.019882966
33	0x3cf31f9a	0.029678155
34	0x3cebacb4	0.028768875
35	0xbc3fbb68	-0.011702396
36	0x3c5c8ad6	0.013460835
37	0x3c4d51bd	0.012531695
38	0x3ce33a95	0.027737895
39	0xbb010c06	-0.0019691004
40	0x3ce50380	0.02795577
41	0xbce16ec4	-0.027518637
42	0xbc79e4a8	-0.01525227
43	0x3c94ca3c	0.01816284
44	0x3c9182b8	0.017762527
45	0xba743c23	-0.00093168224
46	0xbcb2d669	-0.021830754
47	0x3cc87110	0.024467975

gru.weight_ih_l0_reverse f4 [48, 9]
0	0xbe8547c6	-0.2603132
1	0xbe58dc92	-0.21177891
2	0xbd5bb022	-0.05363477
3	0xbe6693c3	-0.22517304
4	0x3e7835ab	0.24239223
5	0xbde5dec3	-0.11224129
6	0xbdd5c021	-0.10437036
7	0xbe95dfd2	-0.29272324
8	0x3e3772f9	0.17914952
9	0x3e6bee54	0.23040134
10	0x3e2b54bb	0.16731541
11	0xbe0a81db	-0.13526098
12	0x3d869239	0.065708585
13	0xbcefd278	-0.029275164
14	0xbe527933	-0.20554046
15	0x3d98bed8	0.074582756
16	0xbd800c3d	-0.06252334
17	0x3dcb9c6e	0.09941946
18	0x3e42fe46	0.1904231
19	0x3e857eba	0.26073247
20	0xbe88b2f9	-0.26699045
21	0xbe9fdb82	-0.3122216
22	0x3c77540f	0.015095725
23	0x3daebf90	0.085326314
24	0x3e9bbe54	0.30418646
25	0xbd1f9cbb	-0.03896783
26	0x3e35e66d	0.17763682
27	0x3e875c21	0.26437476
28	0x3e082b5d	0.13297792
29	0xbe16a77b	-0.14712326
30	0x3ca0d764	0.019633956
31	0x3e00fecd	0.12597199
32	0xbe7a3cb4	-0.24437219
33	0x3e7f83de	0.24952647
34	0xbd11bad6	-0.03557857
35	0x3d8dc58d	0.069224454
36	0xbe9ab9e4	-0.30219948
37	0xbe477b35	-0.19480594
38	0xbea2bf08	-0.3178637
39	0x3e4167c0	0.18887234
40	0x3e879d05	0.26486984
41	0x3e91991a	0.2843712
42	0xbe565f61	-0.20934822
43	0x3e2c7c26	0.16844234
44	0x3df01624	0.11722973
45	0x3d1d02cb	0.03833274
46	0x3e13e21c	0.14441723
47	0xbe368a5c	-0.17826217
48	0x3e926750	0.28594446
49	0x3e804552	0.25052887
50	0x3dafe59b	0.08588716
51	0xbcf05686	-0.029338133
52	0x3e8a1c15	0.2697455
53	0xbd16bae8	-0.03679934
54	0x3e06f694	0.1318
55	0xbdb8eca8	-0.090295136
56	0x3c01f833	0.00793271
57	0x3e20ea0e	0.15714285
58	0x3d88e192	0.06683649
59	0x3e2d8f01	0.16949083
60	0x3e914330	0.28371572
61	0x3c84565b	0.016154459
62	0x3e866e30	0.2625594
63	0x3e1ae884	0.1512776
64	0xbe0e10f4	-0.13873655
65	0x3e88cfda	0.26721078
66	0xbcca12c7	-0.024667157
67	0x3e1a0f4d	0.150449
68	0xbca634d4	-0.020288862
69	0x3d572241	0.0525229
70	0x3e0ef717	0.13961445
71	0x3e539521	0.20662357
72	0x3e9a3f35	0.30126348
73	0x3d77f166	0.06053295
74	0x3dc324fb	0.09528538
75	0xbe5d6679	-0.21621121
76	0xbe2a2411	-0.1661532
77	0xbd8cb6c9	-0.06870801
78	0x3e03be05	0.12865455
79	0xbdf5a8e6	-0.119951054
80	0x3dcc163a	0.09965177
81	0xbe451e2b	-0.1924979
82	0x3e570e23	0.21001486
83	0x3ea38198	0.3193481
84	0x3d025005	0.031814594
85	0xbe871989	-0.2638667
86	0xbe46b9b9	-0.19406785
87	0xbd4360f0	-0.04769987
88	0x3ca57c02	0.020200733
89	0xbd71bbf5	-0.05901714
90	0xbe9e116e	-0.30872673
91	0x3e620fe7	0.22076379
92	0x3e972d13	0.29526576
93	0xbe7df2b7	-0.2479962
94	0x3e566fb0	0.20941043
95	0x3e18d0cc	0.149234
96	0xbe9c8bf6	-0.30575532
97	0xbdf7cf4b	-0.12100085
98	0xbe7e2e0f	-0.24822257
99	0x3e8e9475	0.2784764
100	0x3d88fb54	0.06688562
101	0xbe07f821	-0.13278247
102	0x3cbd090e	0.023075607
103	0xbdd071f8	-0.10177988
104	0x3e97e956	0.2967021
105	0x3d842657	0.06452625
106	0x3e5b5c17	0.21421848
107	0xbe10cfc5	-0.14141758
108	0xbdce70c9	-0.10080106
109	0xbe0be85e	-0.1366286
110	0xbe33bdc2	-0.17552856
111	0xbe92b7dd	-0.28655902
112	0x3e609933	0.21933441
113	0xbd01219e	-0.0315262
114	0xbe869ea3	-0.26292905
115	0xbe14e8ee	-0.1454198
116	0xbe2ac74c	-0.16677588
117	0x3de12a9c	0.10994455
118	0x3da22a90	0.079182744
119	0x3dc2c4d3	0.095101975
120	0xbe71dfb1	-0.23620488
121	0x3c656af0	0.014002547
122	0xbc579292	-0.013157504
123	0x3e759ecb	0.23986356
124	0x3e570d0a	0.21001068
125	0x3ea6eab9	0.32600954
126	0x3e36d9d8	0.17856538
127	0xbd159978	-0.036523312
128	0x3e66f3ff	0.22554015
129	0xbdad7f03	-0.08471491
130	0x3e00d4d8	0.12581193
131	0xbbdcef04	-0.00674236
132	0x3e19033b	0.14942639
133	0x3e0f6c36	0.14006123
134	0xbdc060c9	-0.0939346
135	0xbe28a62a	-0.16469637
136	0x3e4f84f9	0.20265569
137	0x3e0bc340	0.136487
138	0xbe5f8678	-0.2182864
139	0x3d7a1927	0.061059143
140	0xbe9a57d2	-0.30145127
141	0x3e127a4e	0.14304468
142	0x3e7aefab	0.24505489
143	0x3eb30127	0.34961817
144	0x3d7c0069	0.06152383
145	0xbd9f5740	-0.077803135
146	0x3e319687	0.17342578
147	0xbe09ad1f	-0.13444947
148	0x3e220f12	0.15826061
149	0xbe476aa6	-0.19474277
150	0xbdf0955c	-0.11747238
151	0xbea48d9b	-0.32139286
152	0x3e303312	0.17206982
153	0xbe8a75b1	-0.27042916
154	0xbbf5a495	-0.0074964263
155	0x3d4ce348	0.05002144
156	0x3e3888ae	0.18020889
157	0xbdff2997	-0.124591045
158	0x3ca4fb0d	0.020139242
159	0x3e9f054e	0.31058735
160	0xbe824918	-0.2544639
161	0x3e64fb7f	0.22361563
162	0xbd17305f	-0.036911365
163	0xbd6705e1	-0.05640209
164	0x3e5fa32e	0.21839592
165	0x3d6e2490	0.058140337
166	0x3e1337cf	0.14376758
167	0x3e8070bd	0.25086012
168	0x3c83192d	0.016003216
169	0xbe21ac13	-0.15788297
170	0xbd9cf8bc	-0.0766463
171	0xbe028c25	-0.12748773
172	0x3deb53a7	0.11490565
173	0x3e92e565	0.2869064
174	0xbe4754f5	-0.19466002
175	0xbe848fcd	-0.2589096
176	0xbe090d5c	-0.13384002
177	0xbd0943a2	-0.033511765
178	0xbe974e5d	-0.29551974
179	0xbe029421	-0.12751819
180	0x3d8a92a0	0.06766248
181	0x3e998461	0.2998381
182	0x3dbcd171	0.09219635
183	0xbe048a1e	-0.12943313
184	0x3db84f86	0.08999543
185	0xbe435b24	-0.19077736
186	0x3e2c1e5d	0.16808458
187	0x3e964b7a	0.2935446
188	0xbd9eb305	-0.07748989
189	0xbe2e7940	-0.1703844
190	0xbe3ed4ea	-0.18635908
191	0xbe6f8bab	-0.23393123
192	0xbe27defa	-0.16393653
193	0xbc4cb378	-0.012493961
194	0x3e953d6c	0.29148424
195	0x3e598cd8	0.21245134
196	0xbe745886	-0.23861894
197	0xbdfffe8d	-0.124997236
198	0xbdc08ff9	-0.094024606
199	0x3e6a3d40	0.22874928
200	0x3e448e38	0.19194877
201	0xbe2b43e0	-0.16725111
202	0xbe5e2dd1	-0.21697165
203	0xbd0ba75f	-0.034095164
204	0x3dabbd91	0.08385766
205	0xbe8644e7	-0.26224443
206	0xbd135e22	-0.035978444
207	0xbdb84b1f	-0.08998703
208	0xbe80b3a5	-0.25137058
209	0xbc981636	-0.018565279
210	0xbe2ff997	-0.17185055
211	0xbe177bbc	-0.14793295
212	0xbe0b13f5	-0.13581832
213	0x3df15775	0.11784259
214	0x3e656725	0.22402628
215	0x3d40995a	0.047021247
216	0xbe89ad96	-0.26890248
217	0x3e9b3eaf	0.3032126
218	0xbe3232cf	-0.17402194
219	0x3e96fe80	0.29491043
220	0x3e884c0c	0.2662052
221	0x3d5c509a	0.053787805
222	0xbe4be9a9	-0.19913353
223	0xbdaae55f	-0.0834453
224	0xbdc4a84f	-0.09602415
225	0x3e78d526	0.2430006
226	0xbe24b522	-0.16084722
227	0x3e9c1add	0.30489245
228	0xbe71e8fd	-0.23624034
229	0x3dbdc452	0.09265961
230	0xbdffb277	-0.12485211
231	0xbe19d4fb	-0.15022652
232	0xbe2b557a	-0.16731825
233	0x3e7951eb	0.24347655
234	0x3d20b0fe	0.039231293
235	0xbe003e5a	-0.12523785
236	0x3ea1053c	0.31449306
237	0xbe70af2d	-0.23504324
238	0xbd91d693	-0.07121005
239	0x3e9b63e7	0.30349657
240	0x3e9bb949	0.304148
241	0x3e421239	0.18952264
242	0x3e25ce2e	0.16191933
243	0x3d8b3253	0.06796708
244	0x3cc8f7dd	0.024532253
245	0xbe703fa8	-0.23461783
246	0xbd0ab3b9	-0.033862803
247	0x3e80dabf	0.2516689
248	0x3cb4bcfb	0.02206277
249	0xbe87d1f1	-0.2652736
250	0x3e08a30b	0.13343446
251	0xbe520c85	-0.20512588
252	0xbe13ee18	-0.14446294
253	0x3e593376	0.21211037
254	0xbe3deb0e	-0.18546697
255	0x3e32233e	0.17396256

gru.weight_hh_l0_reverse f4 [48, 16]
0	0x3e78f25e	0.24311206
1	0xbc57aac6	-0.013163274
2	0xbde4f77e	-0.11180018
3	0xbc5d931d	-0.013523844
4	0xbdf00151	-0.11719001
5	0xbdbeddf8	-0.09319681
6	0xbcfa4936	-0.030552488
7	0x3e5ab479	0.21357907
8	0xbdea3c80	-0.11437321
9	0xbe8f89e6	-0.28034896
10	0xbdfeeac8	-0.12447125
11	0x3e45fe0c	0.19335192
12	0xbe5444de	-0.20729396
13	0x3e8f985e	0.28045934
14	0xbe6b374f	-0.22970317
15	0xbe2b4d94	-0.16728812
16	0x3d233a80	0.03985071
17	0x3d357d28	0.04430881
18	0x3dc8bc63	0.09801557
19	0x3e3e8879	0.18606748
20	0x3e0fcef6	0.14043793
21	0x3db36dbd	0.08761165
22	0xbe51369f	-0.20430993
23	0xbe1fed86	-0.15617952
24	0x3e8b6ad9	0.27229956
25	0xbe8cce4e	-0.27501148
26	0xbe378ddd	-0.1792521
27	0xbd109516	-0.03529843
28	0x3e15b645	0.14620312
29	0x3c9a1b11	0.018811734
30	0x3e31bd5d	0.17357393
31	0xbd0417ad	-0.03224914
32	0xbe0321db	-0.12805884
33	0xbece5618	-0.4030006
34	0x3e040b3c	0.1289491
35	0xbc897464	-0.016779132
36	0x3cf4f905	0.029903898
37	0x3cf759bd	0.030194158
38	0x3d351318	0.044207662
39	0x3e470494	0.1943534
40	0xbd66ea3c	-0.056375727
41	0x3de38ae1	0.111104734
42	0xbe2e126f	-0.1699922
43	0x3dc1f630	0.09470785
44	0x3c98944d	0.018625403
45	0x3ea6ef74	0.32604563
46	0x3e210623	0.15724997
47	0xbe8ea41e	-0.27859586
48	0xbe76e094	-0.24109107
49	0xbda75f97	-0.08172529
50	0xbe1464ed	-0.14491625
51	0xbde510d2	-0.11184849
52	0x3dc3dcf4	0.09563628
53	0xbcb5c9a7	-0.022190882
54	0x3d2b5c69	0.041836176
55	0x3dc7e5bd	0.09760616
56	0x3df5e307	0.12006193
57	0xbc4ce49d	-0.0125056775
58	0x3e06e2c9	0.13172449
59	0x3e77bb03	0.24192433
60	0xbe1f8fd3	-0.15582208
61	0x3da3c2a3	0.079961084
62	0xbd8ad7c2	-0.06779434
63	0xbe344f26	-0.17608318
64	0xbc29c5a7	-0.010362065
65	0x3d079a52	0.033106156
66	0x3d4917e5	0.049095053
67	0x3dcc3441	0.09970904
68	0xbe8e5bfc	-0.27804554
69	0x3c9471e3	0.018120712
70	0xbc667f18	-0.014068387
71	0x3de9aacb	0.11409529
72	0x3d3a8522	0.04553712
73	0xbe3c1de0	-0.18370771
74	0x3e811fad	0.2521948
75	0xbee00ab5	-0.4375817
76	0x3dc4edeb	0.09615692
77	0x3d0bafd6	0.034103237
78	0xbdb18a8d	-0.086690046
79	0xbe47325e	-0.19452807
80	0xbce1d499	-0.027567195
81	0x3d5da2d5	0.054110367
82	0xbd1aed59	-0.03782401
83	0x3eb35977	0.35029194
84	0xbe54fadb	-0.20798819
85	0x3d8c3999	0.068469234
86	0xbdbf0978	-0.09327978
87	0x3d56f191	0.05247647
88	0xbc73f052	-0.01488884
89	0x3d5f641e	0.05453884
90	0xbe554f5e	-0.20831057
91	0xbd9ca7d8	-0.07649201
92	0xbd8f4246	-0.069950625
93	0x3b580729	0.0032963252
94	0xbdc960b9	-0.098329015
95	0x3d18fd80	0.03735113
96	0x3d051bd9	0.03249726
97	0x3e044178	0.129156
98	0xbe7aaf11	-0.24480845
99	0xbdcdf6f9	-0.10056872
100	0xbc9ead24	-0.01936967
101	0x3dddcffc	0.108306855
102	0xbd46b259	-0.04850993
103	0xbd1f5e81	-0.038908485
104	0x3ce4ce23	0.027930325
105	0x3cf44c1b	0.029821446
106	0x3e1acc05	0.1511689
107	0x3ea7ab44	0.32747853
108	0x3e027bf2	0.12742594
109	0x3e08a083	0.1334248
110	0xbc9fb94b	-0.019497534
111	0x3e64c467	0.22340547
112	0x3c657738	0.014005475
113	0x3d6a00bf	0.057129618
114	0xbc680ae1	-0.01416275
115	0x3e962753	0.29326877
116	0xbde6d142	-0.112703815
117	0xbe3b0031	-0.18261792
118	0x3c81f01c	0.015861563
119	0xbd2cafd6	-0.042159878
120	0xbd392011	-0.045196597
121	0x3e82ea8c	0.2556957
122	0xbde4ec8c	-0.1117793
123	0xbb48ad05	-0.0030620706
124	0x3c0ab2fa	0.008465523
125	0xbe0d2569	-0.13783802
126	0x3e736c62	0.23771814
127	0xbd5b8281	-0.053591255
128	0xbdf3ab1e	-0.118978724
129	0x3d66b1f3	0.05632205
130	0xbdd0afda	-0.10189791
131	0x3e808ac6	0.25105876
132	0xbd4ef3e9	-0.05052558
133	0x3dad9784	0.08476165
134	0x3d11f896	0.03563746
135	0xbbb6a5e9	-0.0055739773
136	0xbee1c358	-0.44094348
137	0xbe2d0485	-0.16896255
138	0xbc741964	-0.014898632
139	0x3db21370	0.08695114
140	0xbd3cfadd	-0.04613768
141	0x3d7313c7	0.059345033
142	0x3d069692	0.03285844
143	0x3e77b70b	0.24190919
144	0x3e118e75	0.142145
145	0x3dbb6a16	0.09151094
146	0x3e4a1b8f	0.19737075
147	0xbe81c639	-0.25346544
148	0x3e21b8c3	0.15793137
149	0xbdc56335	-0.09638063
150	0xbe84e164	-0.2595321
151	0xbe058d6f	-0.13042234
152	0x3d0d06e9	0.03443042
153	0xbe63fa9c	-0.22263569
154	0xbd601853	-0.054710697
155	0xbde274f1	-0.11057461
156	0xbdc2ab93	-0.095053814
157	0x3dc4cc30	0.09609258
158	0x3de6061d	0.11231635
159	0x3dc0926a	0.09402926
160	0xbe02c2f9	-0.12769689
161	0xbddff962	-0.10936238
162	0x3dfbe942	0.1230035
163	0xbd7e7ba1	-0.06212962
164	0xbe025967	-0.12729417
165	0x3e563d0f	0.2092173
166	0xbe141623	-0.1446157
167	0xbdfeba16	-0.12437837
168	0x3d64b189	0.055833373
169	0xbdd815b2	-0.10551013
170	0xbdeaa67a	-0.11457534
171	0x3d1ea639	0.03873274
172	0x3d03f5f6	0.03221699
173	0xbc36b591	-0.011151687
174	0xbc611443	-0.013737741
175	0x3ee1d2c7	0.44106123
176	0xbda9f19e	-0.08298038
177	0xbda7e327	-0.08197623
178	0xbe3bead0	-0.18351293
179	0xbe205920	-0.15658998
180	0x3e926fc7	0.28600904
181	0xbeda8141	-0.42676738
182	0xbe2aa182	-0.16663173
183	0x3d5b6959	0.053567264
184	0xbd8cd4f1	-0.06876553
185	0x3c61fb02	0.013792755
186	0x3c98f8c6	0.018673312
187	0xbe4f8cbf	-0.20268534
188	0x3d8aa8bc	0.06770465
189	0xbe03d798	-0.12875211
190	0x3e62eafb	0.2215995
191	0x3da91c75	0.08257381
192	0xbd157877	-0.036491837
193	0x3e3e4372	0.18580416
194	0xbe00516f	-0.12531064
195	0xbd454e4b	-0.04817037
196	0xbdc4d0a7	-0.0961011
197	0x3d6a3ec3	0.05718876
198	0xbdd1bc9c	-0.102410525
199	0x3db41a6a	0.087941006
200	0x3deeed80	0.11666393
201	0x3e056516	0.13026842
202	0xbe44fd1d	-0.1923718
203	0xbe78e014	-0.24304229
204	0xbd8efa5c	-0.06981346
205	0xbe3440e4	-0.17602879
206	0x3d2e073c	0.042487368
207	0x3d5a0c16	0.053234182
208	0xbdfb3da6	-0.12267618
209	0xba2f0806	-0.0006676916
210	0xbcb72192	-0.022354875
211	0xbcfbeea9	-0.03075345
212	0xbd81a5fa	-0.06330486
213	0xbe009354	-0.12556201
214	0xbd461f86	-0.048369907
215	0xbd660107	-0.056153324
216	0x3d835f6e	0.06414686
217	0xbdb94cdb	-0.09047862
218	0xbd2885ac	-0.041143104
219	0x3e86933a	0.262842
220	0xbe6ac467	-0.22926484
221	0xbe6086a8	-0.21926367
222	0xbe67c32f	-0.2263305
223	0x3e5e1ee5	0.21691473
224	0x3db58c52	0.088646546
225	0xbc8af46c	-0.016962253
226	0xbe949ff7	-0.29028293
227	0xbe5c78e9	-0.21530499
228	0xbead2db4	-0.3382393
229	0x3e914929	0.2837613
230	0x3db5fb0e	0.088857755
231	0x3e420586	0.1894742
232	0x3e20f124	0.15716988
233	0xbdbff16a	-0.09372218
234	0xbba0383d	-0.0048895166
235	0xbcb12948	-0.02162613
236	0x3d8a29b8	0.067462385
237	0x3c60a398	0.013710879
238	0x3e2a57e4	0.1663509
239	0xbe1096cc	-0.14120024
240	0xbd9aab9f	-0.075522654
241	0x3df781b3	0.12085285
242	0x3a78beb2	0.0009488865
243	0xbea8782d	-0.32904187
244	0xbc6264a2	-0.013817938
245	0x3d9fd65f	0.0780456
246	0xbe2a963a	-0.1665887
247	0xb9dbc691	-0.0004191888
248	0xbe2b269d	-0.16713949
249	0x3e2f8dd5	0.17143948
250	0xbe2868d5	-0.1644624
251	0xbb949401	-0.004534245
252	0x3e1cdb05	0.15317924
253	0x3dd2655d	0.1027324
254	0x3e024fe6	0.12725791
255	0xbd6976dc	-0.05699812

gru.bias_ih_l0_reverse f4 [48]
0	0xbcbf0c28	-0.023321226
1	0x3c8f7056	0.01750962
2	0xbc9441ad	-0.018097723
3	0xbcd1b9d5	-0.025601307
4	0x3c41aede	0.011821477
5	0x3b98ce40	0.004663259
6	0x3cc46439	0.023973571
7	0xbbc00228	-0.005859632
8	0xbc7b312f	-0.0153315505
9	0xbc4473f0	-0.011990532
10	0x3c122346	0.008919543
11	0x3cf80362	0.03027505
12	0x3d030612	0.03198821
13	0x3d0042fa	0.031313874
14	0xbbb44978	-0.005501922
15	0x3cd15c98	0.025556847
16	0xbced93b7	-0.0290011
17	0x3c8dabb8	0.017293796
18	0xbce82551	-0.028338106
19	0xbcd669d4	-0.02617351
20	0x3c97536d	0.018472398
21	0x3cdac4b7	0.02670513
22	0xbcd62f9c	-0.026145749
23	0x3b0acdd4	0.0021179812
24	0x3c7af789	0.015317806
25	0x3c83eb84	0.016103514
26	0x3bb56288	0.0055354275
27	0x3cb13939	0.021633731
28	0xbcb76a9f	-0.022389708
29	0xbcf50571	-0.029909821
30	0xbcea2eb6	-0.028586727
31	0xbcc63e1e	-0.024199542
32	0x3ce0f89d	0.027462298
33	0x3bcf076b	0.006318023
34	0x3cf4b52b	0.029871544
35	0x3ce07e98	0.027404115
36	0xbc853942	-0.016262654
37	0xbccc964f	-0.024974016
38	0x3cc83773	0.024440503
39	0xbca86194	-0.020554341
40	0xbc84a02d	-0.016189659
41	0xbc8901a3	-0.016724413
42	0xbbc4c800	-0.006005287
43	0xbce4717e	-0.027886149
44	0x3ce11468	0.02747555
45	0x3cf77f29	0.030212002
46	0x3ce4122d	0.027840698
47	0xbb1b6f51	-0.0023717473

gru.bias_hh_l0_reverse f4 [48]
0	0xbcbf0c28	-0.023321226
1	0x3c8f7056	0.01750962
2	0xbc9441ad	-0.018097723
3	0xbcd1b9d5	-0.025601307
4	0x3c41aede	0.011821477
5	0x3b98ce40	0.004663259
6	0x3cc46439	0.023973571
7	0xbbc00228	-0.005859632
8	0xbc7b312f	-0.0153315505
9	0xbc4473f0	-0.011990532
10	0x3c122346	0.008919543
11	0x3cf80362	0.03027505
12	0x3d030612	0.03198821
13	0x3d0042fa	0.031313874
14	0xbbb44978	-0.005501922
15	0x3cd15c98	0.025556847
16	0xbced93b7	-0.0290011
17	0x3c8dabb8	0.017293796
18	0xbce82551	-0.028338106
19	0xbcd669d4	-0.02617351
20	0x3c97536d	0.018472398
21	0x3cdac4b7	0.02670513
22	0xbcd62f9c	-0.026145749
23	0x3b0acdd4	0.0021179812
24	0x3c7af789	0.015317806
25	0x3c83eb84	0.016103514
26	0x3bb56288	0.0055354275
27	0x3cb13939	0.021633731
28	0xbcb76a9f	-0.022389708
29	0xbcf50571	-0.029909821
30	0xbcea2eb6	-0.028586727
31	0xbcc63e1e	-0.024199542
32	0x3cde1f3f	0.027114509
33	0xbaa610bb	-0.0012669781
34	0x3cf027ae	0.029315796
35	0x3cdc1d08	0.026869312
36	0xbc921e47	-0.017836703
37	0xbccca7ca	-0.024982352
38	0x3cc8fa98	0.024533555
39	0xbca480fe	-0.02008104
40	0xbc845a6d	-0.0161564
41	0xbc913eca	-0.017730135
42	0xbbc23e43	-0.0059278323
43	0xbce22f1a	-0.02761035
44	0x3ce5b088	0.028038278
45	0x3cf77cd1	0.030210884
46	0x3ce06d24	0.027395792
47	0x3a33c459	0.0006857566

fc_layers.0.weight f4 [64, 32]
0	0x3e7b8983	0.24564175
1	0xbd30d763	-0.04317416
2	0xbb51d40c	-0.003201726
3	0xbe1f55db	-0.15560095
4	0xbe1f7090	-0.15570283
5	0x3cbb73d4	0.02288238
6	0x3e2ae5c2	0.16689208
7	0xbe817a85	-0.25288787
8	0x3e2e1362	0.16999581
9	0xbe2fb41c	-0.1715855
10	0x3e6754c4	0.2259093
11	0xbe8068ca	-0.25079948
12	0x3e51a999	0.20474853
13	0xbe49dcb3	-0.19713096
14	0xbce140b6	-0.027496677
15	0x3e0f9af9	0.14023961
16	0xbe459237	-0.19294058
17	0xbdb63d87	-0.08898454
18	0xbdef8760	-0.116957426
19	0x3c03a5ac	0.008035105
20	0xbe771615	-0.24129517
21	0x3ca61317	0.020272775
22	0xbe20b855	-0.15695317
23	0xbd877d36	-0.06615679
24	0xbd63da4c	-0.055628106
25	0xbd895816	-0.06706254
26	0xbd71b1a8	-0.059007317
27	0x3e5429bf	0.2071905
28	0x3e0d3916	0.13791308
29	0x3c5e86d8	0.013581954
30	0x3e1c9d07	0.15294276
31	0xbb81ce3d	-0.003961353
32	0x3d80b2f6	0.06284134
33	0xbe3a141e	-0.18171737
34	0x3d99863a	0.07496305
35	0x3e73be74	0.23803121
36	0xbe1a32cc	-0.1505844
37	0xbd3587de	-0.044319026
38	0x3e62756a	0.22115102
39	0xbe1e39a9	-0.15451683
40	0xbe10973b	-0.1412019
41	0x3dedab1e	0.11604904
42	0xbd5814f6	-0.052754365
43	0x3d452662	0.048132308
44	0xbe020400	-0.12696838
45	0xbe220056	-0.1582044
46	0xbca489c2	-0.02008522
47	0xbe243f36	-0.16039738
48	0x3d91a180	0.07110882
49	0x3e2b3245	0.16718395
50	0x3dbeabd8	0.0931012
51	0x3e3d5926	0.18491039
52	0xbcff26f9	-0.031146513
53	0x3dc58530	0.09644544
54	0xbd9b8345	-0.07593397
55	0xbe5ad673	-0.21370868
56	0xbd2a8122	-0.041627057
57	0x3e4eed0f	0.20207618
58	0x3c1dd9be	0.009634433
59	0x3de2bd24	0.11071232
60	0xbdda30f0	-0.10653865
61	0x3e148fc0	0.14507961
62	0xbe20edf2	-0.15715769
63	0x3b279e09	0.0025576374
64	0x3e3b6095	0.18298562
65	0x3e6b72aa	0.2299296
66	0xbdf2c693	-0.11854281
67	0xbdbdf8ac	-0.09275946
68	0xbb43974f	-0.0029844826
69	0x3e2a9d22	0.16661504
70	0x3da09459	0.07840795
71	0xbd7b87a9	-0.061408672
72	0xbe467adc	-0.19382805
73	0xbe7f774d	-0.24947853
74	0xbd92886c	-0.07154927
75	0xbd3bd24a	-0.045854844
76	0xbe161b77	-0.14658915
77	0x3e175b75	0.14780982
78	0xbe8629e7	-0.26203844
79	0x3e06b000	0.13153076
80	0xbe2f05ca	-0.17092052
81	0x3e587d84	0.2114163
82	0x3deacc27	0.1146472
83	0xbcd7740e	-0.026300456
84	0x3e4b7819	0.19870032
85	0x3c8bfebb	0.017089238
86	0x3e1bb5cc	0.15206069
87	0x3dab1da6	0.08355264
88	0xbe82845c	-0.25491607
89	0x3e51d133	0.2048996
90	0xbe66536c	-0.2249276
91	0x3e2924f2	0.16518
92	0xbd21a730	-0.039466083
93	0x3c7b034c	0.01532061
94	0x3d889c6b	0.06670459
95	0xbdf1e691	-0.11811555
96	0xbe024159	-0.1272024
97	0x3e1c9ff2	0.1529539
98	0xbe651b1a	-0.2237362
99	0x3d8cd282	0.06876089
100	0xbe7980ab	-0.24365489
101	0xbcf86126	-0.030319761
102	0xbdb4193a	-0.08793874
103	0x3dac5380	0.08414364
104	0x3e0c2531	0.13686062
105	0x3e264eb0	0.16240954
106	0x3e4e5479	0.20149411
107	0xbc104fa0	-0.008808047
108	0x3cab6c6a	0.02092572
109	0x3e329684	0.1744023
110	0xbdcd9dc5	-0.10039858
111	0xbd481b73	-0.048854303
112	0xbe6b987a	-0.23007384
113	0x3e3f8486	0.18702897
114	0xbdc20bfd	-0.09474943
115	0xbe4e8227	-0.20166837
116	0xbe247610	-0.16060662
117	0x3e0faac5	0.14029987
118	0x3d518fd4	0.051162556
119	0xbd8aafe1	-0.067718275
120	0x3e5cfc35	0.21580584
121	0xbe1628b3	-0.14663963
122	0xbe3cae0e	-0.18425772
123	0xbd8f6c5b	-0.07003089
124	0xbe803a6f	-0.2504458
125	0xbdf1b2cb	-0.1180168
126	0xbe0f9cd0	-0.14024663
127	0x3d300482	0.04297305
128	0xbe512236	-0.20423207
129	0xbe02cf80	-0.12774467
130	0x3d49c500	0.04926014
131	0xbe39e236	-0.18152699
132	0xbe531dce	-0.20616838
133	0xbe4e0b16	-0.20121416
134	0xbd4afe08	-0.04955867
135	0xbe7b5506	-0.24544153
136	0x3e3273fa	0.17427054
137	0xbe09a198	-0.1344055
138	0xbe747ff2	-0.23876932
139	0xbe78be70	-0.24291396
140	0xbe42e758	-0.19033563
141	0x3dbcb168	0.09213525
142	0xbd3c1e00	-0.045927048
143	0x3ce3eba0	0.027822316
144	0xbe749b94	-0.23887473
145	0x3e3e050e	0.18556616
146	0x3e576a00	0.2103653
147	0xbe4490a0	-0.19195795
148	0xbe238872	-0.15970019
149	0x3d24ec58	0.040264457
150	0xbdd7600c	-0.10516366
151	0xbd88960c	-0.06669244
152	0xbe5947da	-0.21218815
153	0x3c6e8ca0	0.014559895
154	0xbe0e9b6a	-0.13926473
155	0xbdb14d08	-0.08657271
156	0x3e68cee8	0.22735178
157	0xbd1575c0	-0.03648925
158	0x3e1ffce0	0.15623808
159	0xbe741fce	-0.23840258
160	0x3d14ce50	0.036329567
161	0xbe1ce04c	-0.15319937
162	0x3d58f218	0.052965254
163	0xbddfe1e4	-0.10931757
164	0x3dcd1b08	0.100149214
165	0x3e3665dc	0.17812294
166	0xbe4f81ee	-0.20264408
167	0xbe5b4c1e	-0.21415755
168	0x3c478c20	0.0121794045
169	0xbe54fd66	-0.20799789
170	0xbdb56150	-0.088564515
171	0xbe59524a	-0.21222797
172	0x3e323b3c	0.17405409
173	0xbcf3a890	-0.029743463
174	0xbdb1655c	-0.08661911
175	0xbdfb3e14	-0.122677
176	0x3e37da6c	0.17954415
177	0xbe38d500	-0.18050003
178	0xbc1405a0	-0.009034544
179	0x3e3b7fd4	0.18310481
180	0x3e633044	0.2218638
181	0x3e1f892a	0.15579668
182	0xbdf84050	-0.12121642
183	0x3db26c8c	0.0871211
184	0xbe3add58	-0.18248498
185	0x3e5f52e0	0.21808958
186	0x3e35b6d6	0.17745528
187	0xbc8ac270	-0.016938418
188	0x3dc0d728	0.09416038
189	0x3d7c2380	0.061557293
190	0xbdda657c	-0.10663888
191	0xbdaf3804	-0.08555606
192	0xbe29c3da	-0.16578618
193	0x3e6fcd6d	0.23418207
194	0x3e7d819e	0.24756476
195	0x3e2e622d	0.17029639
196	0xbc8d2ef9	-0.017234312
197	0xbe57ff5e	-0.21093509
198	0x3decc956	0.11561839
199	0x3e8806af	0.265676
200	0x3e5dfaed	0.21677752
201	0xbd207227	-0.039171364
202	0xbd98268d	-0.07429228
203	0x3e5e123c	0.21686643
204	0x3db031e2	0.086032644
205	0xbdc53718	-0.09629649
206	0xbe4c9a3b	-0.19980709
207	0x3d323694	0.04350908
208	0x3e198f11	0.14995982
209	0xbe214f57	-0.15752922
210	0x3e818955	0.2530009
211	0x3e4fa1c5	0.20276554
212	0x3df147d3	0.117812775
213	0xbe52187e	-0.20517156
214	0x3e7796bd	0.24178596
215	0xbd351da2	-0.044217713
216	0xbe2eef48	-0.17083466
217	0x3e19aec9	0.15008081
218	0x3e865458	0.26236224
219	0x3bc21cc7	0.0059238407
220	0x3e88ff32	0.267572
221	0x3dc1cf0c	0.09463319
222	0x3e103a4f	0.14084743
223	0xbd9daf90	-0.076995015
224	0xbc8974bd	-0.016779298
225	0x3da7236d	0.08161054
226	0xbddfbec7	-0.1092506
227	0xbdb55476	-0.08854
228	0x3d8d0e51	0.06887496
229	0xbdc08eb1	-0.09402216
230	0x3e669dd1	0.2252114
231	0x3d953a75	0.072865404
232	0xbe3563af	-0.17713808
233	0xbd706055	-0.05868562
234	0x3e2d8578	0.16945446
235	0x3e3da4ef	0.18519948
236	0xbd0dfd82	-0.034665592
237	0xbc333843	-0.010938707
238	0x3c28c54a	0.010300944
239	0x3ca828a2	0.020527188
240	0xbc8bfb13	-0.017087495
241	0x3db61e60	0.08892512
242	0xbe5879d7	-0.21140228
243	0xbdc155ff	-0.094402306
244	0x3df36a4e	0.118855104
245	0xbe7a24f1	-0.24428155
246	0x3e4e81bf	0.20166682
247	0x3b2412a4	0.0025035525
248	0x3e63a30b	0.22230165
249	0xbd630a62	-0.055429824
250	0x3c935219	0.017983483
251	0x3d329da7	0.04360738
252	0x3e5c4762	0.21511605
253	0x3e097dc5	0.13426884
254	0xbe0f6091	-0.14001681
255	0xbe788a3d	-0.24271484

fc_layers.0.bias f4 [64]
0	0xbb47f4fe	-0.0030511017
1	0x3c3b1a87	0.011419899
2	0xbc6c66b0	-0.0144287795
3	0xbc89d279	-0.016823994
4	0x00000000	0.0
5	0x00000000	0.0
6	0x3cd478b8	0.02593647
7	0xbca4d2f2	-0.020120118
8	0x3cefaed8	0.029258177
9	0x00000000	0.0
10	0xbbfe4eb9	-0.0077608493
11	0x00000000	0.0
12	0x3caea602	0.021319393
13	0xbc630e96	-0.013858458
14	0xbc824608	-0.015902534
15	0x00000000	0.0
16	0xbbf85536	-0.0075785173
17	0xbc13d10a	-0.009022007
18	0xbc984666	-0.018588256
19	0xbc001ade	-0.007818906
20	0x3ca886be	0.020572063
21	0xbc192df3	-0.009349334
22	0x3cb7ecdf	0.022451816
23	0x3c43bedc	0.01194736
24	0xbcc3e733	-0.023913955
25	0x00000000	0.0
26	0x00000000	0.0
27	0x00000000	0.0
28	0xbc21cdd5	-0.009875734
29	0xbbd537e1	-0.0065069054
30	0x00000000	0.0
31	0x3cdd6778	0.027026877
32	0xbcafe05a	-0.021469284
33	0xbc499687	-0.012303955
34	0x3c8494ad	0.016184175
35	0x3cea9975	0.028637627
36	0xbbb51429	-0.005526085
37	0x39ae0d33	0.000331977
38	0xbc343d0c	-0.011000883
39	0x3c4a89b9	0.012361937
40	0x3cfb5adc	0.030682974
41	0xbc6dfe8d	-0.014526022
42	0x3c89ce05	0.01682187
43	0x00000000	0.0
44	0x3beba981	0.0071918373
45	0xbc01f2e9	-0.007931449
46	0x3ce50c4a	0.027959961
47	0xbc8cf41c	-0.017206244
48	0x3cacda37	0.021100147
49	0x3ba955ed	0.005167714
50	0xbc7f8949	-0.015596696
51	0xbc679a78	-0.014135949
52	0x3ce93633	0.028468227
53	0x3baf9b26	0.0053590713
54	0xbcb9b935	-0.022671321
55	0x3c160cc1	0.009158314
56	0x3ce38c46	0.027776849
57	0x00000000	0.0
58	0xbc8d874b	-0.017276427
59	0x3d0034ac	0.03130023
60	0x00000000	0.0
61	0x00000000	0.0
62	0x3ccd3822	0.02505118
63	0xbc53d627	-0.012929476

fc_layers.3.weight f4 [32, 64]
0	0x3e50e9d2	0.20401695
1	0x3e1ea503	0.15492634
2	0xbe430266	-0.19043884
3	0x3e5171fc	0.20453638
4	0x3d92f38c	0.07175359
5	0xbe79a126	-0.2437788
6	0xbe76aefe	-0.24090192
7	0x3da4a234	0.0803875
8	0xbe50995f	-0.20371006
9	0xbd9eb8c8	-0.07750088
10	0x3db3e9e5	0.08784846
11	0x3e2a0412	0.16603115
12	0x3d1460fe	0.03622531
13	0xbc365235	-0.011127998
14	0x3e485e2e	0.19567177
15	0xbe122da2	-0.1427522
16	0xbe292db3	-0.16521339
17	0xbe0ec2d4	-0.13941509
18	0xbd0b61a7	-0.034028675
19	0x3e1bb060	0.15204
20	0x3e47c8f2	0.19510248
21	0x3e0c123e	0.13678834
22	0x3e29a2b9	0.1656598
23	0x3d79d14e	0.060990624
24	0xbe7a7397	-0.24458157
25	0x3d4ac7a8	0.049506813
26	0x3e458394	0.19288474
27	0x3e3c95e6	0.18416557
28	0xbe0d902b	-0.13824527
29	0x3dbfad56	0.09359233
30	0xbd2ad350	-0.04170543
31	0xbdedbb62	-0.11608006
32	0xbe3d876e	-0.18508694
33	0xbe80af5d	-0.25133792
34	0xbe51c889	-0.20486654
35	0xbe72add4	-0.23699123
36	0xbe10fcdb	-0.14158957
37	0xbe7293a1	-0.23689128
38	0x3e7f6c46	0.24943647
39	0x3daeca67	0.08534699
40	0x3e5ecb90	0.2175734
41	0x3da1980a	0.07890327
42	0x3ddd92ed	0.108190395
43	0x3db405b0	0.08790147
44	0x3d9dbc4f	0.07701933
45	0xbe7bcd1c	-0.24589962
46	0x3e4f0bc8	0.20219338
47	0x3d948360	0.0725162
48	0xbe31132d	-0.17292471
49	0x3baf85d4	0.0053565297
50	0xbd25044e	-0.04028731
51	0x3e327245	0.17426403
52	0xbe3bf460	-0.1835494
53	0x3d635041	0.055496458
54	0x3e17b681	0.14815713
55	0x3d20e3dd	0.039279807
56	0xbdf27b8f	-0.11839973
57	0xbe23c1e4	-0.15991932
58	0xbe5aa5c6	-0.213523
59	0x3c076523	0.008263859
60	0x3c8c06d0	0.017093092
61	0x3e0140f0	0.12622428
62	0xbe85c205	-0.26124588
63	0xbd82f064	-0.06393507
64	0x3dd47f38	0.103758276
65	0x3d8c8b72	0.068625346
66	0xbc6a29e9	-0.014292219
67	0xbbd72df9	-0.0065667597
68	0x3d5ad9a8	0.05343023
69	0xbdf45730	-0.11930692
70	0xbdfd59e8	-0.12370664
71	0x3e26cca9	0.16289009
72	0x3e23e75a	0.16006222
73	0xbe05a942	-0.13052848
74	0x3e4a992f	0.19784997
75	0xbdf01964	-0.11723593
76	0xbda20924	-0.079119
77	0xbe5a4af1	-0.2131765
78	0x3e608170	0.21924376
79	0x3e0eecb0	0.13957477
80	0x3e421296	0.18952402
81	0x3e28b894	0.16476661
82	0xbd32e2ba	-0.043673255
83	0xbe3ba282	-0.1832371
84	0xbe7b28bb	-0.24527256
85	0x3e5acabf	0.21366404
86	0x3dd3fd51	0.10351051
87	0xba624f71	-0.00086330535
88	0x3e41f346	0.18940458
89	0x3e3189c8	0.17337716
90	0x3d0ee010	0.03488165
91	0xbe0b71d4	-0.1361764
92	0xbd336600	-0.043798447
93	0x3dd2547c	0.1027002
94	0x3ca1e2e0	0.019761503
95	0x3e33fb62	0.17576364
96	0x3e453847	0.1925975
97	0xbe288f9c	-0.16461033
98	0xbd1a1a74	-0.037622884
99	0x3e4636b4	0.19356805
100	0x3e262c0b	0.16227739
101	0xbe16cfbf	-0.14727686
102	0x3e3ae71e	0.18252227
103	0xbd72511e	-0.05915939
104	0x3c0c78a8	0.008573689
105	0xbe3a7bbc	-0.18211263
106	0x3df71bd0	0.12065852
107	0x3e50c5f2	0.2038801
108	0xbe3b5ec6	-0.18297872
109	0xbe3521a0	-0.17688608
110	0xbe68c2cb	-0.22730558
111	0x3e0a8cc7	0.13530265
112	0x3e1317af	0.14364503
113	0xbe82904a	-0.2550071
114	0xbe32b933	-0.1745346
115	0xbdbd04f8	-0.09229463
116	0x3e298414	0.1655429
117	0xbb8d4ad0	-0.004311897
118	0x3e441d10	0.19151711
119	0xbe4f0246	-0.20215711
120	0x3e0692b7	0.13141905
121	0xbc660900	-0.014040232
122	0xbe684372	-0.22681978
123	0x3e2506b9	0.16115846
124	0x3e776698	0.2416023
125	0xbc79f240	-0.015255511
126	0x3dbb8038	0.09155315
127	0x3df24952	0.11830391
128	0xbe5ced5f	-0.21574925
129	0x3e207643	0.15670113
130	0xbd013349	-0.03154305
131	0x3dff7cf8	0.12475008
132	0x3dc2c75c	0.09510681
133	0xbe74d7e2	-0.23910478
134	0x3e4b9522	0.19881108
135	0xbd188115	-0.037232477
136	0x3e4bb48c	0.19893092
137	0xbe647f4c	-0.22314185
138	0x3de6c250	0.11267531
139	0x3e4cd0c4	0.20001513
140	0x3e2ec86f	0.17068647
141	0x3e501bc0	0.20323086
142	0x3d982aa3	0.07430007
143	0x3e68b5de	0.22725627
144	0xbd47975f	-0.048728343
145	0x3d35536b	0.044269007
146	0x3e590b38	0.21195686
147	0x3e3416f3	0.1758688
148	0xbcfc36c6	-0.030787837
149	0xbd089866	-0.033348463
150	0xbd9e0e84	-0.077176124
151	0x3e10f0d4	0.14154369
152	0x3dfb7748	0.122786105
153	0x3da30810	0.07960522
154	0xbd750188	-0.059815913
155	0x3e0a341a	0.13496438
156	0xbded7988	-0.11595446
157	0x3c08a669	0.0083404565
158	0xbe255d66	-0.1614891
159	0xbe8b0d87	-0.27158758
160	0x3e0c1959	0.13681544
161	0x3e23f420	0.16011095
162	0xbe43e144	-0.19128901
163	0xbe4c35d6	-0.19942412
164	0xbca256d7	-0.0198168
165	0x3e2be38f	0.16786025
166	0x3dea19fa	0.11430736
167	0x3de38726	0.11109762
168	0xbd661e2d	-0.05618112
169	0x3e5ad3cd	0.21369858
170	0x3d77b3fa	0.060474373
171	0xbe2f8fd8	-0.17144716
172	0xbdf41120	-0.11917329
173	0x3e6c5339	0.23078622
174	0xbe561e77	-0.20910059
175	0xbcb5f102	-0.022209648
176	0x3d3d8a96	0.046274744
177	0x3d8907f3	0.06690969
178	0x3d8952d3	0.067052506
179	0x3d32b49b	0.04362927
180	0xbe7666b9	-0.24062623
181	0x3d1c2fc7	0.0381315
182	0xbe81fbf7	-0.25387546
183	0xbda7ef67	-0.08199959
184	0xbc975d77	-0.018477185
185	0xbe6e45d0	-0.23268819
186	0x3e654c4a	0.22392383
187	0x3b654671	0.0034984613
188	0x3e6544ca	0.22389522
189	0x3b061180	0.0020457208
190	0xbe789a24	-0.2427755
191	0x3e434b8f	0.19071792
192	0x3df25894	0.11833301
193	0x3c4e91aa	0.012607971
194	0xbe60777e	-0.21920583
195	0xbe47d8b9	-0.19516267
196	0x3df68cb4	0.12038556
197	0x3e679836	0.22616658
198	0x3d0005e7	0.03125563
199	0xbe69a95b	-0.2281851
200	0x3c91eec2	0.017814044
201	0x3d396908	0.04526618
202	0x3e566825	0.20938165
203	0xbccf3f60	-0.025298774
204	0x3dc86b4d	0.09786091
205	0xbdfcdf1d	-0.12347243
206	0x3e3c0606	0.18361673
207	0xbe176f44	-0.14788538
208	0x3d0b4abf	0.03400683
209	0xbe024aff	-0.12723921
210	0x3e46ba76	0.19407067
211	0x3d91c791	0.071181424
212	0xbe660685	-0.22463425
213	0x3d868dae	0.06569992
214	0xbe87c6b8	-0.26518798
215	0xbe68c4e5	-0.2273136
216	0x3db1a48a	0.086739615
217	0x3e649ea2	0.22326139
218	0x3e002098	0.12512434
219	0xbe7fad28	-0.24968398
220	0x3d8791a0	0.06619573
221	0x3e2f540e	0.17121908
222	0xbbc7d840	-0.006098777
223	0xbe490580	-0.19631004
224	0xbe866f12	-0.26256615
225	0x3dddf54c	0.10837802
226	0x3dcfcd83	0.1014662
227	0xbdc1632b	-0.09442743
228	0x3e62e2d2	0.22156838
229	0xbd922b11	-0.071371205
230	0x3e6f10a7	0.23346196
231	0xbe692330	-0.22767329
232	0xbe1088d5	-0.14114697
233	0x3d25cd9e	0.040479295
234	0xbe6d9df1	-0.23204781
235	0x3c7f23a0	0.0155724585
236	0x3ccb5dd8	0.024825022
237	0x3d04ec87	0.032452133
238	0x3c8fad5d	0.01753872
239	0x3da07ef2	0.07836713
240	0x3e4f372a	0.20235887
241	0x3d17986d	0.0370106
242	0xbe68ae6d	-0.22722788
243	0xbe39ff86	-0.1816388
244	0x3e6c7655	0.23092015
245	0x3e69a9d7	0.22818695
246	0x3d91ec81	0.07125188
247	0xbe2041ac	-0.15650052
248	0xbddc03d9	-0.107429214
249	0xbb128800	-0.0022358894
250	0x3e5efcd3	0.21776132
251	0xbe5eb697	-0.2174934
252	0x3d801480	0.0625391
253	0x3e13fab0	0.14451098
254	0x3dc4e68d	0.096142866
255	0xbd161114	-0.03663738

fc_layers.3.bias f4 [32]
0	0xbc8f6981	-0.017506363
1	0xbcbb1b1a	-0.022840071
2	0xbcd3215c	-0.025772743
3	0xbc8c8fd0	-0.017158419
4	0x3cdb04bd	0.026735658
5	0x3ce9cd56	0.028540295
6	0x3ce5a71c	0.028033786
7	0xbc898221	-0.016785683
8	0xbc737090	-0.01485838
9	0x3cf86ff0	0.030326813
10	0xbcc8b8d7	-0.024502201
11	0xbcad9cea	-0.021192987
12	0x3ce27204	0.027642258
13	0x3ce7fc15	0.028318444
14	0x00000000	0.0
15	0xbcb1607a	-0.021652449
16	0x3d02ba09	0.0319157
17	0x3ce8b2dc	0.0284056
18	0x3cdb13c7	0.026742829
19	0xbc517b56	-0.012785753
20	0x3ce35163	0.02774877
21	0xbc3d35a2	-0.011548432
22	0xbc1e0665	-0.009645079
23	0xbca0e3cb	-0.01963987
24	0xbc5d7915	-0.013517638
25	0xbc9eed57	-0.019400282
26	0x3ce89308	0.028390422
27	0xbc6b5887	-0.014364368
28	0xbc5e1247	-0.013554162
29	0x3d009da1	0.031400327
30	0x3cddd58f	0.027079372
31	0xbccbd5f4	-0.024882294

fc_layers.6.weight f4 [1, 32]
0	0xbe7e911f	-0.24860047
1	0xbe1ed41b	-0.155106
2	0xbe18e356	-0.14930472
3	0xbde30c46	-0.11086325
4	0x3e9999eb	0.30000243
5	0x3eae7604	0.34074414
6	0x3e6e8660	0.23293447
7	0xb9e1fccf	-0.000431037
8	0xbe20eb93	-0.15714864
9	0x3eb11405	0.34585586
10	0xbdaf6e89	-0.08566005
11	0xbd909751	-0.07060111
12	0x3de5ca06	0.112201735
13	0x3eddc06b	0.43310866
14	0xbe95ad85	-0.29233947
15	0xbd858e93	-0.065213345
16	0x3eb76ea4	0.358266
17	0x3d8a9f49	0.067686625
18	0x3e52266c	0.2052247
19	0xbebd7c1a	-0.37008744
20	0x3e1bb899	0.15207137
21	0xbea665bd	-0.32499495
22	0xbe94f4a9	-0.2909291
23	0xbecbf874	-0.39837992
24	0xbe31bfd4	-0.17358333
25	0xbecac5e6	-0.3960411
26	0x3dff922c	0.12479052
27	0xbe24ea12	-0.16104916
28	0xbe82189a	-0.25409395
29	0x3d8ad3a7	0.06778651
30	0x3cef5bb2	0.029218528
31	0xbe758e62	-0.23980096
